#loc = loc("/home/tristan/llmd-triton-kernel-generation/vllm_kernels/new_triton_unified_attention.py":1127:0)
#loc1 = loc(unknown)
#loc2 = loc("/home/tristan/llmd-triton-kernel-generation/vllm_kernels/new_triton_unified_attention.py":1250:8)
#loc3 = loc("/home/tristan/llmd-triton-kernel-generation/vllm_kernels/new_triton_unified_attention.py":112:68)
#loc21 = loc("left")
#loc22 = loc("right")
#loc133 = loc("/home/tristan/llmd-triton-kernel-generation/vllm_kernels/new_triton_unified_attention.py":353:35)
#loc142 = loc("/home/tristan/llmd-triton-kernel-generation/vllm_kernels/new_triton_unified_attention.py":363:21)
#loc163 = loc("output_ptr"(#loc))
#loc164 = loc("query_ptr"(#loc))
#loc165 = loc("key_cache_ptr"(#loc))
#loc166 = loc("value_cache_ptr"(#loc))
#loc167 = loc("block_tables_ptr"(#loc))
#loc168 = loc("seq_lens_ptr"(#loc))
#loc169 = loc("scale_ptr"(#loc))
#loc170 = loc("k_scale_ptr"(#loc))
#loc171 = loc("v_scale_ptr"(#loc))
#loc172 = loc("out_scale_ptr"(#loc))
#loc173 = loc("softcap_ptr"(#loc))
#loc174 = loc("block_table_stride_ptr"(#loc))
#loc175 = loc("query_stride_0_ptr"(#loc))
#loc176 = loc("query_stride_1_ptr"(#loc))
#loc177 = loc("output_stride_0_ptr"(#loc))
#loc178 = loc("output_stride_1_ptr"(#loc))
#loc179 = loc("qq_bias_stride_0_ptr"(#loc))
#loc180 = loc("stride_k_cache_0_ptr"(#loc))
#loc181 = loc("stride_k_cache_1_ptr"(#loc))
#loc182 = loc("stride_k_cache_2_ptr"(#loc))
#loc183 = loc("stride_v_cache_0_ptr"(#loc))
#loc184 = loc("stride_v_cache_1_ptr"(#loc))
#loc185 = loc("stride_v_cache_2_ptr"(#loc))
#loc186 = loc("query_start_len_ptr"(#loc))
#loc187 = loc("num_seqs_ptr"(#loc))
#loc189 = loc("seq_idx"(#loc3))
#loc206 = loc("left"(#loc21))
#loc207 = loc("right"(#loc22))
#loc311 = loc("m_j"(#loc133))
#loc318 = loc("l_j"(#loc142))
#loc337 = loc(callsite(#loc189 at #loc2))
#loc437 = loc(callsite(#loc311 at #loc2))
#loc444 = loc(callsite(#loc318 at #loc2))
#loc462 = loc(callsite(#loc206 at #loc337))
#loc463 = loc(callsite(#loc207 at #loc337))
#loc479 = loc(callsite(#loc1 at #loc437))
#loc481 = loc(callsite(#loc1 at #loc444))
module {
  tt.func public @wrapped_kernel_unified_attention_2d(%query_ptr: !tt.ptr<bf16> {tt.divisibility = 16 : i32, tt.pointer_range = 32 : i32} loc("query_ptr"(#loc)), %key_cache_ptr: !tt.ptr<bf16> {tt.divisibility = 16 : i32, tt.pointer_range = 32 : i32} loc("key_cache_ptr"(#loc)), %value_cache_ptr: !tt.ptr<bf16> {tt.divisibility = 16 : i32, tt.pointer_range = 32 : i32} loc("value_cache_ptr"(#loc)), %block_tables_ptr: !tt.ptr<i32> {tt.divisibility = 16 : i32, tt.pointer_range = 32 : i32} loc("block_tables_ptr"(#loc)), %seq_lens_ptr: !tt.ptr<i32> {tt.divisibility = 16 : i32, tt.pointer_range = 32 : i32} loc("seq_lens_ptr"(#loc)), %scale_ptr: !tt.ptr<f32> {tt.divisibility = 16 : i32, tt.pointer_range = 32 : i32} loc("scale_ptr"(#loc)), %k_scale_ptr: !tt.ptr<f32> {tt.divisibility = 16 : i32, tt.pointer_range = 32 : i32} loc("k_scale_ptr"(#loc)), %v_scale_ptr: !tt.ptr<f32> {tt.divisibility = 16 : i32, tt.pointer_range = 32 : i32} loc("v_scale_ptr"(#loc)), %out_scale_ptr: !tt.ptr<f32> {tt.divisibility = 16 : i32, tt.pointer_range = 32 : i32} loc("out_scale_ptr"(#loc)), %softcap_ptr: !tt.ptr<f32> {tt.divisibility = 16 : i32, tt.pointer_range = 32 : i32} loc("softcap_ptr"(#loc)), %block_table_stride_ptr: !tt.ptr<i64> {tt.divisibility = 16 : i32, tt.pointer_range = 32 : i32} loc("block_table_stride_ptr"(#loc)), %query_stride_0_ptr: !tt.ptr<i64> {tt.divisibility = 16 : i32, tt.pointer_range = 32 : i32} loc("query_stride_0_ptr"(#loc)), %query_stride_1_ptr: !tt.ptr<i64> {tt.divisibility = 16 : i32, tt.pointer_range = 32 : i32} loc("query_stride_1_ptr"(#loc)), %output_stride_0_ptr: !tt.ptr<i64> {tt.divisibility = 16 : i32, tt.pointer_range = 32 : i32} loc("output_stride_0_ptr"(#loc)), %output_stride_1_ptr: !tt.ptr<i64> {tt.divisibility = 16 : i32, tt.pointer_range = 32 : i32} loc("output_stride_1_ptr"(#loc)), %qq_bias_stride_0_ptr: !tt.ptr<i64> {tt.divisibility = 16 : i32, tt.pointer_range = 32 : i32} loc("qq_bias_stride_0_ptr"(#loc)), %stride_k_cache_0_ptr: !tt.ptr<i64> {tt.divisibility = 16 : i32, tt.pointer_range = 32 : i32} loc("stride_k_cache_0_ptr"(#loc)), %stride_k_cache_1_ptr: !tt.ptr<i64> {tt.divisibility = 16 : i32, tt.pointer_range = 32 : i32} loc("stride_k_cache_1_ptr"(#loc)), %stride_k_cache_2_ptr: !tt.ptr<i64> {tt.divisibility = 16 : i32, tt.pointer_range = 32 : i32} loc("stride_k_cache_2_ptr"(#loc)), %stride_v_cache_0_ptr: !tt.ptr<i64> {tt.divisibility = 16 : i32, tt.pointer_range = 32 : i32} loc("stride_v_cache_0_ptr"(#loc)), %stride_v_cache_1_ptr: !tt.ptr<i64> {tt.divisibility = 16 : i32, tt.pointer_range = 32 : i32} loc("stride_v_cache_1_ptr"(#loc)), %stride_v_cache_2_ptr: !tt.ptr<i64> {tt.divisibility = 16 : i32, tt.pointer_range = 32 : i32} loc("stride_v_cache_2_ptr"(#loc)), %query_start_len_ptr: !tt.ptr<i32> {tt.divisibility = 16 : i32, tt.pointer_range = 32 : i32} loc("query_start_len_ptr"(#loc)), %num_seqs_ptr: !tt.ptr<i32> {tt.divisibility = 16 : i32, tt.pointer_range = 32 : i32} loc("num_seqs_ptr"(#loc)), %output_ptr: !tt.ptr<bf16> {tt.divisibility = 16 : i32, tt.pointer_range = 32 : i32} loc("output_ptr"(#loc))) attributes {noinline = false} {
    %c4_i32 = arith.constant 4 : i32 loc(#loc188)
    %c1_i32 = arith.constant 1 : i32 loc(#loc188)
    %cst = arith.constant dense<4> : tensor<16xi32> loc(#loc188)
    %cst_0 = arith.constant dense<128> : tensor<128xi32> loc(#loc188)
    %cst_1 = arith.constant dense<1> : tensor<128xi32> loc(#loc188)
    %cst_2 = arith.constant dense<0> : tensor<128xi32> loc(#loc188)
    %cst_3 = arith.constant dense<1> : tensor<16xi32> loc(#loc188)
    %cst_4 = arith.constant dense<0> : tensor<16xi32> loc(#loc188)
    %c32_i32 = arith.constant 32 : i32 loc(#loc188)
    %cst_5 = arith.constant dense<32> : tensor<16xi32> loc(#loc188)
    %cst_6 = arith.constant dense<0.000000e+00> : tensor<16x128xf32> loc(#loc188)
    %cst_7 = arith.constant dense<0xFF800000> : tensor<16xf32> loc(#loc188)
    %cst_8 = arith.constant dense<1.000000e+00> : tensor<16xf32> loc(#loc188)
    %cst_9 = arith.constant dense<16> : tensor<32xi32> loc(#loc188)
    %cst_10 = arith.constant dense<0.000000e+00> : tensor<16x32xf32> loc(#loc188)
    %cst_11 = arith.constant dense<0xFF800000> : tensor<16x32xf32> loc(#loc188)
    %cst_12 = arith.constant dense<0.000000e+00> : tensor<16xf32> loc(#loc188)
    %cst_13 = arith.constant dense<0.000000e+00> : tensor<16x128xbf16> loc(#loc188)
    %c0_i32 = arith.constant 0 : i32 loc(#loc188)
    %cst_14 = arith.constant dense<0.000000e+00> : tensor<128x32xbf16> loc(#loc188)
    %cst_15 = arith.constant dense<0.000000e+00> : tensor<32x128xbf16> loc(#loc188)
    %seq_idx = arith.constant 2 : i32 loc(#loc459)
    %c31_i32 = arith.constant 31 : i32 loc(#loc188)
    %scale = tt.load %scale_ptr : !tt.ptr<f32> loc(#loc190)
    %block_table_stride = tt.load %block_table_stride_ptr : !tt.ptr<i64> loc(#loc191)
    %query_stride_0 = tt.load %query_stride_0_ptr : !tt.ptr<i64> loc(#loc192)
    %query_stride_1 = tt.load %query_stride_1_ptr : !tt.ptr<i64> loc(#loc193)
    %output_stride_0 = tt.load %output_stride_0_ptr : !tt.ptr<i64> loc(#loc194)
    %output_stride_1 = tt.load %output_stride_1_ptr : !tt.ptr<i64> loc(#loc195)
    %stride_k_cache_0 = tt.load %stride_k_cache_0_ptr : !tt.ptr<i64> loc(#loc196)
    %stride_k_cache_1 = tt.load %stride_k_cache_1_ptr : !tt.ptr<i64> loc(#loc197)
    %stride_k_cache_2 = tt.load %stride_k_cache_2_ptr : !tt.ptr<i64> loc(#loc198)
    %stride_v_cache_0 = tt.load %stride_v_cache_0_ptr : !tt.ptr<i64> loc(#loc199)
    %stride_v_cache_1 = tt.load %stride_v_cache_1_ptr : !tt.ptr<i64> loc(#loc200)
    %stride_v_cache_2 = tt.load %stride_v_cache_2_ptr : !tt.ptr<i64> loc(#loc201)
    %num_seqs = tt.load %num_seqs_ptr : !tt.ptr<i32> loc(#loc202)
    %q_block_global_idx = tt.get_program_id x : i32 loc(#loc338)
    %kv_head_idx = tt.get_program_id y : i32 loc(#loc339)
    %right:2 = scf.while (%left = %c0_i32, %right_90 = %num_seqs) : (i32, i32) -> (i32, i32) {
      %seq_idx_91 = arith.cmpi slt, %left, %right_90 : i32 loc(#loc461)
      scf.condition(%seq_idx_91) %left, %right_90 : i32, i32 loc(#loc461)
    } do {
    ^bb0(%left: i32 loc(callsite(#loc206 at #loc337)), %right_90: i32 loc(callsite(#loc207 at #loc337))):
      %mid = arith.addi %left, %right_90 : i32 loc(#loc464)
      %right_91 = arith.divsi %mid, %seq_idx : i32 loc(#loc465)
      %val = tt.addptr %query_start_len_ptr, %right_91 : !tt.ptr<i32>, i32 loc(#loc466)
      %val_92 = tt.load %val : !tt.ptr<i32> loc(#loc467)
      %mid_val = arith.divsi %val_92, %c4_i32 : i32 loc(#loc468)
      %mid_val_93 = arith.addi %mid_val, %right_91 : i32 loc(#loc469)
      %seq_idx_94 = arith.cmpi sle, %mid_val_93, %q_block_global_idx : i32 loc(#loc470)
      %seq_idx_95 = arith.select %seq_idx_94, %right_90, %right_91 : i32 loc(#loc471)
      %seq_idx_96 = scf.if %seq_idx_94 -> (i32) {
        %left_97 = arith.addi %right_91, %c1_i32 : i32 loc(#loc472)
        scf.yield %left_97 : i32 loc(#loc472)
      } else {
        scf.yield %left : i32 loc(#loc471)
      } loc(#loc471)
      scf.yield %seq_idx_96, %seq_idx_95 : i32, i32 loc(#loc473)
    } loc(#loc460)
    %seq_idx_16 = arith.subi %right#0, %c1_i32 : i32 loc(#loc474)
    %q_block_start_idx = tt.addptr %query_start_len_ptr, %seq_idx_16 : !tt.ptr<i32>, i32 loc(#loc343)
    %q_block_start_idx_17 = tt.load %q_block_start_idx : !tt.ptr<i32> loc(#loc344)
    %q_block_start_idx_18 = arith.divsi %q_block_start_idx_17, %c4_i32 : i32 loc(#loc345)
    %q_block_start_idx_19 = arith.addi %q_block_start_idx_18, %seq_idx_16 : i32 loc(#loc346)
    %q_block_local_idx = arith.subi %q_block_global_idx, %q_block_start_idx_19 : i32 loc(#loc347)
    %cur_batch_in_all_stop_index = tt.addptr %q_block_start_idx, %c1_i32 : !tt.ptr<i32>, i32 loc(#loc348)
    %cur_batch_in_all_stop_index_20 = tt.load %cur_batch_in_all_stop_index : !tt.ptr<i32> loc(#loc349)
    %cur_batch_query_len = arith.subi %cur_batch_in_all_stop_index_20, %q_block_start_idx_17 : i32 loc(#loc350)
    %0 = arith.muli %q_block_local_idx, %c4_i32 : i32 loc(#loc223)
    %1 = arith.cmpi sge, %0, %cur_batch_query_len : i32 loc(#loc224)
    cf.cond_br %1, ^bb2, ^bb1 loc(#loc224)
  ^bb1:  // pred: ^bb0
    %offs_m = tt.make_range {end = 16 : i32, start = 0 : i32} : tensor<16xi32> loc(#loc351)
    %offs_d = tt.make_range {end = 128 : i32, start = 0 : i32} : tensor<128xi32> loc(#loc352)
    %offs_t = tt.make_range {end = 32 : i32, start = 0 : i32} : tensor<32xi32> loc(#loc353)
    %query_pos = arith.divsi %offs_m, %cst : tensor<16xi32> loc(#loc354)
    %query_pos_21 = tt.splat %0 : i32 -> tensor<16xi32> loc(#loc355)
    %query_pos_22 = arith.addi %query_pos_21, %query_pos : tensor<16xi32> loc(#loc355)
    %query_offset_0 = tt.splat %q_block_start_idx_17 : i32 -> tensor<16xi32> loc(#loc356)
    %query_offset_0_23 = arith.addi %query_offset_0, %query_pos_22 : tensor<16xi32> loc(#loc356)
    %query_offset_1 = arith.muli %kv_head_idx, %c4_i32 : i32 loc(#loc357)
    %query_offset_1_24 = arith.remsi %offs_m, %cst : tensor<16xi32> loc(#loc358)
    %query_offset_1_25 = tt.splat %query_offset_1 : i32 -> tensor<16xi32> loc(#loc359)
    %query_offset_1_26 = arith.addi %query_offset_1_25, %query_offset_1_24 : tensor<16xi32> loc(#loc359)
    %query_offset = tt.expand_dims %query_offset_0_23 {axis = 1 : i32} : tensor<16xi32> -> tensor<16x1xi32> loc(#loc360)
    %query_offset_27 = arith.extsi %query_offset : tensor<16x1xi32> to tensor<16x1xi64> loc(#loc361)
    %query_offset_28 = tt.splat %query_stride_0 : i64 -> tensor<16x1xi64> loc(#loc361)
    %query_offset_29 = arith.muli %query_offset_27, %query_offset_28 : tensor<16x1xi64> loc(#loc361)
    %query_offset_30 = tt.expand_dims %query_offset_1_26 {axis = 1 : i32} : tensor<16xi32> -> tensor<16x1xi32> loc(#loc362)
    %query_offset_31 = arith.extsi %query_offset_30 : tensor<16x1xi32> to tensor<16x1xi64> loc(#loc363)
    %query_offset_32 = tt.splat %query_stride_1 : i64 -> tensor<16x1xi64> loc(#loc363)
    %query_offset_33 = arith.muli %query_offset_31, %query_offset_32 : tensor<16x1xi64> loc(#loc363)
    %query_offset_34 = arith.addi %query_offset_29, %query_offset_33 : tensor<16x1xi64> loc(#loc364)
    %query_offset_35 = tt.expand_dims %offs_d {axis = 0 : i32} : tensor<128xi32> -> tensor<1x128xi32> loc(#loc365)
    %query_offset_36 = arith.extsi %query_offset_35 : tensor<1x128xi32> to tensor<1x128xi64> loc(#loc366)
    %query_offset_37 = tt.broadcast %query_offset_34 : tensor<16x1xi64> -> tensor<16x128xi64> loc(#loc366)
    %query_offset_38 = tt.broadcast %query_offset_36 : tensor<1x128xi64> -> tensor<16x128xi64> loc(#loc366)
    %query_offset_39 = arith.addi %query_offset_37, %query_offset_38 : tensor<16x128xi64> loc(#loc366)
    %dim_mask = arith.cmpi slt, %offs_d, %cst_0 : tensor<128xi32> loc(#loc367)
    %dim_mask_40 = arith.select %dim_mask, %cst_1, %cst_2 : tensor<128xi1>, tensor<128xi32> loc(#loc368)
    %dim_mask_41 = arith.cmpi ne, %dim_mask_40, %cst_2 : tensor<128xi32> loc(#loc369)
    %query_mask_0 = tt.splat %cur_batch_query_len : i32 -> tensor<16xi32> loc(#loc370)
    %query_mask_0_42 = arith.cmpi slt, %query_pos_22, %query_mask_0 : tensor<16xi32> loc(#loc370)
    %query_mask_0_43 = arith.select %query_mask_0_42, %cst_3, %cst_4 : tensor<16xi1>, tensor<16xi32> loc(#loc371)
    %query_mask_0_44 = arith.cmpi ne, %query_mask_0_43, %cst_4 : tensor<16xi32> loc(#loc372)
    %query_mask_1 = arith.cmpi slt, %query_offset_1_26, %cst_5 : tensor<16xi32> loc(#loc373)
    %query_mask_1_45 = arith.select %query_mask_1, %cst_3, %cst_4 : tensor<16xi1>, tensor<16xi32> loc(#loc374)
    %query_mask_1_46 = arith.cmpi ne, %query_mask_1_45, %cst_4 : tensor<16xi32> loc(#loc375)
    %Q = tt.expand_dims %dim_mask_41 {axis = 0 : i32} : tensor<128xi1> -> tensor<1x128xi1> loc(#loc376)
    %Q_47 = tt.expand_dims %query_mask_0_44 {axis = 1 : i32} : tensor<16xi1> -> tensor<16x1xi1> loc(#loc377)
    %Q_48 = tt.broadcast %Q : tensor<1x128xi1> -> tensor<16x128xi1> loc(#loc378)
    %Q_49 = tt.broadcast %Q_47 : tensor<16x1xi1> -> tensor<16x128xi1> loc(#loc378)
    %Q_50 = arith.andi %Q_48, %Q_49 : tensor<16x128xi1> loc(#loc378)
    %Q_51 = tt.expand_dims %query_mask_1_46 {axis = 1 : i32} : tensor<16xi1> -> tensor<16x1xi1> loc(#loc379)
    %Q_52 = tt.broadcast %Q_51 : tensor<16x1xi1> -> tensor<16x128xi1> loc(#loc380)
    %Q_53 = arith.andi %Q_50, %Q_52 : tensor<16x128xi1> loc(#loc380)
    %Q_54 = tt.splat %query_ptr : !tt.ptr<bf16> -> tensor<16x128x!tt.ptr<bf16>> loc(#loc381)
    %Q_55 = tt.addptr %Q_54, %query_offset_39 : tensor<16x128x!tt.ptr<bf16>>, tensor<16x128xi64> loc(#loc381)
    %Q_56 = tt.load %Q_55, %Q_53, %cst_13 : tensor<16x128x!tt.ptr<bf16>> loc(#loc382)
    %block_table_offset = arith.extsi %seq_idx_16 : i32 to i64 loc(#loc383)
    %block_table_offset_57 = arith.muli %block_table_offset, %block_table_stride : i64 loc(#loc383)
    %seq_len = tt.addptr %seq_lens_ptr, %seq_idx_16 : !tt.ptr<i32>, i32 loc(#loc384)
    %seq_len_58 = tt.load %seq_len : !tt.ptr<i32> loc(#loc385)
    %context_len = arith.subi %seq_len_58, %cur_batch_query_len : i32 loc(#loc386)
    %max_seq_prefix_len = arith.addi %context_len, %0 : i32 loc(#loc387)
    %max_seq_prefix_len_59 = arith.addi %max_seq_prefix_len, %c4_i32 : i32 loc(#loc388)
    %max_seq_prefix_len_60 = arith.minsi %max_seq_prefix_len_59, %seq_len_58 : i32 loc(#loc389)
    %num_tiles = arith.addi %max_seq_prefix_len_60, %c31_i32 : i32 loc(#loc475)
    %num_tiles_61 = arith.divsi %num_tiles, %c32_i32 : i32 loc(#loc476)
    %tile_mask = tt.splat %max_seq_prefix_len_60 : i32 -> tensor<32xi32> loc(#loc391)
    %physical_block_idx = tt.addptr %block_tables_ptr, %block_table_offset_57 : !tt.ptr<i32>, i64 loc(#loc392)
    %physical_block_idx_62 = tt.splat %physical_block_idx : !tt.ptr<i32> -> tensor<32x!tt.ptr<i32>> loc(#loc393)
    %v_offset = tt.splat %stride_v_cache_0 : i64 -> tensor<32x1xi64> loc(#loc394)
    %v_offset_63 = arith.extsi %kv_head_idx : i32 to i64 loc(#loc395)
    %v_offset_64 = arith.muli %v_offset_63, %stride_v_cache_2 : i64 loc(#loc395)
    %v_offset_65 = tt.splat %v_offset_64 : i64 -> tensor<32x1xi64> loc(#loc396)
    %v_offset_66 = tt.broadcast %query_offset_36 : tensor<1x128xi64> -> tensor<32x128xi64> loc(#loc397)
    %v_offset_67 = tt.splat %stride_v_cache_1 : i64 -> tensor<32x1xi64> loc(#loc398)
    %k_offset = tt.splat %stride_k_cache_0 : i64 -> tensor<1x32xi64> loc(#loc399)
    %k_offset_68 = arith.muli %v_offset_63, %stride_k_cache_2 : i64 loc(#loc400)
    %k_offset_69 = tt.splat %k_offset_68 : i64 -> tensor<1x32xi64> loc(#loc401)
    %k_offset_70 = tt.expand_dims %offs_d {axis = 1 : i32} : tensor<128xi32> -> tensor<128x1xi32> loc(#loc402)
    %k_offset_71 = arith.extsi %k_offset_70 : tensor<128x1xi32> to tensor<128x1xi64> loc(#loc403)
    %k_offset_72 = tt.broadcast %k_offset_71 : tensor<128x1xi64> -> tensor<128x32xi64> loc(#loc403)
    %k_offset_73 = tt.splat %stride_k_cache_1 : i64 -> tensor<1x32xi64> loc(#loc404)
    %K_load = tt.expand_dims %dim_mask_41 {axis = 1 : i32} : tensor<128xi1> -> tensor<128x1xi1> loc(#loc405)
    %K_load_74 = tt.broadcast %K_load : tensor<128x1xi1> -> tensor<128x32xi1> loc(#loc406)
    %K_load_75 = tt.splat %key_cache_ptr : !tt.ptr<bf16> -> tensor<128x32x!tt.ptr<bf16>> loc(#loc407)
    %V_load = tt.broadcast %Q : tensor<1x128xi1> -> tensor<32x128xi1> loc(#loc408)
    %V_load_76 = tt.splat %value_cache_ptr : !tt.ptr<bf16> -> tensor<32x128x!tt.ptr<bf16>> loc(#loc409)
    %query_abs_pos = tt.expand_dims %query_pos_22 {axis = 1 : i32} : tensor<16xi32> -> tensor<16x1xi32> loc(#loc410)
    %query_abs_pos_77 = tt.splat %context_len : i32 -> tensor<16x1xi32> loc(#loc411)
    %query_abs_pos_78 = arith.addi %query_abs_pos_77, %query_abs_pos : tensor<16x1xi32> loc(#loc411)
    %seq_mask = tt.broadcast %query_abs_pos_78 : tensor<16x1xi32> -> tensor<16x32xi32> loc(#loc412)
    %S = tt.splat %scale : f32 -> tensor<16x32xf32> loc(#loc413)
    %S_79 = arith.andi %Q_51, %Q_47 : tensor<16x1xi1> loc(#loc414)
    %S_80 = tt.broadcast %S_79 : tensor<16x1xi1> -> tensor<16x32xi1> loc(#loc415)
    %acc:3 = scf.for %j = %c0_i32 to %num_tiles_61 step %c1_i32 iter_args(%M = %cst_7, %L = %cst_8, %acc_90 = %cst_6) -> (tensor<16xf32>, tensor<16xf32>, tensor<16x128xf32>)  : i32 {
      %seq_offset = arith.muli %j, %c32_i32 : i32 loc(#loc417)
      %seq_offset_91 = tt.splat %seq_offset : i32 -> tensor<32xi32> loc(#loc418)
      %seq_offset_92 = arith.addi %seq_offset_91, %offs_t : tensor<32xi32> loc(#loc418)
      %tile_mask_93 = arith.cmpi slt, %seq_offset_92, %tile_mask : tensor<32xi32> loc(#loc391)
      %physical_block_idx_94 = arith.divsi %seq_offset_92, %cst_9 : tensor<32xi32> loc(#loc419)
      %physical_block_idx_95 = tt.addptr %physical_block_idx_62, %physical_block_idx_94 : tensor<32x!tt.ptr<i32>>, tensor<32xi32> loc(#loc393)
      %physical_block_idx_96 = tt.load %physical_block_idx_95 : tensor<32x!tt.ptr<i32>> loc(#loc420)
      %physical_block_idx_97 = arith.extsi %physical_block_idx_96 : tensor<32xi32> to tensor<32xi64> loc(#loc421)
      %v_offset_98 = tt.expand_dims %physical_block_idx_97 {axis = 1 : i32} : tensor<32xi64> -> tensor<32x1xi64> loc(#loc422)
      %v_offset_99 = arith.muli %v_offset_98, %v_offset : tensor<32x1xi64> loc(#loc394)
      %v_offset_100 = arith.addi %v_offset_99, %v_offset_65 : tensor<32x1xi64> loc(#loc396)
      %v_offset_101 = tt.broadcast %v_offset_100 : tensor<32x1xi64> -> tensor<32x128xi64> loc(#loc397)
      %v_offset_102 = arith.addi %v_offset_101, %v_offset_66 : tensor<32x128xi64> loc(#loc397)
      %v_offset_103 = arith.remsi %seq_offset_92, %cst_9 : tensor<32xi32> loc(#loc423)
      %v_offset_104 = tt.expand_dims %v_offset_103 {axis = 1 : i32} : tensor<32xi32> -> tensor<32x1xi32> loc(#loc424)
      %v_offset_105 = arith.extsi %v_offset_104 : tensor<32x1xi32> to tensor<32x1xi64> loc(#loc398)
      %v_offset_106 = arith.muli %v_offset_105, %v_offset_67 : tensor<32x1xi64> loc(#loc398)
      %v_offset_107 = tt.broadcast %v_offset_106 : tensor<32x1xi64> -> tensor<32x128xi64> loc(#loc425)
      %v_offset_108 = arith.addi %v_offset_102, %v_offset_107 : tensor<32x128xi64> loc(#loc425)
      %k_offset_109 = tt.expand_dims %physical_block_idx_97 {axis = 0 : i32} : tensor<32xi64> -> tensor<1x32xi64> loc(#loc426)
      %k_offset_110 = arith.muli %k_offset_109, %k_offset : tensor<1x32xi64> loc(#loc399)
      %k_offset_111 = arith.addi %k_offset_110, %k_offset_69 : tensor<1x32xi64> loc(#loc401)
      %k_offset_112 = tt.broadcast %k_offset_111 : tensor<1x32xi64> -> tensor<128x32xi64> loc(#loc403)
      %k_offset_113 = arith.addi %k_offset_112, %k_offset_72 : tensor<128x32xi64> loc(#loc403)
      %k_offset_114 = tt.expand_dims %v_offset_103 {axis = 0 : i32} : tensor<32xi32> -> tensor<1x32xi32> loc(#loc427)
      %k_offset_115 = arith.extsi %k_offset_114 : tensor<1x32xi32> to tensor<1x32xi64> loc(#loc404)
      %k_offset_116 = arith.muli %k_offset_115, %k_offset_73 : tensor<1x32xi64> loc(#loc404)
      %k_offset_117 = tt.broadcast %k_offset_116 : tensor<1x32xi64> -> tensor<128x32xi64> loc(#loc428)
      %k_offset_118 = arith.addi %k_offset_113, %k_offset_117 : tensor<128x32xi64> loc(#loc428)
      %K_load_119 = tt.expand_dims %tile_mask_93 {axis = 0 : i32} : tensor<32xi1> -> tensor<1x32xi1> loc(#loc429)
      %K_load_120 = tt.broadcast %K_load_119 : tensor<1x32xi1> -> tensor<128x32xi1> loc(#loc406)
      %K_load_121 = arith.andi %K_load_74, %K_load_120 : tensor<128x32xi1> loc(#loc406)
      %K_load_122 = tt.addptr %K_load_75, %k_offset_118 : tensor<128x32x!tt.ptr<bf16>>, tensor<128x32xi64> loc(#loc407)
      %K_load_123 = tt.load %K_load_122, %K_load_121, %cst_14 : tensor<128x32x!tt.ptr<bf16>> loc(#loc430)
      %V_load_124 = tt.expand_dims %tile_mask_93 {axis = 1 : i32} : tensor<32xi1> -> tensor<32x1xi1> loc(#loc431)
      %V_load_125 = tt.broadcast %V_load_124 : tensor<32x1xi1> -> tensor<32x128xi1> loc(#loc408)
      %V_load_126 = arith.andi %V_load, %V_load_125 : tensor<32x128xi1> loc(#loc408)
      %V_load_127 = tt.addptr %V_load_76, %v_offset_108 : tensor<32x128x!tt.ptr<bf16>>, tensor<32x128xi64> loc(#loc409)
      %V_load_128 = tt.load %V_load_127, %V_load_126, %cst_15 : tensor<32x128x!tt.ptr<bf16>> loc(#loc432)
      %seq_mask_129 = tt.expand_dims %seq_offset_92 {axis = 0 : i32} : tensor<32xi32> -> tensor<1x32xi32> loc(#loc433)
      %seq_mask_130 = tt.broadcast %seq_mask_129 : tensor<1x32xi32> -> tensor<16x32xi32> loc(#loc412)
      %seq_mask_131 = arith.cmpi sle, %seq_mask_130, %seq_mask : tensor<16x32xi32> loc(#loc412)
      %S_132 = tt.dot %Q_56, %K_load_123, %cst_10, inputPrecision = tf32 : tensor<16x128xbf16> * tensor<128x32xbf16> -> tensor<16x32xf32> loc(#loc434)
      %S_133 = arith.mulf %S, %S_132 : tensor<16x32xf32> loc(#loc413)
      %S_134 = arith.addf %S_133, %cst_10 : tensor<16x32xf32> loc(#loc435)
      %S_135 = arith.andi %S_80, %seq_mask_131 : tensor<16x32xi1> loc(#loc415)
      %S_136 = arith.select %S_135, %S_134, %cst_11 : tensor<16x32xi1>, tensor<16x32xf32> loc(#loc436)
      %m_j = "tt.reduce"(%S_136) <{axis = 1 : i32}> ({
      ^bb0(%m_j_151: f32 loc(callsite(#loc1 at #loc437)), %m_j_152: f32 loc(callsite(#loc1 at #loc437))):
        %m_j_153 = arith.maxnumf %m_j_151, %m_j_152 : f32 loc(#loc483)
        tt.reduce.return %m_j_153 : f32 loc(#loc478)
      }) : (tensor<16x32xf32>) -> tensor<16xf32> loc(#loc478)
      %m_j_137 = arith.maxnumf %M, %m_j : tensor<16xf32> loc(#loc438)
      %m_j_138 = arith.cmpf ogt, %m_j_137, %cst_7 : tensor<16xf32> loc(#loc439)
      %m_j_139 = arith.select %m_j_138, %m_j_137, %cst_12 : tensor<16xi1>, tensor<16xf32> loc(#loc440)
      %P = tt.expand_dims %m_j_139 {axis = 1 : i32} : tensor<16xf32> -> tensor<16x1xf32> loc(#loc441)
      %P_140 = tt.broadcast %P : tensor<16x1xf32> -> tensor<16x32xf32> loc(#loc442)
      %P_141 = arith.subf %S_136, %P_140 : tensor<16x32xf32> loc(#loc442)
      %P_142 = math.exp %P_141 : tensor<16x32xf32> loc(#loc443)
      %l_j = "tt.reduce"(%P_142) <{axis = 1 : i32}> ({
      ^bb0(%l_j_151: f32 loc(callsite(#loc1 at #loc444)), %l_j_152: f32 loc(callsite(#loc1 at #loc444))):
        %l_j_153 = arith.addf %l_j_151, %l_j_152 : f32 loc(#loc484)
        tt.reduce.return %l_j_153 : f32 loc(#loc480)
      }) : (tensor<16x32xf32>) -> tensor<16xf32> loc(#loc480)
      %alpha = arith.subf %M, %m_j_139 : tensor<16xf32> loc(#loc445)
      %alpha_143 = math.exp %alpha : tensor<16xf32> loc(#loc446)
      %acc_144 = tt.expand_dims %alpha_143 {axis = 1 : i32} : tensor<16xf32> -> tensor<16x1xf32> loc(#loc447)
      %acc_145 = tt.broadcast %acc_144 : tensor<16x1xf32> -> tensor<16x128xf32> loc(#loc448)
      %acc_146 = arith.mulf %acc_90, %acc_145 : tensor<16x128xf32> loc(#loc448)
      %L_147 = arith.mulf %L, %alpha_143 : tensor<16xf32> loc(#loc449)
      %L_148 = arith.addf %L_147, %l_j : tensor<16xf32> loc(#loc450)
      %acc_149 = arith.truncf %P_142 : tensor<16x32xf32> to tensor<16x32xbf16> loc(#loc451)
      %acc_150 = tt.dot %acc_149, %V_load_128, %acc_146, inputPrecision = tf32 : tensor<16x32xbf16> * tensor<32x128xbf16> -> tensor<16x128xf32> loc(#loc452)
      scf.yield %m_j_139, %L_148, %acc_150 : tensor<16xf32>, tensor<16xf32>, tensor<16x128xf32> loc(#loc327)
    } loc(#loc482)
    %acc_81 = tt.expand_dims %acc#1 {axis = 1 : i32} : tensor<16xf32> -> tensor<16x1xf32> loc(#loc453)
    %acc_82 = tt.broadcast %acc_81 : tensor<16x1xf32> -> tensor<16x128xf32> loc(#loc454)
    %acc_83 = arith.divf %acc#2, %acc_82 : tensor<16x128xf32> loc(#loc454)
    %output_offset = tt.splat %output_stride_0 : i64 -> tensor<16x1xi64> loc(#loc455)
    %output_offset_84 = arith.muli %query_offset_27, %output_offset : tensor<16x1xi64> loc(#loc455)
    %output_offset_85 = tt.splat %output_stride_1 : i64 -> tensor<16x1xi64> loc(#loc456)
    %output_offset_86 = arith.muli %query_offset_31, %output_offset_85 : tensor<16x1xi64> loc(#loc456)
    %output_offset_87 = arith.addi %output_offset_84, %output_offset_86 : tensor<16x1xi64> loc(#loc457)
    %output_offset_88 = tt.broadcast %output_offset_87 : tensor<16x1xi64> -> tensor<16x128xi64> loc(#loc458)
    %output_offset_89 = arith.addi %output_offset_88, %query_offset_38 : tensor<16x128xi64> loc(#loc458)
    %2 = tt.splat %output_ptr : !tt.ptr<bf16> -> tensor<16x128x!tt.ptr<bf16>> loc(#loc334)
    %3 = tt.addptr %2, %output_offset_89 : tensor<16x128x!tt.ptr<bf16>>, tensor<16x128xi64> loc(#loc334)
    %4 = arith.truncf %acc_83 : tensor<16x128xf32> to tensor<16x128xbf16> loc(#loc335)
    tt.store %3, %4, %Q_53 : tensor<16x128x!tt.ptr<bf16>> loc(#loc335)
    cf.br ^bb2 loc(#loc336)
  ^bb2:  // 2 preds: ^bb0, ^bb1
    tt.return loc(#loc162)
  } loc(#loc)
} loc(#loc)
#loc4 = loc("/home/tristan/llmd-triton-kernel-generation/vllm_kernels/new_triton_unified_attention.py":1180:20)
#loc5 = loc("/home/tristan/llmd-triton-kernel-generation/vllm_kernels/new_triton_unified_attention.py":1185:33)
#loc6 = loc("/home/tristan/llmd-triton-kernel-generation/vllm_kernels/new_triton_unified_attention.py":1186:29)
#loc7 = loc("/home/tristan/llmd-triton-kernel-generation/vllm_kernels/new_triton_unified_attention.py":1187:29)
#loc8 = loc("/home/tristan/llmd-triton-kernel-generation/vllm_kernels/new_triton_unified_attention.py":1188:30)
#loc9 = loc("/home/tristan/llmd-triton-kernel-generation/vllm_kernels/new_triton_unified_attention.py":1189:30)
#loc10 = loc("/home/tristan/llmd-triton-kernel-generation/vllm_kernels/new_triton_unified_attention.py":1191:31)
#loc11 = loc("/home/tristan/llmd-triton-kernel-generation/vllm_kernels/new_triton_unified_attention.py":1192:31)
#loc12 = loc("/home/tristan/llmd-triton-kernel-generation/vllm_kernels/new_triton_unified_attention.py":1193:31)
#loc13 = loc("/home/tristan/llmd-triton-kernel-generation/vllm_kernels/new_triton_unified_attention.py":1194:31)
#loc14 = loc("/home/tristan/llmd-triton-kernel-generation/vllm_kernels/new_triton_unified_attention.py":1195:31)
#loc15 = loc("/home/tristan/llmd-triton-kernel-generation/vllm_kernels/new_triton_unified_attention.py":1196:31)
#loc16 = loc("/home/tristan/llmd-triton-kernel-generation/vllm_kernels/new_triton_unified_attention.py":1197:23)
#loc17 = loc("/home/tristan/llmd-triton-kernel-generation/vllm_kernels/new_triton_unified_attention.py":108:39)
#loc18 = loc("/home/tristan/llmd-triton-kernel-generation/vllm_kernels/new_triton_unified_attention.py":109:32)
#loc19 = loc("/home/tristan/llmd-triton-kernel-generation/vllm_kernels/new_triton_unified_attention.py":42:4)
#loc20 = loc("/home/tristan/llmd-triton-kernel-generation/vllm_kernels/new_triton_unified_attention.py":42:17)
#loc23 = loc("/home/tristan/llmd-triton-kernel-generation/vllm_kernels/new_triton_unified_attention.py":43:22)
#loc24 = loc("/home/tristan/llmd-triton-kernel-generation/vllm_kernels/new_triton_unified_attention.py":43:32)
#loc25 = loc("/home/tristan/llmd-triton-kernel-generation/vllm_kernels/new_triton_unified_attention.py":44:44)
#loc26 = loc("/home/tristan/llmd-triton-kernel-generation/vllm_kernels/new_triton_unified_attention.py":44:22)
#loc27 = loc("/home/tristan/llmd-triton-kernel-generation/vllm_kernels/new_triton_unified_attention.py":45:25)
#loc28 = loc("/home/tristan/llmd-triton-kernel-generation/vllm_kernels/new_triton_unified_attention.py":45:35)
#loc29 = loc("/home/tristan/llmd-triton-kernel-generation/vllm_kernels/new_triton_unified_attention.py":47:22)
#loc30 = loc("/home/tristan/llmd-triton-kernel-generation/vllm_kernels/new_triton_unified_attention.py":47:11)
#loc31 = loc("/home/tristan/llmd-triton-kernel-generation/vllm_kernels/new_triton_unified_attention.py":48:25)
#loc32 = loc("/home/tristan/llmd-triton-kernel-generation/vllm_kernels/new_triton_unified_attention.py":47:8)
#loc33 = loc("/home/tristan/llmd-triton-kernel-generation/vllm_kernels/new_triton_unified_attention.py":52:18)
#loc34 = loc("/home/tristan/llmd-triton-kernel-generation/vllm_kernels/new_triton_unified_attention.py":115:54)
#loc35 = loc("/home/tristan/llmd-triton-kernel-generation/vllm_kernels/new_triton_unified_attention.py":115:32)
#loc36 = loc("/home/tristan/llmd-triton-kernel-generation/vllm_kernels/new_triton_unified_attention.py":115:66)
#loc37 = loc("/home/tristan/llmd-triton-kernel-generation/vllm_kernels/new_triton_unified_attention.py":115:76)
#loc38 = loc("/home/tristan/llmd-triton-kernel-generation/vllm_kernels/new_triton_unified_attention.py":117:45)
#loc39 = loc("/home/tristan/llmd-triton-kernel-generation/vllm_kernels/new_triton_unified_attention.py":120:74)
#loc40 = loc("/home/tristan/llmd-triton-kernel-generation/vllm_kernels/new_triton_unified_attention.py":120:42)
#loc41 = loc("/home/tristan/llmd-triton-kernel-generation/vllm_kernels/new_triton_unified_attention.py":122:56)
#loc42 = loc("/home/tristan/llmd-triton-kernel-generation/vllm_kernels/new_triton_unified_attention.py":124:27)
#loc43 = loc("/home/tristan/llmd-triton-kernel-generation/vllm_kernels/new_triton_unified_attention.py":124:38)
#loc44 = loc("/home/tristan/llmd-triton-kernel-generation/vllm_kernels/new_triton_unified_attention.py":127:26)
#loc45 = loc("/home/tristan/llmd-triton-kernel-generation/vllm_kernels/new_triton_unified_attention.py":128:26)
#loc46 = loc("/home/tristan/llmd-triton-kernel-generation/vllm_kernels/new_triton_unified_attention.py":129:26)
#loc47 = loc("/home/tristan/llmd-triton-kernel-generation/vllm_kernels/new_triton_unified_attention.py":130:56)
#loc48 = loc("/home/tristan/llmd-triton-kernel-generation/vllm_kernels/new_triton_unified_attention.py":130:46)
#loc49 = loc("/home/tristan/llmd-triton-kernel-generation/vllm_kernels/new_triton_unified_attention.py":132:52)
#loc50 = loc("/home/tristan/llmd-triton-kernel-generation/vllm_kernels/new_triton_unified_attention.py":133:35)
#loc51 = loc("/home/tristan/llmd-triton-kernel-generation/vllm_kernels/new_triton_unified_attention.py":133:65)
#loc52 = loc("/home/tristan/llmd-triton-kernel-generation/vllm_kernels/new_triton_unified_attention.py":133:56)
#loc53 = loc("/home/tristan/llmd-triton-kernel-generation/vllm_kernels/new_triton_unified_attention.py":135:23)
#loc54 = loc("/home/tristan/llmd-triton-kernel-generation/vllm_kernels/new_triton_unified_attention.py":135:34)
#loc55 = loc("/home/tristan/llmd-triton-kernel-generation/vllm_kernels/new_triton_unified_attention.py":136:25)
#loc56 = loc("/home/tristan/llmd-triton-kernel-generation/vllm_kernels/new_triton_unified_attention.py":136:36)
#loc57 = loc("/home/tristan/llmd-triton-kernel-generation/vllm_kernels/new_triton_unified_attention.py":136:10)
#loc58 = loc("/home/tristan/llmd-triton-kernel-generation/vllm_kernels/new_triton_unified_attention.py":137:17)
#loc59 = loc("/home/tristan/llmd-triton-kernel-generation/vllm_kernels/new_triton_unified_attention.py":137:10)
#loc60 = loc("/home/tristan/llmd-triton-kernel-generation/vllm_kernels/new_triton_unified_attention.py":140:33)
#loc61 = loc("/home/tristan/llmd-triton-kernel-generation/vllm_kernels/new_triton_unified_attention.py":140:47)
#loc62 = loc("/home/tristan/llmd-triton-kernel-generation/vllm_kernels/new_triton_unified_attention.py":140:53)
#loc63 = loc("/home/tristan/llmd-triton-kernel-generation/vllm_kernels/new_triton_unified_attention.py":141:40)
#loc64 = loc("/home/tristan/llmd-triton-kernel-generation/vllm_kernels/new_triton_unified_attention.py":141:64)
#loc65 = loc("/home/tristan/llmd-triton-kernel-generation/vllm_kernels/new_triton_unified_attention.py":141:70)
#loc66 = loc("/home/tristan/llmd-triton-kernel-generation/vllm_kernels/new_triton_unified_attention.py":142:45)
#loc67 = loc("/home/tristan/llmd-triton-kernel-generation/vllm_kernels/new_triton_unified_attention.py":142:65)
#loc68 = loc("/home/tristan/llmd-triton-kernel-generation/vllm_kernels/new_triton_unified_attention.py":142:71)
#loc69 = loc("/home/tristan/llmd-triton-kernel-generation/vllm_kernels/new_triton_unified_attention.py":147:22)
#loc70 = loc("/home/tristan/llmd-triton-kernel-generation/vllm_kernels/new_triton_unified_attention.py":147:46)
#loc71 = loc("/home/tristan/llmd-triton-kernel-generation/vllm_kernels/new_triton_unified_attention.py":147:33)
#loc72 = loc("/home/tristan/llmd-triton-kernel-generation/vllm_kernels/new_triton_unified_attention.py":147:70)
#loc73 = loc("/home/tristan/llmd-triton-kernel-generation/vllm_kernels/new_triton_unified_attention.py":147:57)
#loc74 = loc("/home/tristan/llmd-triton-kernel-generation/vllm_kernels/new_triton_unified_attention.py":146:20)
#loc75 = loc("/home/tristan/llmd-triton-kernel-generation/vllm_kernels/new_triton_unified_attention.py":146:8)
#loc76 = loc("/home/tristan/llmd-triton-kernel-generation/vllm_kernels/new_triton_unified_attention.py":151:35)
#loc77 = loc("/home/tristan/llmd-triton-kernel-generation/vllm_kernels/new_triton_unified_attention.py":166:37)
#loc78 = loc("/home/tristan/llmd-triton-kernel-generation/vllm_kernels/new_triton_unified_attention.py":166:22)
#loc79 = loc("/home/tristan/llmd-triton-kernel-generation/vllm_kernels/new_triton_unified_attention.py":169:28)
#loc80 = loc("/home/tristan/llmd-triton-kernel-generation/vllm_kernels/new_triton_unified_attention.py":187:10)
#loc81 = loc("/home/tristan/llmd-triton-kernel-generation/vllm_kernels/new_triton_unified_attention.py":189:10)
#loc82 = loc("/home/tristan/llmd-triton-kernel-generation/vllm_kernels/new_triton_unified_attention.py":199:60)
#loc83 = loc("/home/tristan/llmd-triton-kernel-generation/vllm_kernels/new_triton_unified_attention.py":21:20)
#loc84 = loc("/home/tristan/llmd-triton-kernel-generation/vllm_kernels/new_triton_unified_attention.py":204:44)
#loc85 = loc("/home/tristan/llmd-triton-kernel-generation/vllm_kernels/new_triton_unified_attention.py":21:26)
#loc86 = loc("/home/tristan/llmd-triton-kernel-generation/vllm_kernels/new_triton_unified_attention.py":232:33)
#loc87 = loc("/home/tristan/llmd-triton-kernel-generation/vllm_kernels/new_triton_unified_attention.py":235:31)
#loc88 = loc("/home/tristan/llmd-triton-kernel-generation/vllm_kernels/new_triton_unified_attention.py":235:52)
#loc89 = loc("/home/tristan/llmd-triton-kernel-generation/vllm_kernels/new_triton_unified_attention.py":239:42)
#loc90 = loc("/home/tristan/llmd-triton-kernel-generation/vllm_kernels/new_triton_unified_attention.py":240:28)
#loc91 = loc("/home/tristan/llmd-triton-kernel-generation/vllm_kernels/new_triton_unified_attention.py":240:14)
#loc92 = loc("/home/tristan/llmd-triton-kernel-generation/vllm_kernels/new_triton_unified_attention.py":241:14)
#loc93 = loc("/home/tristan/llmd-triton-kernel-generation/vllm_kernels/new_triton_unified_attention.py":242:51)
#loc94 = loc("/home/tristan/llmd-triton-kernel-generation/vllm_kernels/new_triton_unified_attention.py":246:42)
#loc95 = loc("/home/tristan/llmd-triton-kernel-generation/vllm_kernels/new_triton_unified_attention.py":247:28)
#loc96 = loc("/home/tristan/llmd-triton-kernel-generation/vllm_kernels/new_triton_unified_attention.py":247:14)
#loc97 = loc("/home/tristan/llmd-triton-kernel-generation/vllm_kernels/new_triton_unified_attention.py":248:21)
#loc98 = loc("/home/tristan/llmd-triton-kernel-generation/vllm_kernels/new_triton_unified_attention.py":248:14)
#loc99 = loc("/home/tristan/llmd-triton-kernel-generation/vllm_kernels/new_triton_unified_attention.py":249:51)
#loc100 = loc("/home/tristan/llmd-triton-kernel-generation/vllm_kernels/new_triton_unified_attention.py":255:26)
#loc101 = loc("/home/tristan/llmd-triton-kernel-generation/vllm_kernels/new_triton_unified_attention.py":255:37)
#loc102 = loc("/home/tristan/llmd-triton-kernel-generation/vllm_kernels/new_triton_unified_attention.py":254:28)
#loc103 = loc("/home/tristan/llmd-triton-kernel-generation/vllm_kernels/new_triton_unified_attention.py":270:37)
#loc104 = loc("/home/tristan/llmd-triton-kernel-generation/vllm_kernels/new_triton_unified_attention.py":269:30)
#loc105 = loc("/home/tristan/llmd-triton-kernel-generation/vllm_kernels/new_triton_unified_attention.py":283:48)
#loc106 = loc("/home/tristan/llmd-triton-kernel-generation/vllm_kernels/new_triton_unified_attention.py":283:38)
#loc107 = loc("/home/tristan/llmd-triton-kernel-generation/vllm_kernels/new_triton_unified_attention.py":284:42)
#loc108 = loc("/home/tristan/llmd-triton-kernel-generation/vllm_kernels/new_triton_unified_attention.py":318:21)
#loc109 = loc("/home/tristan/llmd-triton-kernel-generation/vllm_kernels/new_triton_unified_attention.py":324:36)
#loc110 = loc("/home/tristan/llmd-triton-kernel-generation/vllm_kernels/new_triton_unified_attention.py":324:60)
#loc111 = loc("/home/tristan/llmd-triton-kernel-generation/vllm_kernels/new_triton_unified_attention.py":230:31)
#loc112 = loc("/home/tristan/llmd-triton-kernel-generation/vllm_kernels/new_triton_unified_attention.py":231:25)
#loc113 = loc("/home/tristan/llmd-triton-kernel-generation/vllm_kernels/new_triton_unified_attention.py":231:37)
#loc114 = loc("/home/tristan/llmd-triton-kernel-generation/vllm_kernels/new_triton_unified_attention.py":235:66)
#loc115 = loc("/home/tristan/llmd-triton-kernel-generation/vllm_kernels/new_triton_unified_attention.py":235:12)
#loc116 = loc("/home/tristan/llmd-triton-kernel-generation/vllm_kernels/new_triton_unified_attention.py":236:13)
#loc117 = loc("/home/tristan/llmd-triton-kernel-generation/vllm_kernels/new_triton_unified_attention.py":239:31)
#loc118 = loc("/home/tristan/llmd-triton-kernel-generation/vllm_kernels/new_triton_unified_attention.py":242:28)
#loc119 = loc("/home/tristan/llmd-triton-kernel-generation/vllm_kernels/new_triton_unified_attention.py":242:40)
#loc120 = loc("/home/tristan/llmd-triton-kernel-generation/vllm_kernels/new_triton_unified_attention.py":242:14)
#loc121 = loc("/home/tristan/llmd-triton-kernel-generation/vllm_kernels/new_triton_unified_attention.py":246:31)
#loc122 = loc("/home/tristan/llmd-triton-kernel-generation/vllm_kernels/new_triton_unified_attention.py":249:40)
#loc123 = loc("/home/tristan/llmd-triton-kernel-generation/vllm_kernels/new_triton_unified_attention.py":249:14)
#loc124 = loc("/home/tristan/llmd-triton-kernel-generation/vllm_kernels/new_triton_unified_attention.py":255:47)
#loc125 = loc("/home/tristan/llmd-triton-kernel-generation/vllm_kernels/new_triton_unified_attention.py":254:12)
#loc126 = loc("/home/tristan/llmd-triton-kernel-generation/vllm_kernels/new_triton_unified_attention.py":270:47)
#loc127 = loc("/home/tristan/llmd-triton-kernel-generation/vllm_kernels/new_triton_unified_attention.py":269:12)
#loc128 = loc("/home/tristan/llmd-triton-kernel-generation/vllm_kernels/new_triton_unified_attention.py":284:30)
#loc129 = loc("/home/tristan/llmd-triton-kernel-generation/vllm_kernels/new_triton_unified_attention.py":318:31)
#loc130 = loc("/home/tristan/llmd-triton-kernel-generation/vllm_kernels/new_triton_unified_attention.py":318:13)
#loc131 = loc("/home/tristan/llmd-triton-kernel-generation/vllm_kernels/new_triton_unified_attention.py":324:73)
#loc132 = loc("/home/tristan/llmd-triton-kernel-generation/.venv/lib/python3.11/site-packages/triton/language/standard.py":191:40)
#loc134 = loc("/home/tristan/llmd-triton-kernel-generation/.venv/lib/python3.11/site-packages/triton/language/standard.py":170:27)
#loc135 = loc("/home/tristan/llmd-triton-kernel-generation/vllm_kernels/new_triton_unified_attention.py":353:28)
#loc136 = loc("/home/tristan/llmd-triton-kernel-generation/vllm_kernels/new_triton_unified_attention.py":357:29)
#loc137 = loc("/home/tristan/llmd-triton-kernel-generation/vllm_kernels/new_triton_unified_attention.py":357:49)
#loc138 = loc("/home/tristan/llmd-triton-kernel-generation/vllm_kernels/new_triton_unified_attention.py":360:27)
#loc139 = loc("/home/tristan/llmd-triton-kernel-generation/vllm_kernels/new_triton_unified_attention.py":360:23)
#loc140 = loc("/home/tristan/llmd-triton-kernel-generation/vllm_kernels/new_triton_unified_attention.py":360:19)
#loc141 = loc("/home/tristan/llmd-triton-kernel-generation/.venv/lib/python3.11/site-packages/triton/language/standard.py":293:36)
#loc143 = loc("/home/tristan/llmd-triton-kernel-generation/.venv/lib/python3.11/site-packages/triton/language/standard.py":263:15)
#loc144 = loc("/home/tristan/llmd-triton-kernel-generation/vllm_kernels/new_triton_unified_attention.py":366:27)
#loc145 = loc("/home/tristan/llmd-triton-kernel-generation/vllm_kernels/new_triton_unified_attention.py":366:23)
#loc146 = loc("/home/tristan/llmd-triton-kernel-generation/vllm_kernels/new_triton_unified_attention.py":369:26)
#loc147 = loc("/home/tristan/llmd-triton-kernel-generation/vllm_kernels/new_triton_unified_attention.py":369:20)
#loc148 = loc("/home/tristan/llmd-triton-kernel-generation/vllm_kernels/new_triton_unified_attention.py":372:16)
#loc149 = loc("/home/tristan/llmd-triton-kernel-generation/vllm_kernels/new_triton_unified_attention.py":372:24)
#loc150 = loc("/home/tristan/llmd-triton-kernel-generation/vllm_kernels/new_triton_unified_attention.py":382:27)
#loc151 = loc("/home/tristan/llmd-triton-kernel-generation/vllm_kernels/new_triton_unified_attention.py":382:37)
#loc152 = loc("/home/tristan/llmd-triton-kernel-generation/vllm_kernels/new_triton_unified_attention.py":382:8)
#loc153 = loc("/home/tristan/llmd-triton-kernel-generation/vllm_kernels/new_triton_unified_attention.py":385:18)
#loc154 = loc("/home/tristan/llmd-triton-kernel-generation/vllm_kernels/new_triton_unified_attention.py":385:16)
#loc155 = loc("/home/tristan/llmd-triton-kernel-generation/vllm_kernels/new_triton_unified_attention.py":391:34)
#loc156 = loc("/home/tristan/llmd-triton-kernel-generation/vllm_kernels/new_triton_unified_attention.py":392:36)
#loc157 = loc("/home/tristan/llmd-triton-kernel-generation/vllm_kernels/new_triton_unified_attention.py":392:10)
#loc158 = loc("/home/tristan/llmd-triton-kernel-generation/vllm_kernels/new_triton_unified_attention.py":393:10)
#loc159 = loc("/home/tristan/llmd-triton-kernel-generation/vllm_kernels/new_triton_unified_attention.py":397:21)
#loc160 = loc("/home/tristan/llmd-triton-kernel-generation/vllm_kernels/new_triton_unified_attention.py":398:8)
#loc161 = loc("/home/tristan/llmd-triton-kernel-generation/vllm_kernels/new_triton_unified_attention.py":396:4)
#loc162 = loc("/home/tristan/llmd-triton-kernel-generation/vllm_kernels/new_triton_unified_attention.py":1200:4)
#loc188 = loc(callsite(#loc1 at #loc2))
#loc190 = loc("scale"(#loc4))
#loc191 = loc("block_table_stride"(#loc5))
#loc192 = loc("query_stride_0"(#loc6))
#loc193 = loc("query_stride_1"(#loc7))
#loc194 = loc("output_stride_0"(#loc8))
#loc195 = loc("output_stride_1"(#loc9))
#loc196 = loc("stride_k_cache_0"(#loc10))
#loc197 = loc("stride_k_cache_1"(#loc11))
#loc198 = loc("stride_k_cache_2"(#loc12))
#loc199 = loc("stride_v_cache_0"(#loc13))
#loc200 = loc("stride_v_cache_1"(#loc14))
#loc201 = loc("stride_v_cache_2"(#loc15))
#loc202 = loc("num_seqs"(#loc16))
#loc203 = loc("q_block_global_idx"(#loc17))
#loc204 = loc("kv_head_idx"(#loc18))
#loc205 = loc("left"(#loc19))
#loc208 = loc("mid"(#loc23))
#loc209 = loc("mid"(#loc24))
#loc210 = loc("val"(#loc25))
#loc211 = loc("val"(#loc26))
#loc212 = loc("mid_val"(#loc27))
#loc213 = loc("mid_val"(#loc28))
#loc214 = loc("left"(#loc31))
#loc215 = loc("q_block_start_idx"(#loc34))
#loc216 = loc("q_block_start_idx"(#loc35))
#loc217 = loc("q_block_start_idx"(#loc36))
#loc218 = loc("q_block_start_idx"(#loc37))
#loc219 = loc("q_block_local_idx"(#loc38))
#loc220 = loc("cur_batch_in_all_stop_index"(#loc39))
#loc221 = loc("cur_batch_in_all_stop_index"(#loc40))
#loc222 = loc("cur_batch_query_len"(#loc41))
#loc223 = loc(callsite(#loc42 at #loc2))
#loc224 = loc(callsite(#loc43 at #loc2))
#loc225 = loc("offs_m"(#loc44))
#loc226 = loc("offs_d"(#loc45))
#loc227 = loc("offs_t"(#loc46))
#loc228 = loc("query_pos"(#loc47))
#loc229 = loc("query_pos"(#loc48))
#loc230 = loc("query_offset_0"(#loc49))
#loc231 = loc("query_offset_1"(#loc50))
#loc232 = loc("query_offset_1"(#loc51))
#loc233 = loc("query_offset_1"(#loc52))
#loc234 = loc("query_offset"(#loc53))
#loc235 = loc("query_offset"(#loc54))
#loc236 = loc("query_offset"(#loc55))
#loc237 = loc("query_offset"(#loc56))
#loc238 = loc("query_offset"(#loc57))
#loc239 = loc("query_offset"(#loc58))
#loc240 = loc("query_offset"(#loc59))
#loc241 = loc("dim_mask"(#loc60))
#loc242 = loc("dim_mask"(#loc61))
#loc243 = loc("dim_mask"(#loc62))
#loc244 = loc("query_mask_0"(#loc63))
#loc245 = loc("query_mask_0"(#loc64))
#loc246 = loc("query_mask_0"(#loc65))
#loc247 = loc("query_mask_1"(#loc66))
#loc248 = loc("query_mask_1"(#loc67))
#loc249 = loc("query_mask_1"(#loc68))
#loc250 = loc("Q"(#loc69))
#loc251 = loc("Q"(#loc70))
#loc252 = loc("Q"(#loc71))
#loc253 = loc("Q"(#loc72))
#loc254 = loc("Q"(#loc73))
#loc255 = loc("Q"(#loc74))
#loc256 = loc("Q"(#loc75))
#loc257 = loc("block_table_offset"(#loc76))
#loc258 = loc("seq_len"(#loc77))
#loc259 = loc("seq_len"(#loc78))
#loc260 = loc("context_len"(#loc79))
#loc261 = loc("max_seq_prefix_len"(#loc80))
#loc262 = loc("max_seq_prefix_len"(#loc81))
#loc263 = loc("max_seq_prefix_len"(#loc82))
#loc264 = loc("num_tiles"(#loc84))
#loc265 = loc("tile_mask"(#loc86))
#loc266 = loc("physical_block_idx"(#loc87))
#loc267 = loc("physical_block_idx"(#loc88))
#loc268 = loc("v_offset"(#loc89))
#loc269 = loc("v_offset"(#loc90))
#loc270 = loc("v_offset"(#loc91))
#loc271 = loc("v_offset"(#loc92))
#loc272 = loc("v_offset"(#loc93))
#loc273 = loc("k_offset"(#loc94))
#loc274 = loc("k_offset"(#loc95))
#loc275 = loc("k_offset"(#loc96))
#loc276 = loc("k_offset"(#loc97))
#loc277 = loc("k_offset"(#loc98))
#loc278 = loc("k_offset"(#loc99))
#loc279 = loc("K_load"(#loc100))
#loc280 = loc("K_load"(#loc101))
#loc281 = loc("K_load"(#loc102))
#loc282 = loc("V_load"(#loc103))
#loc283 = loc("V_load"(#loc104))
#loc284 = loc("query_abs_pos"(#loc105))
#loc285 = loc("query_abs_pos"(#loc106))
#loc286 = loc("seq_mask"(#loc107))
#loc287 = loc("S"(#loc108))
#loc288 = loc("S"(#loc109))
#loc289 = loc("S"(#loc110))
#loc290 = loc("M"(#loc111))
#loc291 = loc("seq_offset"(#loc112))
#loc292 = loc("seq_offset"(#loc113))
#loc293 = loc("physical_block_idx"(#loc114))
#loc294 = loc("physical_block_idx"(#loc115))
#loc295 = loc("physical_block_idx"(#loc116))
#loc296 = loc("v_offset"(#loc117))
#loc297 = loc("v_offset"(#loc118))
#loc298 = loc("v_offset"(#loc119))
#loc299 = loc("v_offset"(#loc120))
#loc300 = loc("k_offset"(#loc121))
#loc301 = loc("k_offset"(#loc122))
#loc302 = loc("k_offset"(#loc123))
#loc303 = loc("K_load"(#loc124))
#loc304 = loc("K_load"(#loc125))
#loc305 = loc("V_load"(#loc126))
#loc306 = loc("V_load"(#loc127))
#loc307 = loc("seq_mask"(#loc128))
#loc308 = loc("S"(#loc129))
#loc309 = loc("S"(#loc130))
#loc310 = loc("S"(#loc131))
#loc312 = loc("m_j"(#loc135))
#loc313 = loc("m_j"(#loc136))
#loc314 = loc("m_j"(#loc137))
#loc315 = loc("P"(#loc138))
#loc316 = loc("P"(#loc139))
#loc317 = loc("P"(#loc140))
#loc319 = loc("alpha"(#loc144))
#loc320 = loc("alpha"(#loc145))
#loc321 = loc("acc"(#loc146))
#loc322 = loc("acc"(#loc147))
#loc323 = loc("L"(#loc148))
#loc324 = loc("L"(#loc149))
#loc325 = loc("acc"(#loc150))
#loc326 = loc("acc"(#loc151))
#loc327 = loc(callsite(#loc152 at #loc2))
#loc328 = loc("acc"(#loc153))
#loc329 = loc("acc"(#loc154))
#loc330 = loc("output_offset"(#loc155))
#loc331 = loc("output_offset"(#loc156))
#loc332 = loc("output_offset"(#loc157))
#loc333 = loc("output_offset"(#loc158))
#loc334 = loc(callsite(#loc159 at #loc2))
#loc335 = loc(callsite(#loc160 at #loc2))
#loc336 = loc(callsite(#loc161 at #loc2))
#loc338 = loc(callsite(#loc203 at #loc2))
#loc339 = loc(callsite(#loc204 at #loc2))
#loc340 = loc("right"(#loc205))
#loc341 = loc("right"(#loc209))
#loc342 = loc("left"(#loc214))
#loc343 = loc(callsite(#loc215 at #loc2))
#loc344 = loc(callsite(#loc216 at #loc2))
#loc345 = loc(callsite(#loc217 at #loc2))
#loc346 = loc(callsite(#loc218 at #loc2))
#loc347 = loc(callsite(#loc219 at #loc2))
#loc348 = loc(callsite(#loc220 at #loc2))
#loc349 = loc(callsite(#loc221 at #loc2))
#loc350 = loc(callsite(#loc222 at #loc2))
#loc351 = loc(callsite(#loc225 at #loc2))
#loc352 = loc(callsite(#loc226 at #loc2))
#loc353 = loc(callsite(#loc227 at #loc2))
#loc354 = loc(callsite(#loc228 at #loc2))
#loc355 = loc(callsite(#loc229 at #loc2))
#loc356 = loc(callsite(#loc230 at #loc2))
#loc357 = loc(callsite(#loc231 at #loc2))
#loc358 = loc(callsite(#loc232 at #loc2))
#loc359 = loc(callsite(#loc233 at #loc2))
#loc360 = loc(callsite(#loc234 at #loc2))
#loc361 = loc(callsite(#loc235 at #loc2))
#loc362 = loc(callsite(#loc236 at #loc2))
#loc363 = loc(callsite(#loc237 at #loc2))
#loc364 = loc(callsite(#loc238 at #loc2))
#loc365 = loc(callsite(#loc239 at #loc2))
#loc366 = loc(callsite(#loc240 at #loc2))
#loc367 = loc(callsite(#loc241 at #loc2))
#loc368 = loc(callsite(#loc242 at #loc2))
#loc369 = loc(callsite(#loc243 at #loc2))
#loc370 = loc(callsite(#loc244 at #loc2))
#loc371 = loc(callsite(#loc245 at #loc2))
#loc372 = loc(callsite(#loc246 at #loc2))
#loc373 = loc(callsite(#loc247 at #loc2))
#loc374 = loc(callsite(#loc248 at #loc2))
#loc375 = loc(callsite(#loc249 at #loc2))
#loc376 = loc(callsite(#loc250 at #loc2))
#loc377 = loc(callsite(#loc251 at #loc2))
#loc378 = loc(callsite(#loc252 at #loc2))
#loc379 = loc(callsite(#loc253 at #loc2))
#loc380 = loc(callsite(#loc254 at #loc2))
#loc381 = loc(callsite(#loc255 at #loc2))
#loc382 = loc(callsite(#loc256 at #loc2))
#loc383 = loc(callsite(#loc257 at #loc2))
#loc384 = loc(callsite(#loc258 at #loc2))
#loc385 = loc(callsite(#loc259 at #loc2))
#loc386 = loc(callsite(#loc260 at #loc2))
#loc387 = loc(callsite(#loc261 at #loc2))
#loc388 = loc(callsite(#loc262 at #loc2))
#loc389 = loc(callsite(#loc263 at #loc2))
#loc390 = loc(callsite(#loc264 at #loc2))
#loc391 = loc(callsite(#loc265 at #loc2))
#loc392 = loc(callsite(#loc266 at #loc2))
#loc393 = loc(callsite(#loc267 at #loc2))
#loc394 = loc(callsite(#loc268 at #loc2))
#loc395 = loc(callsite(#loc269 at #loc2))
#loc396 = loc(callsite(#loc270 at #loc2))
#loc397 = loc(callsite(#loc271 at #loc2))
#loc398 = loc(callsite(#loc272 at #loc2))
#loc399 = loc(callsite(#loc273 at #loc2))
#loc400 = loc(callsite(#loc274 at #loc2))
#loc401 = loc(callsite(#loc275 at #loc2))
#loc402 = loc(callsite(#loc276 at #loc2))
#loc403 = loc(callsite(#loc277 at #loc2))
#loc404 = loc(callsite(#loc278 at #loc2))
#loc405 = loc(callsite(#loc279 at #loc2))
#loc406 = loc(callsite(#loc280 at #loc2))
#loc407 = loc(callsite(#loc281 at #loc2))
#loc408 = loc(callsite(#loc282 at #loc2))
#loc409 = loc(callsite(#loc283 at #loc2))
#loc410 = loc(callsite(#loc284 at #loc2))
#loc411 = loc(callsite(#loc285 at #loc2))
#loc412 = loc(callsite(#loc286 at #loc2))
#loc413 = loc(callsite(#loc287 at #loc2))
#loc414 = loc(callsite(#loc288 at #loc2))
#loc415 = loc(callsite(#loc289 at #loc2))
#loc416 = loc("L"(#loc290))
#loc417 = loc(callsite(#loc291 at #loc2))
#loc418 = loc(callsite(#loc292 at #loc2))
#loc419 = loc(callsite(#loc293 at #loc2))
#loc420 = loc(callsite(#loc294 at #loc2))
#loc421 = loc(callsite(#loc295 at #loc2))
#loc422 = loc(callsite(#loc296 at #loc2))
#loc423 = loc(callsite(#loc297 at #loc2))
#loc424 = loc(callsite(#loc298 at #loc2))
#loc425 = loc(callsite(#loc299 at #loc2))
#loc426 = loc(callsite(#loc300 at #loc2))
#loc427 = loc(callsite(#loc301 at #loc2))
#loc428 = loc(callsite(#loc302 at #loc2))
#loc429 = loc(callsite(#loc303 at #loc2))
#loc430 = loc(callsite(#loc304 at #loc2))
#loc431 = loc(callsite(#loc305 at #loc2))
#loc432 = loc(callsite(#loc306 at #loc2))
#loc433 = loc(callsite(#loc307 at #loc2))
#loc434 = loc(callsite(#loc308 at #loc2))
#loc435 = loc(callsite(#loc309 at #loc2))
#loc436 = loc(callsite(#loc310 at #loc2))
#loc438 = loc(callsite(#loc312 at #loc2))
#loc439 = loc(callsite(#loc313 at #loc2))
#loc440 = loc(callsite(#loc314 at #loc2))
#loc441 = loc(callsite(#loc315 at #loc2))
#loc442 = loc(callsite(#loc316 at #loc2))
#loc443 = loc(callsite(#loc317 at #loc2))
#loc445 = loc(callsite(#loc319 at #loc2))
#loc446 = loc(callsite(#loc320 at #loc2))
#loc447 = loc(callsite(#loc321 at #loc2))
#loc448 = loc(callsite(#loc322 at #loc2))
#loc449 = loc(callsite(#loc323 at #loc2))
#loc450 = loc(callsite(#loc324 at #loc2))
#loc451 = loc(callsite(#loc325 at #loc2))
#loc452 = loc(callsite(#loc326 at #loc2))
#loc453 = loc(callsite(#loc328 at #loc2))
#loc454 = loc(callsite(#loc329 at #loc2))
#loc455 = loc(callsite(#loc330 at #loc2))
#loc456 = loc(callsite(#loc331 at #loc2))
#loc457 = loc(callsite(#loc332 at #loc2))
#loc458 = loc(callsite(#loc333 at #loc2))
#loc459 = loc(callsite(#loc1 at #loc337))
#loc460 = loc(callsite(#loc340 at #loc337))
#loc461 = loc(callsite(#loc20 at #loc337))
#loc464 = loc(callsite(#loc208 at #loc337))
#loc465 = loc(callsite(#loc341 at #loc337))
#loc466 = loc(callsite(#loc210 at #loc337))
#loc467 = loc(callsite(#loc211 at #loc337))
#loc468 = loc(callsite(#loc212 at #loc337))
#loc469 = loc(callsite(#loc213 at #loc337))
#loc470 = loc(callsite(#loc29 at #loc337))
#loc471 = loc(callsite(#loc30 at #loc337))
#loc472 = loc(callsite(#loc342 at #loc337))
#loc473 = loc(callsite(#loc32 at #loc337))
#loc474 = loc(callsite(#loc33 at #loc337))
#loc475 = loc(callsite(#loc83 at #loc390))
#loc476 = loc(callsite(#loc85 at #loc390))
#loc477 = loc("acc"(#loc416))
#loc478 = loc(callsite(#loc132 at #loc437))
#loc480 = loc(callsite(#loc141 at #loc444))
#loc482 = loc(callsite(#loc477 at #loc2))
#loc483 = loc(callsite(#loc134 at #loc478))
#loc484 = loc(callsite(#loc143 at #loc480))
