#loc = loc("/home/tristan/zml/examples/ttir_test/decode_attention/python/wrap_decode_attention.py":20:0)
#loc1 = loc(unknown)
#loc2 = loc("/home/tristan/zml/examples/ttir_test/decode_attention/python/wrap_decode_attention.py":86:8)
#loc70 = loc("/home/tristan/zml/examples/ttir_test/vllm_kernels/triton_decode_attention.py":122:40)
#loc76 = loc("/home/tristan/zml/examples/ttir_test/vllm_kernels/triton_decode_attention.py":141:44)
#loc86 = loc("/home/tristan/zml/examples/ttir_test/vllm_kernels/triton_decode_attention.py":145:42)
#loc89 = loc("/home/tristan/zml/examples/ttir_test/vllm_kernels/triton_decode_attention.py":147:49)
#loc107 = loc("q_ptr"(#loc))
#loc108 = loc("k_buffer_ptr"(#loc))
#loc109 = loc("v_buffer_ptr"(#loc))
#loc110 = loc("sm_scale_ptr"(#loc))
#loc111 = loc("req_to_tokens_ptr"(#loc))
#loc112 = loc("b_seqlen_ptr"(#loc))
#loc113 = loc("stride_req_to_tokens_b_ptr"(#loc))
#loc114 = loc("stride_qbs_ptr"(#loc))
#loc115 = loc("stride_qh_ptr"(#loc))
#loc116 = loc("stride_buf_kbs_ptr"(#loc))
#loc117 = loc("stride_buf_kh_ptr"(#loc))
#loc118 = loc("stride_buf_vbs_ptr"(#loc))
#loc119 = loc("stride_buf_vh_ptr"(#loc))
#loc120 = loc("stride_mid_ob_ptr"(#loc))
#loc121 = loc("stride_mid_oh_ptr"(#loc))
#loc122 = loc("stride_mid_os_ptr"(#loc))
#loc123 = loc("out_ptr"(#loc))
#loc188 = loc("qk"(#loc70))
#loc192 = loc("n_e_max"(#loc76))
#loc201 = loc("acc"(#loc86))
#loc204 = loc("e_sum"(#loc89))
#loc271 = loc(callsite(#loc188 at #loc2))
#loc275 = loc(callsite(#loc192 at #loc2))
#loc284 = loc(callsite(#loc201 at #loc2))
#loc287 = loc(callsite(#loc204 at #loc2))
#loc301 = loc(callsite(#loc1 at #loc271))
#loc303 = loc(callsite(#loc1 at #loc275))
#loc305 = loc(callsite(#loc1 at #loc284))
#loc307 = loc(callsite(#loc1 at #loc287))
module {
  tt.func public @wrapped_fwd_kernel_stage1(%q_ptr: !tt.ptr<bf16> {tt.divisibility = 16 : i32} loc("q_ptr"(#loc)), %k_buffer_ptr: !tt.ptr<bf16> {tt.divisibility = 16 : i32} loc("k_buffer_ptr"(#loc)), %v_buffer_ptr: !tt.ptr<bf16> {tt.divisibility = 16 : i32} loc("v_buffer_ptr"(#loc)), %sm_scale_ptr: !tt.ptr<f32> {tt.divisibility = 16 : i32} loc("sm_scale_ptr"(#loc)), %req_to_tokens_ptr: !tt.ptr<i32> {tt.divisibility = 16 : i32} loc("req_to_tokens_ptr"(#loc)), %b_seqlen_ptr: !tt.ptr<i32> {tt.divisibility = 16 : i32} loc("b_seqlen_ptr"(#loc)), %stride_req_to_tokens_b_ptr: !tt.ptr<i64> {tt.divisibility = 16 : i32} loc("stride_req_to_tokens_b_ptr"(#loc)), %stride_qbs_ptr: !tt.ptr<i64> {tt.divisibility = 16 : i32} loc("stride_qbs_ptr"(#loc)), %stride_qh_ptr: !tt.ptr<i64> {tt.divisibility = 16 : i32} loc("stride_qh_ptr"(#loc)), %stride_buf_kbs_ptr: !tt.ptr<i64> {tt.divisibility = 16 : i32} loc("stride_buf_kbs_ptr"(#loc)), %stride_buf_kh_ptr: !tt.ptr<i64> {tt.divisibility = 16 : i32} loc("stride_buf_kh_ptr"(#loc)), %stride_buf_vbs_ptr: !tt.ptr<i64> {tt.divisibility = 16 : i32} loc("stride_buf_vbs_ptr"(#loc)), %stride_buf_vh_ptr: !tt.ptr<i64> {tt.divisibility = 16 : i32} loc("stride_buf_vh_ptr"(#loc)), %stride_mid_ob_ptr: !tt.ptr<i64> {tt.divisibility = 16 : i32} loc("stride_mid_ob_ptr"(#loc)), %stride_mid_oh_ptr: !tt.ptr<i64> {tt.divisibility = 16 : i32} loc("stride_mid_oh_ptr"(#loc)), %stride_mid_os_ptr: !tt.ptr<i64> {tt.divisibility = 16 : i32} loc("stride_mid_os_ptr"(#loc)), %out_ptr: !tt.ptr<f32> {tt.divisibility = 16 : i32} loc("out_ptr"(#loc))) attributes {noinline = false} {
    %c4_i32 = arith.constant 4 : i32 loc(#loc124)
    %cst = arith.constant dense<128> : tensor<128xi32> loc(#loc124)
    %cst_0 = arith.constant 0.000000e+00 : f32 loc(#loc124)
    %cst_1 = arith.constant 0xFF800000 : f32 loc(#loc124)
    %cst_2 = arith.constant dense<16> : tensor<8xi32> loc(#loc124)
    %cst_3 = arith.constant dense<0> : tensor<8xi32> loc(#loc124)
    %cst_4 = arith.constant dense<0xFF800000> : tensor<8xf32> loc(#loc124)
    %c128_i64 = arith.constant 128 : i64 loc(#loc124)
    %q = arith.constant dense<0.000000e+00> : tensor<128xbf16> loc(#loc221)
    %c8_i32 = arith.constant 8 : i32 loc(#loc124)
    %cst_5 = arith.constant dense<0.000000e+00> : tensor<8x128xbf16> loc(#loc124)
    %kv_len_per_split = arith.constant 7 : i32 loc(#loc296)
    %acc = arith.constant dense<0.000000e+00> : tensor<128xf32> loc(#loc308)
    %sm_scale = tt.load %sm_scale_ptr : !tt.ptr<f32> loc(#loc128)
    %stride_req_to_tokens_b = tt.load %stride_req_to_tokens_b_ptr : !tt.ptr<i64> loc(#loc129)
    %stride_qbs = tt.load %stride_qbs_ptr : !tt.ptr<i64> loc(#loc130)
    %stride_qh = tt.load %stride_qh_ptr : !tt.ptr<i64> loc(#loc131)
    %stride_buf_kbs = tt.load %stride_buf_kbs_ptr : !tt.ptr<i64> loc(#loc132)
    %stride_buf_kh = tt.load %stride_buf_kh_ptr : !tt.ptr<i64> loc(#loc133)
    %stride_buf_vbs = tt.load %stride_buf_vbs_ptr : !tt.ptr<i64> loc(#loc134)
    %stride_buf_vh = tt.load %stride_buf_vh_ptr : !tt.ptr<i64> loc(#loc135)
    %stride_mid_ob = tt.load %stride_mid_ob_ptr : !tt.ptr<i64> loc(#loc136)
    %stride_mid_oh = tt.load %stride_mid_oh_ptr : !tt.ptr<i64> loc(#loc137)
    %stride_mid_os = tt.load %stride_mid_os_ptr : !tt.ptr<i64> loc(#loc138)
    %cur_batch = tt.get_program_id x : i32 loc(#loc224)
    %cur_head = tt.get_program_id y : i32 loc(#loc225)
    %split_kv_id = tt.get_program_id z : i32 loc(#loc226)
    %cur_kv_head = arith.divsi %cur_head, %c4_i32 : i32 loc(#loc227)
    %offs_d = tt.make_range {end = 128 : i32, start = 0 : i32} : tensor<128xi32> loc(#loc228)
    %mask_d = arith.cmpi slt, %offs_d, %cst : tensor<128xi32> loc(#loc229)
    %cur_batch_seq_len = tt.addptr %b_seqlen_ptr, %cur_batch : !tt.ptr<i32>, i32 loc(#loc230)
    %cur_batch_seq_len_6 = tt.load %cur_batch_seq_len : !tt.ptr<i32> loc(#loc231)
    %off_q = arith.extsi %cur_batch : i32 to i64 loc(#loc232)
    %off_q_7 = arith.muli %off_q, %stride_qbs : i64 loc(#loc232)
    %off_q_8 = arith.extsi %cur_head : i32 to i64 loc(#loc233)
    %off_q_9 = arith.muli %off_q_8, %stride_qh : i64 loc(#loc233)
    %off_q_10 = arith.addi %off_q_7, %off_q_9 : i64 loc(#loc234)
    %off_q_11 = arith.extsi %offs_d : tensor<128xi32> to tensor<128xi64> loc(#loc235)
    %off_q_12 = tt.splat %off_q_10 : i64 -> tensor<128xi64> loc(#loc235)
    %off_q_13 = arith.addi %off_q_12, %off_q_11 : tensor<128xi64> loc(#loc235)
    %q_14 = tt.splat %q_ptr : !tt.ptr<bf16> -> tensor<128x!tt.ptr<bf16>> loc(#loc236)
    %q_15 = tt.addptr %q_14, %off_q_13 : tensor<128x!tt.ptr<bf16>>, tensor<128xi64> loc(#loc236)
    %q_16 = tt.load %q_15, %mask_d, %q : tensor<128x!tt.ptr<bf16>> loc(#loc221)
    %kv_len_per_split_17 = arith.addi %cur_batch_seq_len_6, %kv_len_per_split : i32 loc(#loc296)
    %kv_len_per_split_18 = arith.divsi %kv_len_per_split_17, %c8_i32 : i32 loc(#loc298)
    %split_kv_start = arith.muli %kv_len_per_split_18, %split_kv_id : i32 loc(#loc237)
    %split_kv_end = arith.addi %split_kv_start, %kv_len_per_split_18 : i32 loc(#loc238)
    %split_kv_end_19 = arith.minsi %split_kv_end, %cur_batch_seq_len_6 : i32 loc(#loc239)
    %0 = arith.cmpi sgt, %split_kv_end_19, %split_kv_start : i32 loc(#loc155)
    scf.if %0 {
      %offs_n = tt.make_range {end = 8 : i32, start = 0 : i32} : tensor<8xi32> loc(#loc240)
      %kv_page_number = tt.splat %split_kv_end_19 : i32 -> tensor<8xi32> loc(#loc241)
      %kv_page_number_20 = arith.muli %stride_req_to_tokens_b, %off_q : i64 loc(#loc242)
      %kv_page_number_21 = tt.addptr %req_to_tokens_ptr, %kv_page_number_20 : !tt.ptr<i32>, i64 loc(#loc243)
      %kv_page_number_22 = tt.splat %kv_page_number_21 : !tt.ptr<i32> -> tensor<8x!tt.ptr<i32>> loc(#loc244)
      %offs_buf_k = tt.splat %stride_buf_kbs : i64 -> tensor<8x1xi64> loc(#loc245)
      %offs_buf_k_23 = arith.extsi %cur_kv_head : i32 to i64 loc(#loc246)
      %offs_buf_k_24 = arith.muli %offs_buf_k_23, %stride_buf_kh : i64 loc(#loc246)
      %offs_buf_k_25 = tt.splat %offs_buf_k_24 : i64 -> tensor<8x1xi64> loc(#loc247)
      %offs_buf_k_26 = tt.expand_dims %offs_d {axis = 0 : i32} : tensor<128xi32> -> tensor<1x128xi32> loc(#loc248)
      %offs_buf_k_27 = arith.extsi %offs_buf_k_26 : tensor<1x128xi32> to tensor<1x128xi64> loc(#loc249)
      %offs_buf_k_28 = tt.broadcast %offs_buf_k_27 : tensor<1x128xi64> -> tensor<8x128xi64> loc(#loc249)
      %k = tt.splat %split_kv_end_19 : i32 -> tensor<8x1xi32> loc(#loc250)
      %k_29 = tt.expand_dims %mask_d {axis = 0 : i32} : tensor<128xi1> -> tensor<1x128xi1> loc(#loc251)
      %k_30 = tt.broadcast %k_29 : tensor<1x128xi1> -> tensor<8x128xi1> loc(#loc252)
      %k_31 = tt.splat %k_buffer_ptr : !tt.ptr<bf16> -> tensor<8x128x!tt.ptr<bf16>> loc(#loc253)
      %qk = tt.expand_dims %q_16 {axis = 0 : i32} : tensor<128xbf16> -> tensor<1x128xbf16> loc(#loc254)
      %qk_32 = tt.broadcast %qk : tensor<1x128xbf16> -> tensor<8x128xbf16> loc(#loc255)
      %qk_33 = tt.splat %sm_scale : f32 -> tensor<8xf32> loc(#loc256)
      %offs_buf_v = tt.splat %stride_buf_vbs : i64 -> tensor<8x1xi64> loc(#loc257)
      %offs_buf_v_34 = arith.muli %offs_buf_k_23, %stride_buf_vh : i64 loc(#loc258)
      %offs_buf_v_35 = tt.splat %offs_buf_v_34 : i64 -> tensor<8x1xi64> loc(#loc259)
      %v = tt.splat %v_buffer_ptr : !tt.ptr<bf16> -> tensor<8x128x!tt.ptr<bf16>> loc(#loc260)
      %acc_36:3 = scf.for %start_n = %split_kv_start to %split_kv_end_19 step %c8_i32 iter_args(%e_max = %cst_1, %e_sum = %cst_0, %acc_44 = %acc) -> (f32, f32, tensor<128xf32>)  : i32 {
        %offs_n_45 = tt.splat %start_n : i32 -> tensor<8xi32> loc(#loc262)
        %offs_n_46 = arith.addi %offs_n_45, %offs_n : tensor<8xi32> loc(#loc262)
        %kv_page_number_47 = arith.cmpi slt, %offs_n_46, %kv_page_number : tensor<8xi32> loc(#loc241)
        %kv_page_number_48 = arith.divsi %offs_n_46, %cst_2 : tensor<8xi32> loc(#loc263)
        %kv_page_number_49 = tt.addptr %kv_page_number_22, %kv_page_number_48 : tensor<8x!tt.ptr<i32>>, tensor<8xi32> loc(#loc244)
        %kv_page_number_50 = tt.load %kv_page_number_49, %kv_page_number_47, %cst_3 : tensor<8x!tt.ptr<i32>> loc(#loc264)
        %kv_loc = arith.muli %kv_page_number_50, %cst_2 : tensor<8xi32> loc(#loc265)
        %kv_loc_51 = arith.remsi %offs_n_46, %cst_2 : tensor<8xi32> loc(#loc266)
        %kv_loc_52 = arith.addi %kv_loc, %kv_loc_51 : tensor<8xi32> loc(#loc267)
        %offs_buf_k_53 = tt.expand_dims %kv_loc_52 {axis = 1 : i32} : tensor<8xi32> -> tensor<8x1xi32> loc(#loc268)
        %offs_buf_k_54 = arith.extsi %offs_buf_k_53 : tensor<8x1xi32> to tensor<8x1xi64> loc(#loc245)
        %offs_buf_k_55 = arith.muli %offs_buf_k_54, %offs_buf_k : tensor<8x1xi64> loc(#loc245)
        %offs_buf_k_56 = arith.addi %offs_buf_k_55, %offs_buf_k_25 : tensor<8x1xi64> loc(#loc247)
        %offs_buf_k_57 = tt.broadcast %offs_buf_k_56 : tensor<8x1xi64> -> tensor<8x128xi64> loc(#loc249)
        %offs_buf_k_58 = arith.addi %offs_buf_k_57, %offs_buf_k_28 : tensor<8x128xi64> loc(#loc249)
        %k_59 = tt.expand_dims %offs_n_46 {axis = 1 : i32} : tensor<8xi32> -> tensor<8x1xi32> loc(#loc269)
        %k_60 = arith.cmpi slt, %k_59, %k : tensor<8x1xi32> loc(#loc250)
        %k_61 = tt.broadcast %k_60 : tensor<8x1xi1> -> tensor<8x128xi1> loc(#loc252)
        %k_62 = arith.andi %k_61, %k_30 : tensor<8x128xi1> loc(#loc252)
        %k_63 = tt.addptr %k_31, %offs_buf_k_58 : tensor<8x128x!tt.ptr<bf16>>, tensor<8x128xi64> loc(#loc253)
        %k_64 = tt.load %k_63, %k_62, %cst_5 : tensor<8x128x!tt.ptr<bf16>> loc(#loc270)
        %qk_65 = arith.mulf %qk_32, %k_64 : tensor<8x128xbf16> loc(#loc255)
        %qk_66 = "tt.reduce"(%qk_65) <{axis = 1 : i32}> ({
        ^bb0(%qk_91: bf16 loc(callsite(#loc1 at #loc271)), %qk_92: bf16 loc(callsite(#loc1 at #loc271))):
          %qk_93 = arith.addf %qk_91, %qk_92 : bf16 loc(#loc310)
          tt.reduce.return %qk_93 : bf16 loc(#loc300)
        }) : (tensor<8x128xbf16>) -> tensor<8xbf16> loc(#loc300)
        %qk_67 = arith.extf %qk_66 : tensor<8xbf16> to tensor<8xf32> loc(#loc256)
        %qk_68 = arith.mulf %qk_67, %qk_33 : tensor<8xf32> loc(#loc256)
        %qk_69 = arith.select %kv_page_number_47, %qk_68, %cst_4 : tensor<8xi1>, tensor<8xf32> loc(#loc272)
        %offs_buf_v_70 = arith.muli %offs_buf_k_54, %offs_buf_v : tensor<8x1xi64> loc(#loc257)
        %offs_buf_v_71 = arith.addi %offs_buf_v_70, %offs_buf_v_35 : tensor<8x1xi64> loc(#loc259)
        %offs_buf_v_72 = tt.broadcast %offs_buf_v_71 : tensor<8x1xi64> -> tensor<8x128xi64> loc(#loc273)
        %offs_buf_v_73 = arith.addi %offs_buf_v_72, %offs_buf_k_28 : tensor<8x128xi64> loc(#loc273)
        %v_74 = tt.addptr %v, %offs_buf_v_73 : tensor<8x128x!tt.ptr<bf16>>, tensor<8x128xi64> loc(#loc260)
        %v_75 = tt.load %v_74, %k_62, %cst_5 : tensor<8x128x!tt.ptr<bf16>> loc(#loc274)
        %n_e_max = "tt.reduce"(%qk_69) <{axis = 0 : i32}> ({
        ^bb0(%n_e_max_91: f32 loc(callsite(#loc1 at #loc275)), %n_e_max_92: f32 loc(callsite(#loc1 at #loc275))):
          %n_e_max_93 = arith.maxnumf %n_e_max_91, %n_e_max_92 : f32 loc(#loc311)
          tt.reduce.return %n_e_max_93 : f32 loc(#loc302)
        }) : (tensor<8xf32>) -> f32 loc(#loc302)
        %n_e_max_76 = arith.maxnumf %n_e_max, %e_max : f32 loc(#loc276)
        %re_scale = arith.subf %e_max, %n_e_max_76 : f32 loc(#loc277)
        %re_scale_77 = math.exp %re_scale : f32 loc(#loc278)
        %p = tt.splat %n_e_max_76 : f32 -> tensor<8xf32> loc(#loc279)
        %p_78 = arith.subf %qk_69, %p : tensor<8xf32> loc(#loc279)
        %p_79 = math.exp %p_78 : tensor<8xf32> loc(#loc280)
        %acc_80 = tt.splat %re_scale_77 : f32 -> tensor<128xf32> loc(#loc281)
        %acc_81 = arith.mulf %acc_44, %acc_80 : tensor<128xf32> loc(#loc281)
        %acc_82 = tt.expand_dims %p_79 {axis = 1 : i32} : tensor<8xf32> -> tensor<8x1xf32> loc(#loc282)
        %acc_83 = arith.extf %v_75 : tensor<8x128xbf16> to tensor<8x128xf32> loc(#loc283)
        %acc_84 = tt.broadcast %acc_82 : tensor<8x1xf32> -> tensor<8x128xf32> loc(#loc283)
        %acc_85 = arith.mulf %acc_84, %acc_83 : tensor<8x128xf32> loc(#loc283)
        %acc_86 = "tt.reduce"(%acc_85) <{axis = 0 : i32}> ({
        ^bb0(%acc_91: f32 loc(callsite(#loc1 at #loc284)), %acc_92: f32 loc(callsite(#loc1 at #loc284))):
          %acc_93 = arith.addf %acc_91, %acc_92 : f32 loc(#loc312)
          tt.reduce.return %acc_93 : f32 loc(#loc304)
        }) : (tensor<8x128xf32>) -> tensor<128xf32> loc(#loc304)
        %acc_87 = arith.addf %acc_81, %acc_86 : tensor<128xf32> loc(#loc285)
        %e_sum_88 = arith.mulf %e_sum, %re_scale_77 : f32 loc(#loc286)
        %e_sum_89 = "tt.reduce"(%p_79) <{axis = 0 : i32}> ({
        ^bb0(%e_sum_91: f32 loc(callsite(#loc1 at #loc287)), %e_sum_92: f32 loc(callsite(#loc1 at #loc287))):
          %e_sum_93 = arith.addf %e_sum_91, %e_sum_92 : f32 loc(#loc313)
          tt.reduce.return %e_sum_93 : f32 loc(#loc306)
        }) : (tensor<8xf32>) -> f32 loc(#loc306)
        %e_sum_90 = arith.addf %e_sum_88, %e_sum_89 : f32 loc(#loc288)
        scf.yield %n_e_max_76, %e_sum_90, %acc_87 : f32, f32, tensor<128xf32> loc(#loc206)
      } loc(#loc316)
      %offs_mid_o = arith.muli %off_q, %stride_mid_ob : i64 loc(#loc289)
      %offs_mid_o_37 = arith.muli %off_q_8, %stride_mid_oh : i64 loc(#loc290)
      %offs_mid_o_38 = arith.addi %offs_mid_o, %offs_mid_o_37 : i64 loc(#loc291)
      %offs_mid_o_39 = arith.extsi %split_kv_id : i32 to i64 loc(#loc292)
      %offs_mid_o_40 = arith.muli %offs_mid_o_39, %stride_mid_os : i64 loc(#loc292)
      %offs_mid_o_41 = arith.addi %offs_mid_o_38, %offs_mid_o_40 : i64 loc(#loc293)
      %offs_mid_o_42 = tt.splat %offs_mid_o_41 : i64 -> tensor<128xi64> loc(#loc294)
      %offs_mid_o_43 = arith.addi %offs_mid_o_42, %off_q_11 : tensor<128xi64> loc(#loc294)
      %1 = tt.splat %out_ptr : !tt.ptr<f32> -> tensor<128x!tt.ptr<f32>> loc(#loc213)
      %2 = tt.addptr %1, %offs_mid_o_43 : tensor<128x!tt.ptr<f32>>, tensor<128xi64> loc(#loc213)
      %3 = tt.splat %acc_36#1 : f32 -> tensor<128xf32> loc(#loc214)
      %4 = arith.divf %acc_36#2, %3 : tensor<128xf32> loc(#loc214)
      tt.store %2, %4, %mask_d : tensor<128x!tt.ptr<f32>> loc(#loc215)
      %offs_mid_o_1 = arith.addi %offs_mid_o_41, %c128_i64 : i64 loc(#loc295)
      %5 = tt.addptr %out_ptr, %offs_mid_o_1 : !tt.ptr<f32>, i64 loc(#loc217)
      %6 = math.log %acc_36#1 : f32 loc(#loc218)
      %7 = arith.addf %acc_36#0, %6 : f32 loc(#loc219)
      tt.store %5, %7 : !tt.ptr<f32> loc(#loc220)
    } loc(#loc156)
    tt.return loc(#loc106)
  } loc(#loc)
} loc(#loc)
#loc3 = loc("/home/tristan/zml/examples/ttir_test/vllm_kernels/triton_decode_attention.py":91:16)
#loc4 = loc("/home/tristan/zml/examples/ttir_test/.venv/lib/python3.11/site-packages/triton/language/standard.py":41:22)
#loc5 = loc("/home/tristan/zml/examples/ttir_test/vllm_kernels/triton_decode_attention.py":93:50)
#loc6 = loc("/home/tristan/zml/examples/ttir_test/.venv/lib/python3.11/site-packages/triton/language/standard.py":127:31)
#loc7 = loc("/home/tristan/zml/examples/ttir_test/vllm_kernels/triton_decode_attention.py":99:19)
#loc8 = loc("/home/tristan/zml/examples/ttir_test/decode_attention/python/wrap_decode_attention.py":48:23)
#loc9 = loc("/home/tristan/zml/examples/ttir_test/decode_attention/python/wrap_decode_attention.py":49:37)
#loc10 = loc("/home/tristan/zml/examples/ttir_test/decode_attention/python/wrap_decode_attention.py":50:25)
#loc11 = loc("/home/tristan/zml/examples/ttir_test/decode_attention/python/wrap_decode_attention.py":51:24)
#loc12 = loc("/home/tristan/zml/examples/ttir_test/decode_attention/python/wrap_decode_attention.py":52:29)
#loc13 = loc("/home/tristan/zml/examples/ttir_test/decode_attention/python/wrap_decode_attention.py":53:28)
#loc14 = loc("/home/tristan/zml/examples/ttir_test/decode_attention/python/wrap_decode_attention.py":54:29)
#loc15 = loc("/home/tristan/zml/examples/ttir_test/decode_attention/python/wrap_decode_attention.py":55:28)
#loc16 = loc("/home/tristan/zml/examples/ttir_test/decode_attention/python/wrap_decode_attention.py":56:28)
#loc17 = loc("/home/tristan/zml/examples/ttir_test/decode_attention/python/wrap_decode_attention.py":57:28)
#loc18 = loc("/home/tristan/zml/examples/ttir_test/decode_attention/python/wrap_decode_attention.py":58:28)
#loc19 = loc("/home/tristan/zml/examples/ttir_test/vllm_kernels/triton_decode_attention.py":77:30)
#loc20 = loc("/home/tristan/zml/examples/ttir_test/vllm_kernels/triton_decode_attention.py":78:29)
#loc21 = loc("/home/tristan/zml/examples/ttir_test/vllm_kernels/triton_decode_attention.py":79:32)
#loc22 = loc("/home/tristan/zml/examples/ttir_test/vllm_kernels/triton_decode_attention.py":81:30)
#loc23 = loc("/home/tristan/zml/examples/ttir_test/vllm_kernels/triton_decode_attention.py":83:26)
#loc24 = loc("/home/tristan/zml/examples/ttir_test/vllm_kernels/triton_decode_attention.py":85:22)
#loc25 = loc("/home/tristan/zml/examples/ttir_test/vllm_kernels/triton_decode_attention.py":87:43)
#loc26 = loc("/home/tristan/zml/examples/ttir_test/vllm_kernels/triton_decode_attention.py":87:32)
#loc27 = loc("/home/tristan/zml/examples/ttir_test/vllm_kernels/triton_decode_attention.py":90:24)
#loc28 = loc("/home/tristan/zml/examples/ttir_test/vllm_kernels/triton_decode_attention.py":90:48)
#loc29 = loc("/home/tristan/zml/examples/ttir_test/vllm_kernels/triton_decode_attention.py":90:37)
#loc30 = loc("/home/tristan/zml/examples/ttir_test/vllm_kernels/triton_decode_attention.py":90:60)
#loc31 = loc("/home/tristan/zml/examples/ttir_test/vllm_kernels/triton_decode_attention.py":91:20)
#loc32 = loc("/home/tristan/zml/examples/ttir_test/.venv/lib/python3.11/site-packages/triton/language/standard.py":41:28)
#loc33 = loc("/home/tristan/zml/examples/ttir_test/vllm_kernels/triton_decode_attention.py":94:40)
#loc34 = loc("/home/tristan/zml/examples/ttir_test/vllm_kernels/triton_decode_attention.py":95:47)
#loc35 = loc("/home/tristan/zml/examples/ttir_test/vllm_kernels/triton_decode_attention.py":95:65)
#loc36 = loc("/home/tristan/zml/examples/ttir_test/vllm_kernels/triton_decode_attention.py":101:22)
#loc37 = loc("/home/tristan/zml/examples/ttir_test/vllm_kernels/triton_decode_attention.py":101:7)
#loc38 = loc("/home/tristan/zml/examples/ttir_test/vllm_kernels/triton_decode_attention.py":103:44)
#loc39 = loc("/home/tristan/zml/examples/ttir_test/vllm_kernels/triton_decode_attention.py":108:30)
#loc40 = loc("/home/tristan/zml/examples/ttir_test/vllm_kernels/triton_decode_attention.py":106:43)
#loc41 = loc("/home/tristan/zml/examples/ttir_test/vllm_kernels/triton_decode_attention.py":106:18)
#loc42 = loc("/home/tristan/zml/examples/ttir_test/vllm_kernels/triton_decode_attention.py":107:18)
#loc43 = loc("/home/tristan/zml/examples/ttir_test/vllm_kernels/triton_decode_attention.py":113:34)
#loc44 = loc("/home/tristan/zml/examples/ttir_test/vllm_kernels/triton_decode_attention.py":114:32)
#loc45 = loc("/home/tristan/zml/examples/ttir_test/vllm_kernels/triton_decode_attention.py":114:18)
#loc46 = loc("/home/tristan/zml/examples/ttir_test/vllm_kernels/triton_decode_attention.py":115:25)
#loc47 = loc("/home/tristan/zml/examples/ttir_test/vllm_kernels/triton_decode_attention.py":115:18)
#loc48 = loc("/home/tristan/zml/examples/ttir_test/vllm_kernels/triton_decode_attention.py":119:40)
#loc49 = loc("/home/tristan/zml/examples/ttir_test/vllm_kernels/triton_decode_attention.py":119:64)
#loc50 = loc("/home/tristan/zml/examples/ttir_test/vllm_kernels/triton_decode_attention.py":119:57)
#loc51 = loc("/home/tristan/zml/examples/ttir_test/vllm_kernels/triton_decode_attention.py":118:27)
#loc52 = loc("/home/tristan/zml/examples/ttir_test/vllm_kernels/triton_decode_attention.py":122:26)
#loc53 = loc("/home/tristan/zml/examples/ttir_test/vllm_kernels/triton_decode_attention.py":122:37)
#loc54 = loc("/home/tristan/zml/examples/ttir_test/vllm_kernels/triton_decode_attention.py":123:18)
#loc55 = loc("/home/tristan/zml/examples/ttir_test/vllm_kernels/triton_decode_attention.py":131:34)
#loc56 = loc("/home/tristan/zml/examples/ttir_test/vllm_kernels/triton_decode_attention.py":132:32)
#loc57 = loc("/home/tristan/zml/examples/ttir_test/vllm_kernels/triton_decode_attention.py":132:18)
#loc58 = loc("/home/tristan/zml/examples/ttir_test/vllm_kernels/triton_decode_attention.py":136:27)
#loc59 = loc("/home/tristan/zml/examples/ttir_test/vllm_kernels/triton_decode_attention.py":102:59)
#loc60 = loc("/home/tristan/zml/examples/ttir_test/vllm_kernels/triton_decode_attention.py":103:31)
#loc61 = loc("/home/tristan/zml/examples/ttir_test/vllm_kernels/triton_decode_attention.py":107:28)
#loc62 = loc("/home/tristan/zml/examples/ttir_test/vllm_kernels/triton_decode_attention.py":105:16)
#loc63 = loc("/home/tristan/zml/examples/ttir_test/vllm_kernels/triton_decode_attention.py":111:38)
#loc64 = loc("/home/tristan/zml/examples/ttir_test/vllm_kernels/triton_decode_attention.py":111:59)
#loc65 = loc("/home/tristan/zml/examples/ttir_test/vllm_kernels/triton_decode_attention.py":111:50)
#loc66 = loc("/home/tristan/zml/examples/ttir_test/vllm_kernels/triton_decode_attention.py":113:23)
#loc67 = loc("/home/tristan/zml/examples/ttir_test/vllm_kernels/triton_decode_attention.py":119:29)
#loc68 = loc("/home/tristan/zml/examples/ttir_test/vllm_kernels/triton_decode_attention.py":118:16)
#loc69 = loc("/home/tristan/zml/examples/ttir_test/.venv/lib/python3.11/site-packages/triton/language/standard.py":291:36)
#loc71 = loc("/home/tristan/zml/examples/ttir_test/.venv/lib/python3.11/site-packages/triton/language/standard.py":261:15)
#loc72 = loc("/home/tristan/zml/examples/ttir_test/vllm_kernels/triton_decode_attention.py":128:53)
#loc73 = loc("/home/tristan/zml/examples/ttir_test/vllm_kernels/triton_decode_attention.py":133:18)
#loc74 = loc("/home/tristan/zml/examples/ttir_test/vllm_kernels/triton_decode_attention.py":136:16)
#loc75 = loc("/home/tristan/zml/examples/ttir_test/.venv/lib/python3.11/site-packages/triton/language/standard.py":189:40)
#loc77 = loc("/home/tristan/zml/examples/ttir_test/.venv/lib/python3.11/site-packages/triton/language/standard.py":168:27)
#loc78 = loc("/home/tristan/zml/examples/ttir_test/vllm_kernels/triton_decode_attention.py":141:48)
#loc79 = loc("/home/tristan/zml/examples/ttir_test/vllm_kernels/triton_decode_attention.py":142:38)
#loc80 = loc("/home/tristan/zml/examples/ttir_test/vllm_kernels/triton_decode_attention.py":142:30)
#loc81 = loc("/home/tristan/zml/examples/ttir_test/vllm_kernels/triton_decode_attention.py":143:28)
#loc82 = loc("/home/tristan/zml/examples/ttir_test/vllm_kernels/triton_decode_attention.py":143:23)
#loc83 = loc("/home/tristan/zml/examples/ttir_test/vllm_kernels/triton_decode_attention.py":144:19)
#loc84 = loc("/home/tristan/zml/examples/ttir_test/vllm_kernels/triton_decode_attention.py":145:28)
#loc85 = loc("/home/tristan/zml/examples/ttir_test/vllm_kernels/triton_decode_attention.py":145:39)
#loc87 = loc("/home/tristan/zml/examples/ttir_test/vllm_kernels/triton_decode_attention.py":145:19)
#loc88 = loc("/home/tristan/zml/examples/ttir_test/vllm_kernels/triton_decode_attention.py":147:28)
#loc90 = loc("/home/tristan/zml/examples/ttir_test/vllm_kernels/triton_decode_attention.py":147:39)
#loc91 = loc("/home/tristan/zml/examples/ttir_test/vllm_kernels/triton_decode_attention.py":148:12)
#loc92 = loc("/home/tristan/zml/examples/ttir_test/vllm_kernels/triton_decode_attention.py":151:24)
#loc93 = loc("/home/tristan/zml/examples/ttir_test/vllm_kernels/triton_decode_attention.py":152:25)
#loc94 = loc("/home/tristan/zml/examples/ttir_test/vllm_kernels/triton_decode_attention.py":152:14)
#loc95 = loc("/home/tristan/zml/examples/ttir_test/vllm_kernels/triton_decode_attention.py":153:28)
#loc96 = loc("/home/tristan/zml/examples/ttir_test/vllm_kernels/triton_decode_attention.py":153:14)
#loc97 = loc("/home/tristan/zml/examples/ttir_test/vllm_kernels/triton_decode_attention.py":154:14)
#loc98 = loc("/home/tristan/zml/examples/ttir_test/vllm_kernels/triton_decode_attention.py":158:22)
#loc99 = loc("/home/tristan/zml/examples/ttir_test/vllm_kernels/triton_decode_attention.py":159:18)
#loc100 = loc("/home/tristan/zml/examples/ttir_test/vllm_kernels/triton_decode_attention.py":159:12)
#loc101 = loc("/home/tristan/zml/examples/ttir_test/vllm_kernels/triton_decode_attention.py":167:14)
#loc102 = loc("/home/tristan/zml/examples/ttir_test/vllm_kernels/triton_decode_attention.py":171:22)
#loc103 = loc("/home/tristan/zml/examples/ttir_test/vllm_kernels/triton_decode_attention.py":172:27)
#loc104 = loc("/home/tristan/zml/examples/ttir_test/vllm_kernels/triton_decode_attention.py":172:20)
#loc105 = loc("/home/tristan/zml/examples/ttir_test/vllm_kernels/triton_decode_attention.py":172:12)
#loc106 = loc("/home/tristan/zml/examples/ttir_test/decode_attention/python/wrap_decode_attention.py":60:4)
#loc124 = loc(callsite(#loc1 at #loc2))
#loc125 = loc("q"(#loc3))
#loc126 = loc("kv_len_per_split"(#loc5))
#loc127 = loc("acc"(#loc7))
#loc128 = loc("sm_scale"(#loc8))
#loc129 = loc("stride_req_to_tokens_b"(#loc9))
#loc130 = loc("stride_qbs"(#loc10))
#loc131 = loc("stride_qh"(#loc11))
#loc132 = loc("stride_buf_kbs"(#loc12))
#loc133 = loc("stride_buf_kh"(#loc13))
#loc134 = loc("stride_buf_vbs"(#loc14))
#loc135 = loc("stride_buf_vh"(#loc15))
#loc136 = loc("stride_mid_ob"(#loc16))
#loc137 = loc("stride_mid_oh"(#loc17))
#loc138 = loc("stride_mid_os"(#loc18))
#loc139 = loc("cur_batch"(#loc19))
#loc140 = loc("cur_head"(#loc20))
#loc141 = loc("split_kv_id"(#loc21))
#loc142 = loc("cur_kv_head"(#loc22))
#loc143 = loc("offs_d"(#loc23))
#loc144 = loc("mask_d"(#loc24))
#loc145 = loc("cur_batch_seq_len"(#loc25))
#loc146 = loc("cur_batch_seq_len"(#loc26))
#loc147 = loc("off_q"(#loc27))
#loc148 = loc("off_q"(#loc28))
#loc149 = loc("off_q"(#loc29))
#loc150 = loc("off_q"(#loc30))
#loc151 = loc("q"(#loc31))
#loc152 = loc("split_kv_start"(#loc33))
#loc153 = loc("split_kv_end"(#loc34))
#loc154 = loc("split_kv_end"(#loc35))
#loc155 = loc(callsite(#loc36 at #loc2))
#loc156 = loc(callsite(#loc37 at #loc2))
#loc157 = loc("offs_n"(#loc38))
#loc158 = loc("kv_page_number"(#loc39))
#loc159 = loc("kv_page_number"(#loc40))
#loc160 = loc("kv_page_number"(#loc41))
#loc161 = loc("kv_page_number"(#loc42))
#loc162 = loc("offs_buf_k"(#loc43))
#loc163 = loc("offs_buf_k"(#loc44))
#loc164 = loc("offs_buf_k"(#loc45))
#loc165 = loc("offs_buf_k"(#loc46))
#loc166 = loc("offs_buf_k"(#loc47))
#loc167 = loc("k"(#loc48))
#loc168 = loc("k"(#loc49))
#loc169 = loc("k"(#loc50))
#loc170 = loc("k"(#loc51))
#loc171 = loc("qk"(#loc52))
#loc172 = loc("qk"(#loc53))
#loc173 = loc("qk"(#loc54))
#loc174 = loc("offs_buf_v"(#loc55))
#loc175 = loc("offs_buf_v"(#loc56))
#loc176 = loc("offs_buf_v"(#loc57))
#loc177 = loc("v"(#loc58))
#loc178 = loc("e_max"(#loc59))
#loc179 = loc("offs_n"(#loc60))
#loc180 = loc("kv_page_number"(#loc61))
#loc181 = loc("kv_page_number"(#loc62))
#loc182 = loc("kv_loc"(#loc63))
#loc183 = loc("kv_loc"(#loc64))
#loc184 = loc("kv_loc"(#loc65))
#loc185 = loc("offs_buf_k"(#loc66))
#loc186 = loc("k"(#loc67))
#loc187 = loc("k"(#loc68))
#loc189 = loc("qk"(#loc72))
#loc190 = loc("offs_buf_v"(#loc73))
#loc191 = loc("v"(#loc74))
#loc193 = loc("n_e_max"(#loc78))
#loc194 = loc("re_scale"(#loc79))
#loc195 = loc("re_scale"(#loc80))
#loc196 = loc("p"(#loc81))
#loc197 = loc("p"(#loc82))
#loc198 = loc("acc"(#loc83))
#loc199 = loc("acc"(#loc84))
#loc200 = loc("acc"(#loc85))
#loc202 = loc("acc"(#loc87))
#loc203 = loc("e_sum"(#loc88))
#loc205 = loc("e_sum"(#loc90))
#loc206 = loc(callsite(#loc91 at #loc2))
#loc207 = loc("offs_mid_o"(#loc92))
#loc208 = loc("offs_mid_o"(#loc93))
#loc209 = loc("offs_mid_o"(#loc94))
#loc210 = loc("offs_mid_o"(#loc95))
#loc211 = loc("offs_mid_o"(#loc96))
#loc212 = loc("offs_mid_o"(#loc97))
#loc213 = loc(callsite(#loc98 at #loc2))
#loc214 = loc(callsite(#loc99 at #loc2))
#loc215 = loc(callsite(#loc100 at #loc2))
#loc216 = loc("offs_mid_o_1"(#loc101))
#loc217 = loc(callsite(#loc102 at #loc2))
#loc218 = loc(callsite(#loc103 at #loc2))
#loc219 = loc(callsite(#loc104 at #loc2))
#loc220 = loc(callsite(#loc105 at #loc2))
#loc221 = loc(callsite(#loc125 at #loc2))
#loc222 = loc(callsite(#loc126 at #loc2))
#loc223 = loc("acc"(#loc127))
#loc224 = loc(callsite(#loc139 at #loc2))
#loc225 = loc(callsite(#loc140 at #loc2))
#loc226 = loc(callsite(#loc141 at #loc2))
#loc227 = loc(callsite(#loc142 at #loc2))
#loc228 = loc(callsite(#loc143 at #loc2))
#loc229 = loc(callsite(#loc144 at #loc2))
#loc230 = loc(callsite(#loc145 at #loc2))
#loc231 = loc(callsite(#loc146 at #loc2))
#loc232 = loc(callsite(#loc147 at #loc2))
#loc233 = loc(callsite(#loc148 at #loc2))
#loc234 = loc(callsite(#loc149 at #loc2))
#loc235 = loc(callsite(#loc150 at #loc2))
#loc236 = loc(callsite(#loc151 at #loc2))
#loc237 = loc(callsite(#loc152 at #loc2))
#loc238 = loc(callsite(#loc153 at #loc2))
#loc239 = loc(callsite(#loc154 at #loc2))
#loc240 = loc(callsite(#loc157 at #loc2))
#loc241 = loc(callsite(#loc158 at #loc2))
#loc242 = loc(callsite(#loc159 at #loc2))
#loc243 = loc(callsite(#loc160 at #loc2))
#loc244 = loc(callsite(#loc161 at #loc2))
#loc245 = loc(callsite(#loc162 at #loc2))
#loc246 = loc(callsite(#loc163 at #loc2))
#loc247 = loc(callsite(#loc164 at #loc2))
#loc248 = loc(callsite(#loc165 at #loc2))
#loc249 = loc(callsite(#loc166 at #loc2))
#loc250 = loc(callsite(#loc167 at #loc2))
#loc251 = loc(callsite(#loc168 at #loc2))
#loc252 = loc(callsite(#loc169 at #loc2))
#loc253 = loc(callsite(#loc170 at #loc2))
#loc254 = loc(callsite(#loc171 at #loc2))
#loc255 = loc(callsite(#loc172 at #loc2))
#loc256 = loc(callsite(#loc173 at #loc2))
#loc257 = loc(callsite(#loc174 at #loc2))
#loc258 = loc(callsite(#loc175 at #loc2))
#loc259 = loc(callsite(#loc176 at #loc2))
#loc260 = loc(callsite(#loc177 at #loc2))
#loc261 = loc("e_sum"(#loc178))
#loc262 = loc(callsite(#loc179 at #loc2))
#loc263 = loc(callsite(#loc180 at #loc2))
#loc264 = loc(callsite(#loc181 at #loc2))
#loc265 = loc(callsite(#loc182 at #loc2))
#loc266 = loc(callsite(#loc183 at #loc2))
#loc267 = loc(callsite(#loc184 at #loc2))
#loc268 = loc(callsite(#loc185 at #loc2))
#loc269 = loc(callsite(#loc186 at #loc2))
#loc270 = loc(callsite(#loc187 at #loc2))
#loc272 = loc(callsite(#loc189 at #loc2))
#loc273 = loc(callsite(#loc190 at #loc2))
#loc274 = loc(callsite(#loc191 at #loc2))
#loc276 = loc(callsite(#loc193 at #loc2))
#loc277 = loc(callsite(#loc194 at #loc2))
#loc278 = loc(callsite(#loc195 at #loc2))
#loc279 = loc(callsite(#loc196 at #loc2))
#loc280 = loc(callsite(#loc197 at #loc2))
#loc281 = loc(callsite(#loc198 at #loc2))
#loc282 = loc(callsite(#loc199 at #loc2))
#loc283 = loc(callsite(#loc200 at #loc2))
#loc285 = loc(callsite(#loc202 at #loc2))
#loc286 = loc(callsite(#loc203 at #loc2))
#loc288 = loc(callsite(#loc205 at #loc2))
#loc289 = loc(callsite(#loc207 at #loc2))
#loc290 = loc(callsite(#loc208 at #loc2))
#loc291 = loc(callsite(#loc209 at #loc2))
#loc292 = loc(callsite(#loc210 at #loc2))
#loc293 = loc(callsite(#loc211 at #loc2))
#loc294 = loc(callsite(#loc212 at #loc2))
#loc295 = loc(callsite(#loc216 at #loc2))
#loc296 = loc(callsite(#loc4 at #loc222))
#loc297 = loc(callsite(#loc223 at #loc2))
#loc298 = loc(callsite(#loc32 at #loc222))
#loc299 = loc("acc"(#loc261))
#loc300 = loc(callsite(#loc69 at #loc271))
#loc302 = loc(callsite(#loc75 at #loc275))
#loc304 = loc(callsite(#loc69 at #loc284))
#loc306 = loc(callsite(#loc69 at #loc287))
#loc308 = loc(callsite(#loc6 at #loc297))
#loc309 = loc("e_max"(#loc299))
#loc310 = loc(callsite(#loc71 at #loc300))
#loc311 = loc(callsite(#loc77 at #loc302))
#loc312 = loc(callsite(#loc71 at #loc304))
#loc313 = loc(callsite(#loc71 at #loc306))
#loc314 = loc("e_sum"(#loc309))
#loc315 = loc("acc"(#loc314))
#loc316 = loc(callsite(#loc315 at #loc2))
