#loc = loc("/home/tristan/zml/examples/ttir_test/3d_unified_attention/python/wrap_3d_unified_attention.py":23:0)
#loc1 = loc(unknown)
#loc2 = loc("/home/tristan/zml/examples/ttir_test/3d_unified_attention/python/wrap_3d_unified_attention.py":135:8)
#loc3 = loc("/home/tristan/zml/examples/ttir_test/vllm_kernels/triton_unified_attention.py":463:68)
#loc20 = loc("left")
#loc21 = loc("right")
#loc139 = loc("/home/tristan/zml/examples/ttir_test/vllm_kernels/triton_unified_attention.py":711:35)
#loc148 = loc("/home/tristan/zml/examples/ttir_test/vllm_kernels/triton_unified_attention.py":721:21)
#loc179 = loc("query_ptr"(#loc))
#loc180 = loc("key_cache_ptr"(#loc))
#loc181 = loc("value_cache_ptr"(#loc))
#loc182 = loc("block_tables_ptr"(#loc))
#loc183 = loc("seq_lens_ptr"(#loc))
#loc184 = loc("scale_ptr"(#loc))
#loc185 = loc("k_scale_ptr"(#loc))
#loc186 = loc("v_scale_ptr"(#loc))
#loc187 = loc("softcap_ptr"(#loc))
#loc188 = loc("block_table_stride_ptr"(#loc))
#loc189 = loc("query_stride_0_ptr"(#loc))
#loc190 = loc("query_stride_1_ptr"(#loc))
#loc191 = loc("qq_bias_stride_0_ptr"(#loc))
#loc192 = loc("stride_k_cache_0_ptr"(#loc))
#loc193 = loc("stride_k_cache_1_ptr"(#loc))
#loc194 = loc("stride_k_cache_2_ptr"(#loc))
#loc195 = loc("stride_v_cache_0_ptr"(#loc))
#loc196 = loc("stride_v_cache_1_ptr"(#loc))
#loc197 = loc("stride_v_cache_2_ptr"(#loc))
#loc198 = loc("query_start_len_ptr"(#loc))
#loc199 = loc("num_seqs_ptr"(#loc))
#loc200 = loc("segm_max_ptr"(#loc))
#loc201 = loc("segm_expsum_ptr"(#loc))
#loc202 = loc("segm_output_ptr"(#loc))
#loc204 = loc("seq_idx"(#loc3))
#loc220 = loc("left"(#loc20))
#loc221 = loc("right"(#loc21))
#loc332 = loc("m_j"(#loc139))
#loc339 = loc("l_j"(#loc148))
#loc368 = loc(callsite(#loc204 at #loc2))
#loc469 = loc(callsite(#loc332 at #loc2))
#loc476 = loc(callsite(#loc339 at #loc2))
#loc499 = loc(callsite(#loc220 at #loc368))
#loc500 = loc(callsite(#loc221 at #loc368))
#loc518 = loc(callsite(#loc1 at #loc469))
#loc520 = loc(callsite(#loc1 at #loc476))
module {
  tt.func public @wrapped_kernel_unified_attention_3d(%query_ptr: !tt.ptr<bf16> {tt.divisibility = 16 : i32} loc("query_ptr"(#loc)), %key_cache_ptr: !tt.ptr<bf16> {tt.divisibility = 16 : i32} loc("key_cache_ptr"(#loc)), %value_cache_ptr: !tt.ptr<bf16> {tt.divisibility = 16 : i32} loc("value_cache_ptr"(#loc)), %block_tables_ptr: !tt.ptr<i32> {tt.divisibility = 16 : i32} loc("block_tables_ptr"(#loc)), %seq_lens_ptr: !tt.ptr<i32> {tt.divisibility = 16 : i32} loc("seq_lens_ptr"(#loc)), %scale_ptr: !tt.ptr<f32> {tt.divisibility = 16 : i32} loc("scale_ptr"(#loc)), %k_scale_ptr: !tt.ptr<f32> {tt.divisibility = 16 : i32} loc("k_scale_ptr"(#loc)), %v_scale_ptr: !tt.ptr<f32> {tt.divisibility = 16 : i32} loc("v_scale_ptr"(#loc)), %softcap_ptr: !tt.ptr<f32> {tt.divisibility = 16 : i32} loc("softcap_ptr"(#loc)), %block_table_stride_ptr: !tt.ptr<i64> {tt.divisibility = 16 : i32} loc("block_table_stride_ptr"(#loc)), %query_stride_0_ptr: !tt.ptr<i64> {tt.divisibility = 16 : i32} loc("query_stride_0_ptr"(#loc)), %query_stride_1_ptr: !tt.ptr<i64> {tt.divisibility = 16 : i32} loc("query_stride_1_ptr"(#loc)), %qq_bias_stride_0_ptr: !tt.ptr<i64> {tt.divisibility = 16 : i32} loc("qq_bias_stride_0_ptr"(#loc)), %stride_k_cache_0_ptr: !tt.ptr<i64> {tt.divisibility = 16 : i32} loc("stride_k_cache_0_ptr"(#loc)), %stride_k_cache_1_ptr: !tt.ptr<i64> {tt.divisibility = 16 : i32} loc("stride_k_cache_1_ptr"(#loc)), %stride_k_cache_2_ptr: !tt.ptr<i64> {tt.divisibility = 16 : i32} loc("stride_k_cache_2_ptr"(#loc)), %stride_v_cache_0_ptr: !tt.ptr<i64> {tt.divisibility = 16 : i32} loc("stride_v_cache_0_ptr"(#loc)), %stride_v_cache_1_ptr: !tt.ptr<i64> {tt.divisibility = 16 : i32} loc("stride_v_cache_1_ptr"(#loc)), %stride_v_cache_2_ptr: !tt.ptr<i64> {tt.divisibility = 16 : i32} loc("stride_v_cache_2_ptr"(#loc)), %query_start_len_ptr: !tt.ptr<i32> {tt.divisibility = 16 : i32} loc("query_start_len_ptr"(#loc)), %num_seqs_ptr: !tt.ptr<i32> {tt.divisibility = 16 : i32} loc("num_seqs_ptr"(#loc)), %segm_max_ptr: !tt.ptr<f32> {tt.divisibility = 16 : i32} loc("segm_max_ptr"(#loc)), %segm_expsum_ptr: !tt.ptr<f32> {tt.divisibility = 16 : i32} loc("segm_expsum_ptr"(#loc)), %segm_output_ptr: !tt.ptr<f32> {tt.divisibility = 16 : i32} loc("segm_output_ptr"(#loc))) attributes {noinline = false} {
    %c4_i32 = arith.constant 4 : i32 loc(#loc203)
    %c1_i32 = arith.constant 1 : i32 loc(#loc203)
    %c16_i32 = arith.constant 16 : i32 loc(#loc203)
    %cst = arith.constant dense<4> : tensor<16xi32> loc(#loc203)
    %c128_i32 = arith.constant 128 : i32 loc(#loc203)
    %cst_0 = arith.constant dense<128> : tensor<128xi32> loc(#loc203)
    %c0_i32 = arith.constant 0 : i32 loc(#loc203)
    %cst_1 = arith.constant dense<1> : tensor<128xi32> loc(#loc203)
    %cst_2 = arith.constant dense<0> : tensor<128xi32> loc(#loc203)
    %cst_3 = arith.constant dense<1> : tensor<16xi32> loc(#loc203)
    %cst_4 = arith.constant dense<0> : tensor<16xi32> loc(#loc203)
    %cst_5 = arith.constant dense<32> : tensor<16xi32> loc(#loc203)
    %cst_6 = arith.constant dense<0.000000e+00> : tensor<16x128xf32> loc(#loc203)
    %cst_7 = arith.constant dense<0xFF800000> : tensor<16xf32> loc(#loc203)
    %cst_8 = arith.constant dense<1.000000e+00> : tensor<16xf32> loc(#loc203)
    %cst_9 = arith.constant dense<16> : tensor<16xi32> loc(#loc203)
    %cst_10 = arith.constant dense<0.000000e+00> : tensor<16x16xf32> loc(#loc203)
    %cst_11 = arith.constant dense<0xFF800000> : tensor<16x16xf32> loc(#loc203)
    %cst_12 = arith.constant dense<0.000000e+00> : tensor<16xf32> loc(#loc203)
    %cst_13 = arith.constant dense<32768> : tensor<16x1xi64> loc(#loc203)
    %cst_14 = arith.constant dense<1024> : tensor<16x1xi32> loc(#loc203)
    %cst_15 = arith.constant dense<256> : tensor<16xi64> loc(#loc203)
    %cst_16 = arith.constant dense<8> : tensor<16xi32> loc(#loc203)
    %cst_17 = arith.constant dense<0.000000e+00> : tensor<16x128xbf16> loc(#loc203)
    %cst_18 = arith.constant dense<0.000000e+00> : tensor<128x16xbf16> loc(#loc203)
    %seq_idx = arith.constant 2 : i32 loc(#loc496)
    %c15_i32 = arith.constant 15 : i32 loc(#loc203)
    %c127_i32 = arith.constant 127 : i32 loc(#loc203)
    %scale = tt.load %scale_ptr : !tt.ptr<f32> loc(#loc205)
    %block_table_stride = tt.load %block_table_stride_ptr : !tt.ptr<i64> loc(#loc206)
    %query_stride_0 = tt.load %query_stride_0_ptr : !tt.ptr<i64> loc(#loc207)
    %query_stride_1 = tt.load %query_stride_1_ptr : !tt.ptr<i64> loc(#loc208)
    %stride_k_cache_0 = tt.load %stride_k_cache_0_ptr : !tt.ptr<i64> loc(#loc209)
    %stride_k_cache_1 = tt.load %stride_k_cache_1_ptr : !tt.ptr<i64> loc(#loc210)
    %stride_k_cache_2 = tt.load %stride_k_cache_2_ptr : !tt.ptr<i64> loc(#loc211)
    %stride_v_cache_0 = tt.load %stride_v_cache_0_ptr : !tt.ptr<i64> loc(#loc212)
    %stride_v_cache_1 = tt.load %stride_v_cache_1_ptr : !tt.ptr<i64> loc(#loc213)
    %stride_v_cache_2 = tt.load %stride_v_cache_2_ptr : !tt.ptr<i64> loc(#loc214)
    %num_seqs = tt.load %num_seqs_ptr : !tt.ptr<i32> loc(#loc215)
    %q_block_global_idx = tt.get_program_id x : i32 loc(#loc369)
    %kv_head_idx = tt.get_program_id y : i32 loc(#loc370)
    %segm_idx = tt.get_program_id z : i32 loc(#loc371)
    %right:2 = scf.while (%left = %c0_i32, %right_99 = %num_seqs) : (i32, i32) -> (i32, i32) {
      %seq_idx_100 = arith.cmpi slt, %left, %right_99 : i32 loc(#loc498)
      scf.condition(%seq_idx_100) %left, %right_99 : i32, i32 loc(#loc498)
    } do {
    ^bb0(%left: i32 loc(callsite(#loc220 at #loc368)), %right_99: i32 loc(callsite(#loc221 at #loc368))):
      %mid = arith.addi %left, %right_99 : i32 loc(#loc501)
      %right_100 = arith.divsi %mid, %seq_idx : i32 loc(#loc502)
      %val = tt.addptr %query_start_len_ptr, %right_100 : !tt.ptr<i32>, i32 loc(#loc503)
      %val_101 = tt.load %val : !tt.ptr<i32> loc(#loc504)
      %mid_val = arith.divsi %val_101, %c4_i32 : i32 loc(#loc505)
      %mid_val_102 = arith.addi %mid_val, %right_100 : i32 loc(#loc506)
      %seq_idx_103 = arith.cmpi sle, %mid_val_102, %q_block_global_idx : i32 loc(#loc507)
      %seq_idx_104 = arith.select %seq_idx_103, %right_99, %right_100 : i32 loc(#loc508)
      %seq_idx_105 = scf.if %seq_idx_103 -> (i32) {
        %left_106 = arith.addi %right_100, %c1_i32 : i32 loc(#loc509)
        scf.yield %left_106 : i32 loc(#loc509)
      } else {
        scf.yield %left : i32 loc(#loc496)
      } loc(#loc508)
      scf.yield %seq_idx_105, %seq_idx_104 : i32, i32 loc(#loc510)
    } loc(#loc497)
    %seq_idx_19 = arith.subi %right#0, %c1_i32 : i32 loc(#loc511)
    %q_block_start_idx = tt.addptr %query_start_len_ptr, %seq_idx_19 : !tt.ptr<i32>, i32 loc(#loc375)
    %q_block_start_idx_20 = tt.load %q_block_start_idx : !tt.ptr<i32> loc(#loc376)
    %q_block_start_idx_21 = arith.divsi %q_block_start_idx_20, %c4_i32 : i32 loc(#loc377)
    %q_block_start_idx_22 = arith.addi %q_block_start_idx_21, %seq_idx_19 : i32 loc(#loc378)
    %q_block_local_idx = arith.subi %q_block_global_idx, %q_block_start_idx_22 : i32 loc(#loc379)
    %cur_batch_in_all_stop_index = tt.addptr %q_block_start_idx, %c1_i32 : !tt.ptr<i32>, i32 loc(#loc380)
    %cur_batch_in_all_stop_index_23 = tt.load %cur_batch_in_all_stop_index : !tt.ptr<i32> loc(#loc381)
    %cur_batch_query_len = arith.subi %cur_batch_in_all_stop_index_23, %q_block_start_idx_20 : i32 loc(#loc382)
    %0 = arith.muli %q_block_local_idx, %c4_i32 : i32 loc(#loc237)
    %1 = arith.cmpi sge, %0, %cur_batch_query_len : i32 loc(#loc238)
    cf.cond_br %1, ^bb3, ^bb1 loc(#loc238)
  ^bb1:  // pred: ^bb0
    %seq_len = tt.addptr %seq_lens_ptr, %seq_idx_19 : !tt.ptr<i32>, i32 loc(#loc383)
    %seq_len_24 = tt.load %seq_len : !tt.ptr<i32> loc(#loc384)
    %tiles_per_segment = arith.addi %seq_len_24, %c127_i32 : i32 loc(#loc512)
    %tiles_per_segment_25 = arith.divsi %tiles_per_segment, %c128_i32 : i32 loc(#loc513)
    %2 = arith.muli %segm_idx, %tiles_per_segment_25 : i32 loc(#loc242)
    %3 = arith.muli %2, %c16_i32 : i32 loc(#loc243)
    %4 = arith.cmpi sge, %3, %seq_len_24 : i32 loc(#loc244)
    cf.cond_br %4, ^bb3, ^bb2 loc(#loc244)
  ^bb2:  // pred: ^bb1
    %offs_m = tt.make_range {end = 16 : i32, start = 0 : i32} : tensor<16xi32> loc(#loc386)
    %offs_d = tt.make_range {end = 128 : i32, start = 0 : i32} : tensor<128xi32> loc(#loc387)
    %query_pos = arith.divsi %offs_m, %cst : tensor<16xi32> loc(#loc388)
    %query_pos_26 = tt.splat %0 : i32 -> tensor<16xi32> loc(#loc389)
    %query_pos_27 = arith.addi %query_pos_26, %query_pos : tensor<16xi32> loc(#loc389)
    %query_offset_0 = tt.splat %q_block_start_idx_20 : i32 -> tensor<16xi32> loc(#loc390)
    %query_offset_0_28 = arith.addi %query_offset_0, %query_pos_27 : tensor<16xi32> loc(#loc390)
    %query_offset_1 = arith.muli %kv_head_idx, %c4_i32 : i32 loc(#loc391)
    %query_offset_1_29 = arith.remsi %offs_m, %cst : tensor<16xi32> loc(#loc392)
    %query_offset_1_30 = tt.splat %query_offset_1 : i32 -> tensor<16xi32> loc(#loc393)
    %query_offset_1_31 = arith.addi %query_offset_1_30, %query_offset_1_29 : tensor<16xi32> loc(#loc393)
    %query_offset = tt.expand_dims %query_offset_0_28 {axis = 1 : i32} : tensor<16xi32> -> tensor<16x1xi32> loc(#loc394)
    %query_offset_32 = arith.extsi %query_offset : tensor<16x1xi32> to tensor<16x1xi64> loc(#loc395)
    %query_offset_33 = tt.splat %query_stride_0 : i64 -> tensor<16x1xi64> loc(#loc395)
    %query_offset_34 = arith.muli %query_offset_32, %query_offset_33 : tensor<16x1xi64> loc(#loc395)
    %query_offset_35 = tt.expand_dims %query_offset_1_31 {axis = 1 : i32} : tensor<16xi32> -> tensor<16x1xi32> loc(#loc396)
    %query_offset_36 = arith.extsi %query_offset_35 : tensor<16x1xi32> to tensor<16x1xi64> loc(#loc397)
    %query_offset_37 = tt.splat %query_stride_1 : i64 -> tensor<16x1xi64> loc(#loc397)
    %query_offset_38 = arith.muli %query_offset_36, %query_offset_37 : tensor<16x1xi64> loc(#loc397)
    %query_offset_39 = arith.addi %query_offset_34, %query_offset_38 : tensor<16x1xi64> loc(#loc398)
    %query_offset_40 = tt.expand_dims %offs_d {axis = 0 : i32} : tensor<128xi32> -> tensor<1x128xi32> loc(#loc399)
    %query_offset_41 = arith.extsi %query_offset_40 : tensor<1x128xi32> to tensor<1x128xi64> loc(#loc400)
    %query_offset_42 = tt.broadcast %query_offset_39 : tensor<16x1xi64> -> tensor<16x128xi64> loc(#loc400)
    %query_offset_43 = tt.broadcast %query_offset_41 : tensor<1x128xi64> -> tensor<16x128xi64> loc(#loc400)
    %query_offset_44 = arith.addi %query_offset_42, %query_offset_43 : tensor<16x128xi64> loc(#loc400)
    %dim_mask = arith.cmpi slt, %offs_d, %cst_0 : tensor<128xi32> loc(#loc401)
    %dim_mask_45 = arith.select %dim_mask, %cst_1, %cst_2 : tensor<128xi1>, tensor<128xi32> loc(#loc402)
    %dim_mask_46 = arith.cmpi ne, %dim_mask_45, %cst_2 : tensor<128xi32> loc(#loc403)
    %query_mask_0 = tt.splat %cur_batch_query_len : i32 -> tensor<16xi32> loc(#loc404)
    %query_mask_0_47 = arith.cmpi slt, %query_pos_27, %query_mask_0 : tensor<16xi32> loc(#loc404)
    %query_mask_0_48 = arith.select %query_mask_0_47, %cst_3, %cst_4 : tensor<16xi1>, tensor<16xi32> loc(#loc405)
    %query_mask_0_49 = arith.cmpi ne, %query_mask_0_48, %cst_4 : tensor<16xi32> loc(#loc406)
    %query_mask_1 = arith.cmpi slt, %query_offset_1_31, %cst_5 : tensor<16xi32> loc(#loc407)
    %query_mask_1_50 = arith.select %query_mask_1, %cst_3, %cst_4 : tensor<16xi1>, tensor<16xi32> loc(#loc408)
    %query_mask_1_51 = arith.cmpi ne, %query_mask_1_50, %cst_4 : tensor<16xi32> loc(#loc409)
    %Q = tt.expand_dims %dim_mask_46 {axis = 0 : i32} : tensor<128xi1> -> tensor<1x128xi1> loc(#loc410)
    %Q_52 = tt.expand_dims %query_mask_0_49 {axis = 1 : i32} : tensor<16xi1> -> tensor<16x1xi1> loc(#loc411)
    %Q_53 = tt.broadcast %Q : tensor<1x128xi1> -> tensor<16x128xi1> loc(#loc412)
    %Q_54 = tt.broadcast %Q_52 : tensor<16x1xi1> -> tensor<16x128xi1> loc(#loc412)
    %Q_55 = arith.andi %Q_53, %Q_54 : tensor<16x128xi1> loc(#loc412)
    %Q_56 = tt.expand_dims %query_mask_1_51 {axis = 1 : i32} : tensor<16xi1> -> tensor<16x1xi1> loc(#loc413)
    %Q_57 = tt.broadcast %Q_56 : tensor<16x1xi1> -> tensor<16x128xi1> loc(#loc414)
    %Q_58 = arith.andi %Q_55, %Q_57 : tensor<16x128xi1> loc(#loc414)
    %Q_59 = tt.splat %query_ptr : !tt.ptr<bf16> -> tensor<16x128x!tt.ptr<bf16>> loc(#loc415)
    %Q_60 = tt.addptr %Q_59, %query_offset_44 : tensor<16x128x!tt.ptr<bf16>>, tensor<16x128xi64> loc(#loc415)
    %Q_61 = tt.load %Q_60, %Q_58, %cst_17 : tensor<16x128x!tt.ptr<bf16>> loc(#loc416)
    %block_table_offset = arith.extsi %seq_idx_19 : i32 to i64 loc(#loc417)
    %block_table_offset_62 = arith.muli %block_table_offset, %block_table_stride : i64 loc(#loc417)
    %context_len = arith.subi %seq_len_24, %cur_batch_query_len : i32 loc(#loc418)
    %max_seq_prefix_len = arith.addi %context_len, %0 : i32 loc(#loc419)
    %max_seq_prefix_len_63 = arith.addi %max_seq_prefix_len, %c4_i32 : i32 loc(#loc420)
    %max_seq_prefix_len_64 = arith.minsi %max_seq_prefix_len_63, %seq_len_24 : i32 loc(#loc421)
    %num_tiles = arith.addi %max_seq_prefix_len_64, %c15_i32 : i32 loc(#loc514)
    %num_tiles_65 = arith.divsi %num_tiles, %c16_i32 : i32 loc(#loc515)
    %5 = arith.maxsi %2, %c0_i32 : i32 loc(#loc282)
    %6 = arith.addi %segm_idx, %c1_i32 : i32 loc(#loc283)
    %7 = arith.muli %6, %tiles_per_segment_25 : i32 loc(#loc284)
    %8 = arith.minsi %7, %num_tiles_65 : i32 loc(#loc285)
    %tile_mask = tt.splat %max_seq_prefix_len_64 : i32 -> tensor<16xi32> loc(#loc423)
    %physical_block_idx = tt.addptr %block_tables_ptr, %block_table_offset_62 : !tt.ptr<i32>, i64 loc(#loc424)
    %physical_block_idx_66 = tt.splat %physical_block_idx : !tt.ptr<i32> -> tensor<16x!tt.ptr<i32>> loc(#loc425)
    %v_offset = tt.splat %stride_v_cache_0 : i64 -> tensor<16x1xi64> loc(#loc426)
    %v_offset_67 = arith.extsi %kv_head_idx : i32 to i64 loc(#loc427)
    %v_offset_68 = arith.muli %v_offset_67, %stride_v_cache_2 : i64 loc(#loc427)
    %v_offset_69 = tt.splat %v_offset_68 : i64 -> tensor<16x1xi64> loc(#loc428)
    %v_offset_70 = tt.splat %stride_v_cache_1 : i64 -> tensor<16x1xi64> loc(#loc429)
    %k_offset = tt.splat %stride_k_cache_0 : i64 -> tensor<1x16xi64> loc(#loc430)
    %k_offset_71 = arith.muli %v_offset_67, %stride_k_cache_2 : i64 loc(#loc431)
    %k_offset_72 = tt.splat %k_offset_71 : i64 -> tensor<1x16xi64> loc(#loc432)
    %k_offset_73 = tt.expand_dims %offs_d {axis = 1 : i32} : tensor<128xi32> -> tensor<128x1xi32> loc(#loc433)
    %k_offset_74 = arith.extsi %k_offset_73 : tensor<128x1xi32> to tensor<128x1xi64> loc(#loc434)
    %k_offset_75 = tt.broadcast %k_offset_74 : tensor<128x1xi64> -> tensor<128x16xi64> loc(#loc434)
    %k_offset_76 = tt.splat %stride_k_cache_1 : i64 -> tensor<1x16xi64> loc(#loc435)
    %K_load = tt.expand_dims %dim_mask_46 {axis = 1 : i32} : tensor<128xi1> -> tensor<128x1xi1> loc(#loc436)
    %K_load_77 = tt.broadcast %K_load : tensor<128x1xi1> -> tensor<128x16xi1> loc(#loc437)
    %K_load_78 = tt.splat %key_cache_ptr : !tt.ptr<bf16> -> tensor<128x16x!tt.ptr<bf16>> loc(#loc438)
    %V_load = tt.splat %value_cache_ptr : !tt.ptr<bf16> -> tensor<16x128x!tt.ptr<bf16>> loc(#loc439)
    %query_abs_pos = tt.expand_dims %query_pos_27 {axis = 1 : i32} : tensor<16xi32> -> tensor<16x1xi32> loc(#loc440)
    %query_abs_pos_79 = tt.splat %context_len : i32 -> tensor<16x1xi32> loc(#loc441)
    %query_abs_pos_80 = arith.addi %query_abs_pos_79, %query_abs_pos : tensor<16x1xi32> loc(#loc441)
    %seq_mask = tt.broadcast %query_abs_pos_80 : tensor<16x1xi32> -> tensor<16x16xi32> loc(#loc442)
    %S = tt.splat %scale : f32 -> tensor<16x16xf32> loc(#loc443)
    %S_81 = arith.andi %Q_56, %Q_52 : tensor<16x1xi1> loc(#loc444)
    %S_82 = tt.broadcast %S_81 : tensor<16x1xi1> -> tensor<16x16xi1> loc(#loc445)
    %acc:3 = scf.for %j = %5 to %8 step %c1_i32 iter_args(%M = %cst_7, %L = %cst_8, %acc_99 = %cst_6) -> (tensor<16xf32>, tensor<16xf32>, tensor<16x128xf32>)  : i32 {
      %seq_offset = arith.muli %j, %c16_i32 : i32 loc(#loc447)
      %seq_offset_100 = tt.splat %seq_offset : i32 -> tensor<16xi32> loc(#loc448)
      %seq_offset_101 = arith.addi %seq_offset_100, %offs_m : tensor<16xi32> loc(#loc448)
      %tile_mask_102 = arith.cmpi slt, %seq_offset_101, %tile_mask : tensor<16xi32> loc(#loc423)
      %physical_block_idx_103 = arith.divsi %seq_offset_101, %cst_9 : tensor<16xi32> loc(#loc449)
      %physical_block_idx_104 = tt.addptr %physical_block_idx_66, %physical_block_idx_103 : tensor<16x!tt.ptr<i32>>, tensor<16xi32> loc(#loc425)
      %physical_block_idx_105 = tt.load %physical_block_idx_104 : tensor<16x!tt.ptr<i32>> loc(#loc450)
      %physical_block_idx_106 = arith.extsi %physical_block_idx_105 : tensor<16xi32> to tensor<16xi64> loc(#loc451)
      %v_offset_107 = tt.expand_dims %physical_block_idx_106 {axis = 1 : i32} : tensor<16xi64> -> tensor<16x1xi64> loc(#loc452)
      %v_offset_108 = arith.muli %v_offset_107, %v_offset : tensor<16x1xi64> loc(#loc426)
      %v_offset_109 = arith.addi %v_offset_108, %v_offset_69 : tensor<16x1xi64> loc(#loc428)
      %v_offset_110 = tt.broadcast %v_offset_109 : tensor<16x1xi64> -> tensor<16x128xi64> loc(#loc453)
      %v_offset_111 = arith.addi %v_offset_110, %query_offset_43 : tensor<16x128xi64> loc(#loc453)
      %v_offset_112 = arith.remsi %seq_offset_101, %cst_9 : tensor<16xi32> loc(#loc454)
      %v_offset_113 = tt.expand_dims %v_offset_112 {axis = 1 : i32} : tensor<16xi32> -> tensor<16x1xi32> loc(#loc455)
      %v_offset_114 = arith.extsi %v_offset_113 : tensor<16x1xi32> to tensor<16x1xi64> loc(#loc429)
      %v_offset_115 = arith.muli %v_offset_114, %v_offset_70 : tensor<16x1xi64> loc(#loc429)
      %v_offset_116 = tt.broadcast %v_offset_115 : tensor<16x1xi64> -> tensor<16x128xi64> loc(#loc456)
      %v_offset_117 = arith.addi %v_offset_111, %v_offset_116 : tensor<16x128xi64> loc(#loc456)
      %k_offset_118 = tt.expand_dims %physical_block_idx_106 {axis = 0 : i32} : tensor<16xi64> -> tensor<1x16xi64> loc(#loc457)
      %k_offset_119 = arith.muli %k_offset_118, %k_offset : tensor<1x16xi64> loc(#loc430)
      %k_offset_120 = arith.addi %k_offset_119, %k_offset_72 : tensor<1x16xi64> loc(#loc432)
      %k_offset_121 = tt.broadcast %k_offset_120 : tensor<1x16xi64> -> tensor<128x16xi64> loc(#loc434)
      %k_offset_122 = arith.addi %k_offset_121, %k_offset_75 : tensor<128x16xi64> loc(#loc434)
      %k_offset_123 = tt.expand_dims %v_offset_112 {axis = 0 : i32} : tensor<16xi32> -> tensor<1x16xi32> loc(#loc458)
      %k_offset_124 = arith.extsi %k_offset_123 : tensor<1x16xi32> to tensor<1x16xi64> loc(#loc435)
      %k_offset_125 = arith.muli %k_offset_124, %k_offset_76 : tensor<1x16xi64> loc(#loc435)
      %k_offset_126 = tt.broadcast %k_offset_125 : tensor<1x16xi64> -> tensor<128x16xi64> loc(#loc459)
      %k_offset_127 = arith.addi %k_offset_122, %k_offset_126 : tensor<128x16xi64> loc(#loc459)
      %K_load_128 = tt.expand_dims %tile_mask_102 {axis = 0 : i32} : tensor<16xi1> -> tensor<1x16xi1> loc(#loc460)
      %K_load_129 = tt.broadcast %K_load_128 : tensor<1x16xi1> -> tensor<128x16xi1> loc(#loc437)
      %K_load_130 = arith.andi %K_load_77, %K_load_129 : tensor<128x16xi1> loc(#loc437)
      %K_load_131 = tt.addptr %K_load_78, %k_offset_127 : tensor<128x16x!tt.ptr<bf16>>, tensor<128x16xi64> loc(#loc438)
      %K_load_132 = tt.load %K_load_131, %K_load_130, %cst_18 : tensor<128x16x!tt.ptr<bf16>> loc(#loc461)
      %V_load_133 = tt.expand_dims %tile_mask_102 {axis = 1 : i32} : tensor<16xi1> -> tensor<16x1xi1> loc(#loc462)
      %V_load_134 = tt.broadcast %V_load_133 : tensor<16x1xi1> -> tensor<16x128xi1> loc(#loc463)
      %V_load_135 = arith.andi %Q_53, %V_load_134 : tensor<16x128xi1> loc(#loc463)
      %V_load_136 = tt.addptr %V_load, %v_offset_117 : tensor<16x128x!tt.ptr<bf16>>, tensor<16x128xi64> loc(#loc439)
      %V_load_137 = tt.load %V_load_136, %V_load_135, %cst_17 : tensor<16x128x!tt.ptr<bf16>> loc(#loc464)
      %seq_mask_138 = tt.expand_dims %seq_offset_101 {axis = 0 : i32} : tensor<16xi32> -> tensor<1x16xi32> loc(#loc465)
      %seq_mask_139 = tt.broadcast %seq_mask_138 : tensor<1x16xi32> -> tensor<16x16xi32> loc(#loc442)
      %seq_mask_140 = arith.cmpi sle, %seq_mask_139, %seq_mask : tensor<16x16xi32> loc(#loc442)
      %S_141 = tt.dot %Q_61, %K_load_132, %cst_10, inputPrecision = tf32 : tensor<16x128xbf16> * tensor<128x16xbf16> -> tensor<16x16xf32> loc(#loc466)
      %S_142 = arith.mulf %S, %S_141 : tensor<16x16xf32> loc(#loc443)
      %S_143 = arith.addf %S_142, %cst_10 : tensor<16x16xf32> loc(#loc467)
      %S_144 = arith.andi %S_82, %seq_mask_140 : tensor<16x16xi1> loc(#loc445)
      %S_145 = arith.select %S_144, %S_143, %cst_11 : tensor<16x16xi1>, tensor<16x16xf32> loc(#loc468)
      %m_j = "tt.reduce"(%S_145) <{axis = 1 : i32}> ({
      ^bb0(%m_j_160: f32 loc(callsite(#loc1 at #loc469)), %m_j_161: f32 loc(callsite(#loc1 at #loc469))):
        %m_j_162 = arith.maxnumf %m_j_160, %m_j_161 : f32 loc(#loc522)
        tt.reduce.return %m_j_162 : f32 loc(#loc517)
      }) : (tensor<16x16xf32>) -> tensor<16xf32> loc(#loc517)
      %m_j_146 = arith.maxnumf %M, %m_j : tensor<16xf32> loc(#loc470)
      %m_j_147 = arith.cmpf ogt, %m_j_146, %cst_7 : tensor<16xf32> loc(#loc471)
      %m_j_148 = arith.select %m_j_147, %m_j_146, %cst_12 : tensor<16xi1>, tensor<16xf32> loc(#loc472)
      %P = tt.expand_dims %m_j_148 {axis = 1 : i32} : tensor<16xf32> -> tensor<16x1xf32> loc(#loc473)
      %P_149 = tt.broadcast %P : tensor<16x1xf32> -> tensor<16x16xf32> loc(#loc474)
      %P_150 = arith.subf %S_145, %P_149 : tensor<16x16xf32> loc(#loc474)
      %P_151 = math.exp %P_150 : tensor<16x16xf32> loc(#loc475)
      %l_j = "tt.reduce"(%P_151) <{axis = 1 : i32}> ({
      ^bb0(%l_j_160: f32 loc(callsite(#loc1 at #loc476)), %l_j_161: f32 loc(callsite(#loc1 at #loc476))):
        %l_j_162 = arith.addf %l_j_160, %l_j_161 : f32 loc(#loc523)
        tt.reduce.return %l_j_162 : f32 loc(#loc519)
      }) : (tensor<16x16xf32>) -> tensor<16xf32> loc(#loc519)
      %alpha = arith.subf %M, %m_j_148 : tensor<16xf32> loc(#loc477)
      %alpha_152 = math.exp %alpha : tensor<16xf32> loc(#loc478)
      %acc_153 = tt.expand_dims %alpha_152 {axis = 1 : i32} : tensor<16xf32> -> tensor<16x1xf32> loc(#loc479)
      %acc_154 = tt.broadcast %acc_153 : tensor<16x1xf32> -> tensor<16x128xf32> loc(#loc480)
      %acc_155 = arith.mulf %acc_99, %acc_154 : tensor<16x128xf32> loc(#loc480)
      %L_156 = arith.mulf %L, %alpha_152 : tensor<16xf32> loc(#loc481)
      %L_157 = arith.addf %L_156, %l_j : tensor<16xf32> loc(#loc482)
      %acc_158 = arith.truncf %P_151 : tensor<16x16xf32> to tensor<16x16xbf16> loc(#loc483)
      %acc_159 = tt.dot %acc_158, %V_load_137, %acc_155, inputPrecision = tf32 : tensor<16x16xbf16> * tensor<16x128xbf16> -> tensor<16x128xf32> loc(#loc484)
      scf.yield %m_j_148, %L_157, %acc_159 : tensor<16xf32>, tensor<16xf32>, tensor<16x128xf32> loc(#loc348)
    } loc(#loc521)
    %segm_output_offset = arith.muli %query_offset_32, %cst_13 : tensor<16x1xi64> loc(#loc485)
    %segm_output_offset_83 = arith.muli %query_offset_35, %cst_14 : tensor<16x1xi32> loc(#loc486)
    %segm_output_offset_84 = arith.extsi %segm_output_offset_83 : tensor<16x1xi32> to tensor<16x1xi64> loc(#loc487)
    %segm_output_offset_85 = arith.addi %segm_output_offset, %segm_output_offset_84 : tensor<16x1xi64> loc(#loc487)
    %segm_output_offset_86 = arith.muli %segm_idx, %c128_i32 : i32 loc(#loc488)
    %segm_output_offset_87 = arith.extsi %segm_output_offset_86 : i32 to i64 loc(#loc489)
    %segm_output_offset_88 = tt.splat %segm_output_offset_87 : i64 -> tensor<16x1xi64> loc(#loc489)
    %segm_output_offset_89 = arith.addi %segm_output_offset_85, %segm_output_offset_88 : tensor<16x1xi64> loc(#loc489)
    %segm_output_offset_90 = tt.broadcast %segm_output_offset_89 : tensor<16x1xi64> -> tensor<16x128xi64> loc(#loc490)
    %segm_output_offset_91 = arith.addi %segm_output_offset_90, %query_offset_43 : tensor<16x128xi64> loc(#loc490)
    %9 = tt.splat %segm_output_ptr : !tt.ptr<f32> -> tensor<16x128x!tt.ptr<f32>> loc(#loc355)
    %10 = tt.addptr %9, %segm_output_offset_91 : tensor<16x128x!tt.ptr<f32>>, tensor<16x128xi64> loc(#loc355)
    tt.store %10, %acc#2, %Q_58 : tensor<16x128x!tt.ptr<f32>> loc(#loc356)
    %segm_offset = arith.extsi %query_offset_0_28 : tensor<16xi32> to tensor<16xi64> loc(#loc491)
    %segm_offset_92 = arith.muli %segm_offset, %cst_15 : tensor<16xi64> loc(#loc492)
    %segm_offset_93 = arith.muli %query_offset_1_31, %cst_16 : tensor<16xi32> loc(#loc493)
    %segm_offset_94 = arith.extsi %segm_offset_93 : tensor<16xi32> to tensor<16xi64> loc(#loc494)
    %segm_offset_95 = arith.addi %segm_offset_92, %segm_offset_94 : tensor<16xi64> loc(#loc494)
    %segm_offset_96 = arith.extsi %segm_idx : i32 to i64 loc(#loc495)
    %segm_offset_97 = tt.splat %segm_offset_96 : i64 -> tensor<16xi64> loc(#loc495)
    %segm_offset_98 = arith.addi %segm_offset_95, %segm_offset_97 : tensor<16xi64> loc(#loc495)
    %11 = arith.andi %query_mask_0_49, %query_mask_1_51 : tensor<16xi1> loc(#loc362)
    %12 = tt.splat %segm_max_ptr : !tt.ptr<f32> -> tensor<16x!tt.ptr<f32>> loc(#loc363)
    %13 = tt.addptr %12, %segm_offset_98 : tensor<16x!tt.ptr<f32>>, tensor<16xi64> loc(#loc363)
    tt.store %13, %acc#0, %11 : tensor<16x!tt.ptr<f32>> loc(#loc364)
    %14 = tt.splat %segm_expsum_ptr : !tt.ptr<f32> -> tensor<16x!tt.ptr<f32>> loc(#loc365)
    %15 = tt.addptr %14, %segm_offset_98 : tensor<16x!tt.ptr<f32>>, tensor<16xi64> loc(#loc365)
    tt.store %15, %acc#1, %11 : tensor<16x!tt.ptr<f32>> loc(#loc366)
    cf.br ^bb3 loc(#loc367)
  ^bb3:  // 3 preds: ^bb0, ^bb1, ^bb2
    tt.return loc(#loc178)
  } loc(#loc)
} loc(#loc)
#loc4 = loc("/home/tristan/zml/examples/ttir_test/3d_unified_attention/python/wrap_3d_unified_attention.py":72:20)
#loc5 = loc("/home/tristan/zml/examples/ttir_test/3d_unified_attention/python/wrap_3d_unified_attention.py":76:33)
#loc6 = loc("/home/tristan/zml/examples/ttir_test/3d_unified_attention/python/wrap_3d_unified_attention.py":77:29)
#loc7 = loc("/home/tristan/zml/examples/ttir_test/3d_unified_attention/python/wrap_3d_unified_attention.py":78:29)
#loc8 = loc("/home/tristan/zml/examples/ttir_test/3d_unified_attention/python/wrap_3d_unified_attention.py":80:31)
#loc9 = loc("/home/tristan/zml/examples/ttir_test/3d_unified_attention/python/wrap_3d_unified_attention.py":81:31)
#loc10 = loc("/home/tristan/zml/examples/ttir_test/3d_unified_attention/python/wrap_3d_unified_attention.py":82:31)
#loc11 = loc("/home/tristan/zml/examples/ttir_test/3d_unified_attention/python/wrap_3d_unified_attention.py":83:31)
#loc12 = loc("/home/tristan/zml/examples/ttir_test/3d_unified_attention/python/wrap_3d_unified_attention.py":84:31)
#loc13 = loc("/home/tristan/zml/examples/ttir_test/3d_unified_attention/python/wrap_3d_unified_attention.py":85:31)
#loc14 = loc("/home/tristan/zml/examples/ttir_test/3d_unified_attention/python/wrap_3d_unified_attention.py":86:23)
#loc15 = loc("/home/tristan/zml/examples/ttir_test/vllm_kernels/triton_unified_attention.py":458:39)
#loc16 = loc("/home/tristan/zml/examples/ttir_test/vllm_kernels/triton_unified_attention.py":459:32)
#loc17 = loc("/home/tristan/zml/examples/ttir_test/vllm_kernels/triton_unified_attention.py":460:29)
#loc18 = loc("/home/tristan/zml/examples/ttir_test/vllm_kernels/triton_unified_attention.py":46:4)
#loc19 = loc("/home/tristan/zml/examples/ttir_test/vllm_kernels/triton_unified_attention.py":46:17)
#loc22 = loc("/home/tristan/zml/examples/ttir_test/vllm_kernels/triton_unified_attention.py":47:22)
#loc23 = loc("/home/tristan/zml/examples/ttir_test/vllm_kernels/triton_unified_attention.py":47:32)
#loc24 = loc("/home/tristan/zml/examples/ttir_test/vllm_kernels/triton_unified_attention.py":48:44)
#loc25 = loc("/home/tristan/zml/examples/ttir_test/vllm_kernels/triton_unified_attention.py":48:22)
#loc26 = loc("/home/tristan/zml/examples/ttir_test/vllm_kernels/triton_unified_attention.py":49:25)
#loc27 = loc("/home/tristan/zml/examples/ttir_test/vllm_kernels/triton_unified_attention.py":49:35)
#loc28 = loc("/home/tristan/zml/examples/ttir_test/vllm_kernels/triton_unified_attention.py":51:22)
#loc29 = loc("/home/tristan/zml/examples/ttir_test/vllm_kernels/triton_unified_attention.py":51:11)
#loc30 = loc("/home/tristan/zml/examples/ttir_test/vllm_kernels/triton_unified_attention.py":52:25)
#loc31 = loc("/home/tristan/zml/examples/ttir_test/vllm_kernels/triton_unified_attention.py":51:8)
#loc32 = loc("/home/tristan/zml/examples/ttir_test/vllm_kernels/triton_unified_attention.py":56:18)
#loc33 = loc("/home/tristan/zml/examples/ttir_test/vllm_kernels/triton_unified_attention.py":466:54)
#loc34 = loc("/home/tristan/zml/examples/ttir_test/vllm_kernels/triton_unified_attention.py":466:32)
#loc35 = loc("/home/tristan/zml/examples/ttir_test/vllm_kernels/triton_unified_attention.py":466:66)
#loc36 = loc("/home/tristan/zml/examples/ttir_test/vllm_kernels/triton_unified_attention.py":466:76)
#loc37 = loc("/home/tristan/zml/examples/ttir_test/vllm_kernels/triton_unified_attention.py":468:45)
#loc38 = loc("/home/tristan/zml/examples/ttir_test/vllm_kernels/triton_unified_attention.py":471:74)
#loc39 = loc("/home/tristan/zml/examples/ttir_test/vllm_kernels/triton_unified_attention.py":471:42)
#loc40 = loc("/home/tristan/zml/examples/ttir_test/vllm_kernels/triton_unified_attention.py":473:56)
#loc41 = loc("/home/tristan/zml/examples/ttir_test/vllm_kernels/triton_unified_attention.py":475:27)
#loc42 = loc("/home/tristan/zml/examples/ttir_test/vllm_kernels/triton_unified_attention.py":475:38)
#loc43 = loc("/home/tristan/zml/examples/ttir_test/vllm_kernels/triton_unified_attention.py":479:37)
#loc44 = loc("/home/tristan/zml/examples/ttir_test/vllm_kernels/triton_unified_attention.py":479:22)
#loc45 = loc("/home/tristan/zml/examples/ttir_test/vllm_kernels/triton_unified_attention.py":25:20)
#loc46 = loc("/home/tristan/zml/examples/ttir_test/vllm_kernels/triton_unified_attention.py":483:41)
#loc47 = loc("/home/tristan/zml/examples/ttir_test/vllm_kernels/triton_unified_attention.py":25:26)
#loc48 = loc("/home/tristan/zml/examples/ttir_test/vllm_kernels/triton_unified_attention.py":485:18)
#loc49 = loc("/home/tristan/zml/examples/ttir_test/vllm_kernels/triton_unified_attention.py":485:38)
#loc50 = loc("/home/tristan/zml/examples/ttir_test/vllm_kernels/triton_unified_attention.py":485:51)
#loc51 = loc("/home/tristan/zml/examples/ttir_test/vllm_kernels/triton_unified_attention.py":488:26)
#loc52 = loc("/home/tristan/zml/examples/ttir_test/vllm_kernels/triton_unified_attention.py":489:26)
#loc53 = loc("/home/tristan/zml/examples/ttir_test/vllm_kernels/triton_unified_attention.py":491:56)
#loc54 = loc("/home/tristan/zml/examples/ttir_test/vllm_kernels/triton_unified_attention.py":491:46)
#loc55 = loc("/home/tristan/zml/examples/ttir_test/vllm_kernels/triton_unified_attention.py":493:52)
#loc56 = loc("/home/tristan/zml/examples/ttir_test/vllm_kernels/triton_unified_attention.py":494:35)
#loc57 = loc("/home/tristan/zml/examples/ttir_test/vllm_kernels/triton_unified_attention.py":494:65)
#loc58 = loc("/home/tristan/zml/examples/ttir_test/vllm_kernels/triton_unified_attention.py":494:56)
#loc59 = loc("/home/tristan/zml/examples/ttir_test/vllm_kernels/triton_unified_attention.py":496:23)
#loc60 = loc("/home/tristan/zml/examples/ttir_test/vllm_kernels/triton_unified_attention.py":496:34)
#loc61 = loc("/home/tristan/zml/examples/ttir_test/vllm_kernels/triton_unified_attention.py":497:25)
#loc62 = loc("/home/tristan/zml/examples/ttir_test/vllm_kernels/triton_unified_attention.py":497:36)
#loc63 = loc("/home/tristan/zml/examples/ttir_test/vllm_kernels/triton_unified_attention.py":497:10)
#loc64 = loc("/home/tristan/zml/examples/ttir_test/vllm_kernels/triton_unified_attention.py":498:17)
#loc65 = loc("/home/tristan/zml/examples/ttir_test/vllm_kernels/triton_unified_attention.py":498:10)
#loc66 = loc("/home/tristan/zml/examples/ttir_test/vllm_kernels/triton_unified_attention.py":501:33)
#loc67 = loc("/home/tristan/zml/examples/ttir_test/vllm_kernels/triton_unified_attention.py":501:47)
#loc68 = loc("/home/tristan/zml/examples/ttir_test/vllm_kernels/triton_unified_attention.py":501:53)
#loc69 = loc("/home/tristan/zml/examples/ttir_test/vllm_kernels/triton_unified_attention.py":502:40)
#loc70 = loc("/home/tristan/zml/examples/ttir_test/vllm_kernels/triton_unified_attention.py":502:64)
#loc71 = loc("/home/tristan/zml/examples/ttir_test/vllm_kernels/triton_unified_attention.py":502:70)
#loc72 = loc("/home/tristan/zml/examples/ttir_test/vllm_kernels/triton_unified_attention.py":503:45)
#loc73 = loc("/home/tristan/zml/examples/ttir_test/vllm_kernels/triton_unified_attention.py":503:65)
#loc74 = loc("/home/tristan/zml/examples/ttir_test/vllm_kernels/triton_unified_attention.py":503:71)
#loc75 = loc("/home/tristan/zml/examples/ttir_test/vllm_kernels/triton_unified_attention.py":508:22)
#loc76 = loc("/home/tristan/zml/examples/ttir_test/vllm_kernels/triton_unified_attention.py":508:46)
#loc77 = loc("/home/tristan/zml/examples/ttir_test/vllm_kernels/triton_unified_attention.py":508:33)
#loc78 = loc("/home/tristan/zml/examples/ttir_test/vllm_kernels/triton_unified_attention.py":508:70)
#loc79 = loc("/home/tristan/zml/examples/ttir_test/vllm_kernels/triton_unified_attention.py":508:57)
#loc80 = loc("/home/tristan/zml/examples/ttir_test/vllm_kernels/triton_unified_attention.py":507:20)
#loc81 = loc("/home/tristan/zml/examples/ttir_test/vllm_kernels/triton_unified_attention.py":507:8)
#loc82 = loc("/home/tristan/zml/examples/ttir_test/vllm_kernels/triton_unified_attention.py":512:35)
#loc83 = loc("/home/tristan/zml/examples/ttir_test/vllm_kernels/triton_unified_attention.py":530:28)
#loc84 = loc("/home/tristan/zml/examples/ttir_test/vllm_kernels/triton_unified_attention.py":548:10)
#loc85 = loc("/home/tristan/zml/examples/ttir_test/vllm_kernels/triton_unified_attention.py":550:10)
#loc86 = loc("/home/tristan/zml/examples/ttir_test/vllm_kernels/triton_unified_attention.py":555:56)
#loc87 = loc("/home/tristan/zml/examples/ttir_test/vllm_kernels/triton_unified_attention.py":560:44)
#loc88 = loc("/home/tristan/zml/examples/ttir_test/vllm_kernels/triton_unified_attention.py":587:42)
#loc89 = loc("/home/tristan/zml/examples/ttir_test/vllm_kernels/triton_unified_attention.py":588:24)
#loc90 = loc("/home/tristan/zml/examples/ttir_test/vllm_kernels/triton_unified_attention.py":588:29)
#loc91 = loc("/home/tristan/zml/examples/ttir_test/vllm_kernels/triton_unified_attention.py":588:48)
#loc92 = loc("/home/tristan/zml/examples/ttir_test/vllm_kernels/triton_unified_attention.py":591:33)
#loc93 = loc("/home/tristan/zml/examples/ttir_test/vllm_kernels/triton_unified_attention.py":594:31)
#loc94 = loc("/home/tristan/zml/examples/ttir_test/vllm_kernels/triton_unified_attention.py":594:52)
#loc95 = loc("/home/tristan/zml/examples/ttir_test/vllm_kernels/triton_unified_attention.py":598:42)
#loc96 = loc("/home/tristan/zml/examples/ttir_test/vllm_kernels/triton_unified_attention.py":599:28)
#loc97 = loc("/home/tristan/zml/examples/ttir_test/vllm_kernels/triton_unified_attention.py":599:14)
#loc98 = loc("/home/tristan/zml/examples/ttir_test/vllm_kernels/triton_unified_attention.py":601:51)
#loc99 = loc("/home/tristan/zml/examples/ttir_test/vllm_kernels/triton_unified_attention.py":605:42)
#loc100 = loc("/home/tristan/zml/examples/ttir_test/vllm_kernels/triton_unified_attention.py":606:28)
#loc101 = loc("/home/tristan/zml/examples/ttir_test/vllm_kernels/triton_unified_attention.py":606:14)
#loc102 = loc("/home/tristan/zml/examples/ttir_test/vllm_kernels/triton_unified_attention.py":607:21)
#loc103 = loc("/home/tristan/zml/examples/ttir_test/vllm_kernels/triton_unified_attention.py":607:14)
#loc104 = loc("/home/tristan/zml/examples/ttir_test/vllm_kernels/triton_unified_attention.py":608:51)
#loc105 = loc("/home/tristan/zml/examples/ttir_test/vllm_kernels/triton_unified_attention.py":614:26)
#loc106 = loc("/home/tristan/zml/examples/ttir_test/vllm_kernels/triton_unified_attention.py":614:37)
#loc107 = loc("/home/tristan/zml/examples/ttir_test/vllm_kernels/triton_unified_attention.py":613:28)
#loc108 = loc("/home/tristan/zml/examples/ttir_test/vllm_kernels/triton_unified_attention.py":628:30)
#loc109 = loc("/home/tristan/zml/examples/ttir_test/vllm_kernels/triton_unified_attention.py":642:48)
#loc110 = loc("/home/tristan/zml/examples/ttir_test/vllm_kernels/triton_unified_attention.py":642:38)
#loc111 = loc("/home/tristan/zml/examples/ttir_test/vllm_kernels/triton_unified_attention.py":643:42)
#loc112 = loc("/home/tristan/zml/examples/ttir_test/vllm_kernels/triton_unified_attention.py":676:21)
#loc113 = loc("/home/tristan/zml/examples/ttir_test/vllm_kernels/triton_unified_attention.py":682:36)
#loc114 = loc("/home/tristan/zml/examples/ttir_test/vllm_kernels/triton_unified_attention.py":682:60)
#loc115 = loc("/home/tristan/zml/examples/ttir_test/vllm_kernels/triton_unified_attention.py":588:8)
#loc116 = loc("/home/tristan/zml/examples/ttir_test/vllm_kernels/triton_unified_attention.py":590:25)
#loc117 = loc("/home/tristan/zml/examples/ttir_test/vllm_kernels/triton_unified_attention.py":590:37)
#loc118 = loc("/home/tristan/zml/examples/ttir_test/vllm_kernels/triton_unified_attention.py":594:66)
#loc119 = loc("/home/tristan/zml/examples/ttir_test/vllm_kernels/triton_unified_attention.py":594:12)
#loc120 = loc("/home/tristan/zml/examples/ttir_test/vllm_kernels/triton_unified_attention.py":595:13)
#loc121 = loc("/home/tristan/zml/examples/ttir_test/vllm_kernels/triton_unified_attention.py":598:31)
#loc122 = loc("/home/tristan/zml/examples/ttir_test/vllm_kernels/triton_unified_attention.py":600:14)
#loc123 = loc("/home/tristan/zml/examples/ttir_test/vllm_kernels/triton_unified_attention.py":601:28)
#loc124 = loc("/home/tristan/zml/examples/ttir_test/vllm_kernels/triton_unified_attention.py":601:40)
#loc125 = loc("/home/tristan/zml/examples/ttir_test/vllm_kernels/triton_unified_attention.py":601:14)
#loc126 = loc("/home/tristan/zml/examples/ttir_test/vllm_kernels/triton_unified_attention.py":605:31)
#loc127 = loc("/home/tristan/zml/examples/ttir_test/vllm_kernels/triton_unified_attention.py":608:40)
#loc128 = loc("/home/tristan/zml/examples/ttir_test/vllm_kernels/triton_unified_attention.py":608:14)
#loc129 = loc("/home/tristan/zml/examples/ttir_test/vllm_kernels/triton_unified_attention.py":614:47)
#loc130 = loc("/home/tristan/zml/examples/ttir_test/vllm_kernels/triton_unified_attention.py":613:12)
#loc131 = loc("/home/tristan/zml/examples/ttir_test/vllm_kernels/triton_unified_attention.py":629:47)
#loc132 = loc("/home/tristan/zml/examples/ttir_test/vllm_kernels/triton_unified_attention.py":629:37)
#loc133 = loc("/home/tristan/zml/examples/ttir_test/vllm_kernels/triton_unified_attention.py":628:12)
#loc134 = loc("/home/tristan/zml/examples/ttir_test/vllm_kernels/triton_unified_attention.py":643:30)
#loc135 = loc("/home/tristan/zml/examples/ttir_test/vllm_kernels/triton_unified_attention.py":676:31)
#loc136 = loc("/home/tristan/zml/examples/ttir_test/vllm_kernels/triton_unified_attention.py":676:13)
#loc137 = loc("/home/tristan/zml/examples/ttir_test/vllm_kernels/triton_unified_attention.py":682:73)
#loc138 = loc("/home/tristan/zml/examples/ttir_test/.venv/lib/python3.11/site-packages/triton/language/standard.py":189:40)
#loc140 = loc("/home/tristan/zml/examples/ttir_test/.venv/lib/python3.11/site-packages/triton/language/standard.py":168:27)
#loc141 = loc("/home/tristan/zml/examples/ttir_test/vllm_kernels/triton_unified_attention.py":711:28)
#loc142 = loc("/home/tristan/zml/examples/ttir_test/vllm_kernels/triton_unified_attention.py":715:29)
#loc143 = loc("/home/tristan/zml/examples/ttir_test/vllm_kernels/triton_unified_attention.py":715:49)
#loc144 = loc("/home/tristan/zml/examples/ttir_test/vllm_kernels/triton_unified_attention.py":718:27)
#loc145 = loc("/home/tristan/zml/examples/ttir_test/vllm_kernels/triton_unified_attention.py":718:23)
#loc146 = loc("/home/tristan/zml/examples/ttir_test/vllm_kernels/triton_unified_attention.py":718:19)
#loc147 = loc("/home/tristan/zml/examples/ttir_test/.venv/lib/python3.11/site-packages/triton/language/standard.py":291:36)
#loc149 = loc("/home/tristan/zml/examples/ttir_test/.venv/lib/python3.11/site-packages/triton/language/standard.py":261:15)
#loc150 = loc("/home/tristan/zml/examples/ttir_test/vllm_kernels/triton_unified_attention.py":724:27)
#loc151 = loc("/home/tristan/zml/examples/ttir_test/vllm_kernels/triton_unified_attention.py":724:23)
#loc152 = loc("/home/tristan/zml/examples/ttir_test/vllm_kernels/triton_unified_attention.py":727:26)
#loc153 = loc("/home/tristan/zml/examples/ttir_test/vllm_kernels/triton_unified_attention.py":727:20)
#loc154 = loc("/home/tristan/zml/examples/ttir_test/vllm_kernels/triton_unified_attention.py":730:16)
#loc155 = loc("/home/tristan/zml/examples/ttir_test/vllm_kernels/triton_unified_attention.py":730:24)
#loc156 = loc("/home/tristan/zml/examples/ttir_test/vllm_kernels/triton_unified_attention.py":740:27)
#loc157 = loc("/home/tristan/zml/examples/ttir_test/vllm_kernels/triton_unified_attention.py":740:37)
#loc158 = loc("/home/tristan/zml/examples/ttir_test/vllm_kernels/triton_unified_attention.py":740:8)
#loc159 = loc("/home/tristan/zml/examples/ttir_test/vllm_kernels/triton_unified_attention.py":744:11)
#loc160 = loc("/home/tristan/zml/examples/ttir_test/vllm_kernels/triton_unified_attention.py":745:37)
#loc161 = loc("/home/tristan/zml/examples/ttir_test/vllm_kernels/triton_unified_attention.py":745:10)
#loc162 = loc("/home/tristan/zml/examples/ttir_test/vllm_kernels/triton_unified_attention.py":746:21)
#loc163 = loc("/home/tristan/zml/examples/ttir_test/vllm_kernels/triton_unified_attention.py":746:10)
#loc164 = loc("/home/tristan/zml/examples/ttir_test/vllm_kernels/triton_unified_attention.py":747:10)
#loc165 = loc("/home/tristan/zml/examples/ttir_test/vllm_kernels/triton_unified_attention.py":750:26)
#loc166 = loc("/home/tristan/zml/examples/ttir_test/vllm_kernels/triton_unified_attention.py":751:8)
#loc167 = loc("/home/tristan/zml/examples/ttir_test/vllm_kernels/triton_unified_attention.py":755:26)
#loc168 = loc("/home/tristan/zml/examples/ttir_test/vllm_kernels/triton_unified_attention.py":755:39)
#loc169 = loc("/home/tristan/zml/examples/ttir_test/vllm_kernels/triton_unified_attention.py":756:27)
#loc170 = loc("/home/tristan/zml/examples/ttir_test/vllm_kernels/triton_unified_attention.py":756:10)
#loc171 = loc("/home/tristan/zml/examples/ttir_test/vllm_kernels/triton_unified_attention.py":757:10)
#loc172 = loc("/home/tristan/zml/examples/ttir_test/vllm_kernels/triton_unified_attention.py":759:64)
#loc173 = loc("/home/tristan/zml/examples/ttir_test/vllm_kernels/triton_unified_attention.py":759:28)
#loc174 = loc("/home/tristan/zml/examples/ttir_test/vllm_kernels/triton_unified_attention.py":759:41)
#loc175 = loc("/home/tristan/zml/examples/ttir_test/vllm_kernels/triton_unified_attention.py":760:31)
#loc176 = loc("/home/tristan/zml/examples/ttir_test/vllm_kernels/triton_unified_attention.py":760:44)
#loc177 = loc("/home/tristan/zml/examples/ttir_test/vllm_kernels/triton_unified_attention.py":760:4)
#loc178 = loc("/home/tristan/zml/examples/ttir_test/3d_unified_attention/python/wrap_3d_unified_attention.py":88:4)
#loc203 = loc(callsite(#loc1 at #loc2))
#loc205 = loc("scale"(#loc4))
#loc206 = loc("block_table_stride"(#loc5))
#loc207 = loc("query_stride_0"(#loc6))
#loc208 = loc("query_stride_1"(#loc7))
#loc209 = loc("stride_k_cache_0"(#loc8))
#loc210 = loc("stride_k_cache_1"(#loc9))
#loc211 = loc("stride_k_cache_2"(#loc10))
#loc212 = loc("stride_v_cache_0"(#loc11))
#loc213 = loc("stride_v_cache_1"(#loc12))
#loc214 = loc("stride_v_cache_2"(#loc13))
#loc215 = loc("num_seqs"(#loc14))
#loc216 = loc("q_block_global_idx"(#loc15))
#loc217 = loc("kv_head_idx"(#loc16))
#loc218 = loc("segm_idx"(#loc17))
#loc219 = loc("left"(#loc18))
#loc222 = loc("mid"(#loc22))
#loc223 = loc("mid"(#loc23))
#loc224 = loc("val"(#loc24))
#loc225 = loc("val"(#loc25))
#loc226 = loc("mid_val"(#loc26))
#loc227 = loc("mid_val"(#loc27))
#loc228 = loc("left"(#loc30))
#loc229 = loc("q_block_start_idx"(#loc33))
#loc230 = loc("q_block_start_idx"(#loc34))
#loc231 = loc("q_block_start_idx"(#loc35))
#loc232 = loc("q_block_start_idx"(#loc36))
#loc233 = loc("q_block_local_idx"(#loc37))
#loc234 = loc("cur_batch_in_all_stop_index"(#loc38))
#loc235 = loc("cur_batch_in_all_stop_index"(#loc39))
#loc236 = loc("cur_batch_query_len"(#loc40))
#loc237 = loc(callsite(#loc41 at #loc2))
#loc238 = loc(callsite(#loc42 at #loc2))
#loc239 = loc("seq_len"(#loc43))
#loc240 = loc("seq_len"(#loc44))
#loc241 = loc("tiles_per_segment"(#loc46))
#loc242 = loc(callsite(#loc48 at #loc2))
#loc243 = loc(callsite(#loc49 at #loc2))
#loc244 = loc(callsite(#loc50 at #loc2))
#loc245 = loc("offs_m"(#loc51))
#loc246 = loc("offs_d"(#loc52))
#loc247 = loc("query_pos"(#loc53))
#loc248 = loc("query_pos"(#loc54))
#loc249 = loc("query_offset_0"(#loc55))
#loc250 = loc("query_offset_1"(#loc56))
#loc251 = loc("query_offset_1"(#loc57))
#loc252 = loc("query_offset_1"(#loc58))
#loc253 = loc("query_offset"(#loc59))
#loc254 = loc("query_offset"(#loc60))
#loc255 = loc("query_offset"(#loc61))
#loc256 = loc("query_offset"(#loc62))
#loc257 = loc("query_offset"(#loc63))
#loc258 = loc("query_offset"(#loc64))
#loc259 = loc("query_offset"(#loc65))
#loc260 = loc("dim_mask"(#loc66))
#loc261 = loc("dim_mask"(#loc67))
#loc262 = loc("dim_mask"(#loc68))
#loc263 = loc("query_mask_0"(#loc69))
#loc264 = loc("query_mask_0"(#loc70))
#loc265 = loc("query_mask_0"(#loc71))
#loc266 = loc("query_mask_1"(#loc72))
#loc267 = loc("query_mask_1"(#loc73))
#loc268 = loc("query_mask_1"(#loc74))
#loc269 = loc("Q"(#loc75))
#loc270 = loc("Q"(#loc76))
#loc271 = loc("Q"(#loc77))
#loc272 = loc("Q"(#loc78))
#loc273 = loc("Q"(#loc79))
#loc274 = loc("Q"(#loc80))
#loc275 = loc("Q"(#loc81))
#loc276 = loc("block_table_offset"(#loc82))
#loc277 = loc("context_len"(#loc83))
#loc278 = loc("max_seq_prefix_len"(#loc84))
#loc279 = loc("max_seq_prefix_len"(#loc85))
#loc280 = loc("max_seq_prefix_len"(#loc86))
#loc281 = loc("num_tiles"(#loc87))
#loc282 = loc(callsite(#loc88 at #loc2))
#loc283 = loc(callsite(#loc89 at #loc2))
#loc284 = loc(callsite(#loc90 at #loc2))
#loc285 = loc(callsite(#loc91 at #loc2))
#loc286 = loc("tile_mask"(#loc92))
#loc287 = loc("physical_block_idx"(#loc93))
#loc288 = loc("physical_block_idx"(#loc94))
#loc289 = loc("v_offset"(#loc95))
#loc290 = loc("v_offset"(#loc96))
#loc291 = loc("v_offset"(#loc97))
#loc292 = loc("v_offset"(#loc98))
#loc293 = loc("k_offset"(#loc99))
#loc294 = loc("k_offset"(#loc100))
#loc295 = loc("k_offset"(#loc101))
#loc296 = loc("k_offset"(#loc102))
#loc297 = loc("k_offset"(#loc103))
#loc298 = loc("k_offset"(#loc104))
#loc299 = loc("K_load"(#loc105))
#loc300 = loc("K_load"(#loc106))
#loc301 = loc("K_load"(#loc107))
#loc302 = loc("V_load"(#loc108))
#loc303 = loc("query_abs_pos"(#loc109))
#loc304 = loc("query_abs_pos"(#loc110))
#loc305 = loc("seq_mask"(#loc111))
#loc306 = loc("S"(#loc112))
#loc307 = loc("S"(#loc113))
#loc308 = loc("S"(#loc114))
#loc309 = loc("M"(#loc115))
#loc310 = loc("seq_offset"(#loc116))
#loc311 = loc("seq_offset"(#loc117))
#loc312 = loc("physical_block_idx"(#loc118))
#loc313 = loc("physical_block_idx"(#loc119))
#loc314 = loc("physical_block_idx"(#loc120))
#loc315 = loc("v_offset"(#loc121))
#loc316 = loc("v_offset"(#loc122))
#loc317 = loc("v_offset"(#loc123))
#loc318 = loc("v_offset"(#loc124))
#loc319 = loc("v_offset"(#loc125))
#loc320 = loc("k_offset"(#loc126))
#loc321 = loc("k_offset"(#loc127))
#loc322 = loc("k_offset"(#loc128))
#loc323 = loc("K_load"(#loc129))
#loc324 = loc("K_load"(#loc130))
#loc325 = loc("V_load"(#loc131))
#loc326 = loc("V_load"(#loc132))
#loc327 = loc("V_load"(#loc133))
#loc328 = loc("seq_mask"(#loc134))
#loc329 = loc("S"(#loc135))
#loc330 = loc("S"(#loc136))
#loc331 = loc("S"(#loc137))
#loc333 = loc("m_j"(#loc141))
#loc334 = loc("m_j"(#loc142))
#loc335 = loc("m_j"(#loc143))
#loc336 = loc("P"(#loc144))
#loc337 = loc("P"(#loc145))
#loc338 = loc("P"(#loc146))
#loc340 = loc("alpha"(#loc150))
#loc341 = loc("alpha"(#loc151))
#loc342 = loc("acc"(#loc152))
#loc343 = loc("acc"(#loc153))
#loc344 = loc("L"(#loc154))
#loc345 = loc("L"(#loc155))
#loc346 = loc("acc"(#loc156))
#loc347 = loc("acc"(#loc157))
#loc348 = loc(callsite(#loc158 at #loc2))
#loc349 = loc("segm_output_offset"(#loc159))
#loc350 = loc("segm_output_offset"(#loc160))
#loc351 = loc("segm_output_offset"(#loc161))
#loc352 = loc("segm_output_offset"(#loc162))
#loc353 = loc("segm_output_offset"(#loc163))
#loc354 = loc("segm_output_offset"(#loc164))
#loc355 = loc(callsite(#loc165 at #loc2))
#loc356 = loc(callsite(#loc166 at #loc2))
#loc357 = loc("segm_offset"(#loc167))
#loc358 = loc("segm_offset"(#loc168))
#loc359 = loc("segm_offset"(#loc169))
#loc360 = loc("segm_offset"(#loc170))
#loc361 = loc("segm_offset"(#loc171))
#loc362 = loc(callsite(#loc172 at #loc2))
#loc363 = loc(callsite(#loc173 at #loc2))
#loc364 = loc(callsite(#loc174 at #loc2))
#loc365 = loc(callsite(#loc175 at #loc2))
#loc366 = loc(callsite(#loc176 at #loc2))
#loc367 = loc(callsite(#loc177 at #loc2))
#loc369 = loc(callsite(#loc216 at #loc2))
#loc370 = loc(callsite(#loc217 at #loc2))
#loc371 = loc(callsite(#loc218 at #loc2))
#loc372 = loc("right"(#loc219))
#loc373 = loc("right"(#loc223))
#loc374 = loc("left"(#loc228))
#loc375 = loc(callsite(#loc229 at #loc2))
#loc376 = loc(callsite(#loc230 at #loc2))
#loc377 = loc(callsite(#loc231 at #loc2))
#loc378 = loc(callsite(#loc232 at #loc2))
#loc379 = loc(callsite(#loc233 at #loc2))
#loc380 = loc(callsite(#loc234 at #loc2))
#loc381 = loc(callsite(#loc235 at #loc2))
#loc382 = loc(callsite(#loc236 at #loc2))
#loc383 = loc(callsite(#loc239 at #loc2))
#loc384 = loc(callsite(#loc240 at #loc2))
#loc385 = loc(callsite(#loc241 at #loc2))
#loc386 = loc(callsite(#loc245 at #loc2))
#loc387 = loc(callsite(#loc246 at #loc2))
#loc388 = loc(callsite(#loc247 at #loc2))
#loc389 = loc(callsite(#loc248 at #loc2))
#loc390 = loc(callsite(#loc249 at #loc2))
#loc391 = loc(callsite(#loc250 at #loc2))
#loc392 = loc(callsite(#loc251 at #loc2))
#loc393 = loc(callsite(#loc252 at #loc2))
#loc394 = loc(callsite(#loc253 at #loc2))
#loc395 = loc(callsite(#loc254 at #loc2))
#loc396 = loc(callsite(#loc255 at #loc2))
#loc397 = loc(callsite(#loc256 at #loc2))
#loc398 = loc(callsite(#loc257 at #loc2))
#loc399 = loc(callsite(#loc258 at #loc2))
#loc400 = loc(callsite(#loc259 at #loc2))
#loc401 = loc(callsite(#loc260 at #loc2))
#loc402 = loc(callsite(#loc261 at #loc2))
#loc403 = loc(callsite(#loc262 at #loc2))
#loc404 = loc(callsite(#loc263 at #loc2))
#loc405 = loc(callsite(#loc264 at #loc2))
#loc406 = loc(callsite(#loc265 at #loc2))
#loc407 = loc(callsite(#loc266 at #loc2))
#loc408 = loc(callsite(#loc267 at #loc2))
#loc409 = loc(callsite(#loc268 at #loc2))
#loc410 = loc(callsite(#loc269 at #loc2))
#loc411 = loc(callsite(#loc270 at #loc2))
#loc412 = loc(callsite(#loc271 at #loc2))
#loc413 = loc(callsite(#loc272 at #loc2))
#loc414 = loc(callsite(#loc273 at #loc2))
#loc415 = loc(callsite(#loc274 at #loc2))
#loc416 = loc(callsite(#loc275 at #loc2))
#loc417 = loc(callsite(#loc276 at #loc2))
#loc418 = loc(callsite(#loc277 at #loc2))
#loc419 = loc(callsite(#loc278 at #loc2))
#loc420 = loc(callsite(#loc279 at #loc2))
#loc421 = loc(callsite(#loc280 at #loc2))
#loc422 = loc(callsite(#loc281 at #loc2))
#loc423 = loc(callsite(#loc286 at #loc2))
#loc424 = loc(callsite(#loc287 at #loc2))
#loc425 = loc(callsite(#loc288 at #loc2))
#loc426 = loc(callsite(#loc289 at #loc2))
#loc427 = loc(callsite(#loc290 at #loc2))
#loc428 = loc(callsite(#loc291 at #loc2))
#loc429 = loc(callsite(#loc292 at #loc2))
#loc430 = loc(callsite(#loc293 at #loc2))
#loc431 = loc(callsite(#loc294 at #loc2))
#loc432 = loc(callsite(#loc295 at #loc2))
#loc433 = loc(callsite(#loc296 at #loc2))
#loc434 = loc(callsite(#loc297 at #loc2))
#loc435 = loc(callsite(#loc298 at #loc2))
#loc436 = loc(callsite(#loc299 at #loc2))
#loc437 = loc(callsite(#loc300 at #loc2))
#loc438 = loc(callsite(#loc301 at #loc2))
#loc439 = loc(callsite(#loc302 at #loc2))
#loc440 = loc(callsite(#loc303 at #loc2))
#loc441 = loc(callsite(#loc304 at #loc2))
#loc442 = loc(callsite(#loc305 at #loc2))
#loc443 = loc(callsite(#loc306 at #loc2))
#loc444 = loc(callsite(#loc307 at #loc2))
#loc445 = loc(callsite(#loc308 at #loc2))
#loc446 = loc("L"(#loc309))
#loc447 = loc(callsite(#loc310 at #loc2))
#loc448 = loc(callsite(#loc311 at #loc2))
#loc449 = loc(callsite(#loc312 at #loc2))
#loc450 = loc(callsite(#loc313 at #loc2))
#loc451 = loc(callsite(#loc314 at #loc2))
#loc452 = loc(callsite(#loc315 at #loc2))
#loc453 = loc(callsite(#loc316 at #loc2))
#loc454 = loc(callsite(#loc317 at #loc2))
#loc455 = loc(callsite(#loc318 at #loc2))
#loc456 = loc(callsite(#loc319 at #loc2))
#loc457 = loc(callsite(#loc320 at #loc2))
#loc458 = loc(callsite(#loc321 at #loc2))
#loc459 = loc(callsite(#loc322 at #loc2))
#loc460 = loc(callsite(#loc323 at #loc2))
#loc461 = loc(callsite(#loc324 at #loc2))
#loc462 = loc(callsite(#loc325 at #loc2))
#loc463 = loc(callsite(#loc326 at #loc2))
#loc464 = loc(callsite(#loc327 at #loc2))
#loc465 = loc(callsite(#loc328 at #loc2))
#loc466 = loc(callsite(#loc329 at #loc2))
#loc467 = loc(callsite(#loc330 at #loc2))
#loc468 = loc(callsite(#loc331 at #loc2))
#loc470 = loc(callsite(#loc333 at #loc2))
#loc471 = loc(callsite(#loc334 at #loc2))
#loc472 = loc(callsite(#loc335 at #loc2))
#loc473 = loc(callsite(#loc336 at #loc2))
#loc474 = loc(callsite(#loc337 at #loc2))
#loc475 = loc(callsite(#loc338 at #loc2))
#loc477 = loc(callsite(#loc340 at #loc2))
#loc478 = loc(callsite(#loc341 at #loc2))
#loc479 = loc(callsite(#loc342 at #loc2))
#loc480 = loc(callsite(#loc343 at #loc2))
#loc481 = loc(callsite(#loc344 at #loc2))
#loc482 = loc(callsite(#loc345 at #loc2))
#loc483 = loc(callsite(#loc346 at #loc2))
#loc484 = loc(callsite(#loc347 at #loc2))
#loc485 = loc(callsite(#loc349 at #loc2))
#loc486 = loc(callsite(#loc350 at #loc2))
#loc487 = loc(callsite(#loc351 at #loc2))
#loc488 = loc(callsite(#loc352 at #loc2))
#loc489 = loc(callsite(#loc353 at #loc2))
#loc490 = loc(callsite(#loc354 at #loc2))
#loc491 = loc(callsite(#loc357 at #loc2))
#loc492 = loc(callsite(#loc358 at #loc2))
#loc493 = loc(callsite(#loc359 at #loc2))
#loc494 = loc(callsite(#loc360 at #loc2))
#loc495 = loc(callsite(#loc361 at #loc2))
#loc496 = loc(callsite(#loc1 at #loc368))
#loc497 = loc(callsite(#loc372 at #loc368))
#loc498 = loc(callsite(#loc19 at #loc368))
#loc501 = loc(callsite(#loc222 at #loc368))
#loc502 = loc(callsite(#loc373 at #loc368))
#loc503 = loc(callsite(#loc224 at #loc368))
#loc504 = loc(callsite(#loc225 at #loc368))
#loc505 = loc(callsite(#loc226 at #loc368))
#loc506 = loc(callsite(#loc227 at #loc368))
#loc507 = loc(callsite(#loc28 at #loc368))
#loc508 = loc(callsite(#loc29 at #loc368))
#loc509 = loc(callsite(#loc374 at #loc368))
#loc510 = loc(callsite(#loc31 at #loc368))
#loc511 = loc(callsite(#loc32 at #loc368))
#loc512 = loc(callsite(#loc45 at #loc385))
#loc513 = loc(callsite(#loc47 at #loc385))
#loc514 = loc(callsite(#loc45 at #loc422))
#loc515 = loc(callsite(#loc47 at #loc422))
#loc516 = loc("acc"(#loc446))
#loc517 = loc(callsite(#loc138 at #loc469))
#loc519 = loc(callsite(#loc147 at #loc476))
#loc521 = loc(callsite(#loc516 at #loc2))
#loc522 = loc(callsite(#loc140 at #loc517))
#loc523 = loc(callsite(#loc149 at #loc519))