#loc = loc("/home/tristan/zml/examples/ttir_test/3d_unified_attention/python/wrap_3d_unified_attention.py":145:0)
#loc1 = loc(unknown)
#loc2 = loc("/home/tristan/zml/examples/ttir_test/3d_unified_attention/python/wrap_3d_unified_attention.py":193:8)
#loc13 = loc("/home/tristan/zml/examples/ttir_test/vllm_kernels/triton_unified_attention.py":796:65)
#loc24 = loc("left")
#loc25 = loc("right")
#loc52 = loc("/home/tristan/zml/examples/ttir_test/vllm_kernels/triton_unified_attention.py":820:25)
#loc59 = loc("/home/tristan/zml/examples/ttir_test/vllm_kernels/triton_unified_attention.py":825:28)
#loc73 = loc("/home/tristan/zml/examples/ttir_test/vllm_kernels/triton_unified_attention.py":841:21)
#loc83 = loc("segm_output_ptr"(#loc))
#loc84 = loc("segm_max_ptr"(#loc))
#loc85 = loc("segm_expsum_ptr"(#loc))
#loc86 = loc("seq_lens_ptr"(#loc))
#loc87 = loc("num_seqs_ptr"(#loc))
#loc88 = loc("out_scale_inv_ptr"(#loc))
#loc89 = loc("output_stride_0_ptr"(#loc))
#loc90 = loc("output_stride_1_ptr"(#loc))
#loc91 = loc("block_table_stride_ptr"(#loc))
#loc92 = loc("query_start_len_ptr"(#loc))
#loc93 = loc("output_ptr"(#loc))
#loc105 = loc("seq_idx"(#loc13))
#loc114 = loc("left"(#loc24))
#loc115 = loc("right"(#loc25))
#loc135 = loc("overall_max"(#loc52))
#loc140 = loc("overall_expsum"(#loc59))
#loc153 = loc("acc_sum"(#loc73))
#loc172 = loc(callsite(#loc105 at #loc2))
#loc195 = loc(callsite(#loc135 at #loc2))
#loc200 = loc(callsite(#loc140 at #loc2))
#loc213 = loc(callsite(#loc153 at #loc2))
#loc225 = loc(callsite(#loc114 at #loc172))
#loc226 = loc(callsite(#loc115 at #loc172))
#loc241 = loc(callsite(#loc1 at #loc195))
#loc243 = loc(callsite(#loc1 at #loc200))
#loc245 = loc(callsite(#loc1 at #loc213))
module {
  tt.func public @wrapped_reduce_segments(%segm_output_ptr: !tt.ptr<f32> {tt.divisibility = 16 : i32} loc("segm_output_ptr"(#loc)), %segm_max_ptr: !tt.ptr<f32> {tt.divisibility = 16 : i32} loc("segm_max_ptr"(#loc)), %segm_expsum_ptr: !tt.ptr<f32> {tt.divisibility = 16 : i32} loc("segm_expsum_ptr"(#loc)), %seq_lens_ptr: !tt.ptr<i32> {tt.divisibility = 16 : i32} loc("seq_lens_ptr"(#loc)), %num_seqs_ptr: !tt.ptr<i32> {tt.divisibility = 16 : i32} loc("num_seqs_ptr"(#loc)), %out_scale_inv_ptr: !tt.ptr<f32> {tt.divisibility = 16 : i32} loc("out_scale_inv_ptr"(#loc)), %output_stride_0_ptr: !tt.ptr<i64> {tt.divisibility = 16 : i32} loc("output_stride_0_ptr"(#loc)), %output_stride_1_ptr: !tt.ptr<i64> {tt.divisibility = 16 : i32} loc("output_stride_1_ptr"(#loc)), %block_table_stride_ptr: !tt.ptr<i64> {tt.divisibility = 16 : i32} loc("block_table_stride_ptr"(#loc)), %query_start_len_ptr: !tt.ptr<i32> {tt.divisibility = 16 : i32} loc("query_start_len_ptr"(#loc)), %output_ptr: !tt.ptr<bf16> {tt.divisibility = 16 : i32} loc("output_ptr"(#loc))) attributes {noinline = false} {
    %c8_i32 = arith.constant 8 : i32 loc(#loc94)
    %c16_i32 = arith.constant 16 : i32 loc(#loc94)
    %dim_mask = arith.constant dense<128> : tensor<128xi32> loc(#loc162)
    %dim_mask_0 = arith.constant dense<1> : tensor<128xi32> loc(#loc163)
    %cst = arith.constant dense<0> : tensor<128xi32> loc(#loc94)
    %segm_offset = arith.constant 256 : i64 loc(#loc164)
    %segm_max = arith.constant dense<0xFF800000> : tensor<8xf32> loc(#loc165)
    %cst_1 = arith.constant 0.000000e+00 : f32 loc(#loc94)
    %segm_expsum = arith.constant dense<0.000000e+00> : tensor<8xf32> loc(#loc166)
    %segm_output_offset = arith.constant 32768 : i64 loc(#loc167)
    %c1024_i32 = arith.constant 1024 : i32 loc(#loc94)
    %segm_output_offset_2 = arith.constant dense<128> : tensor<8x1xi32> loc(#loc168)
    %segm_output = arith.constant dense<0.000000e+00> : tensor<8x128xf32> loc(#loc169)
    %acc = arith.constant dense<0.000000e+00> : tensor<128xf32> loc(#loc170)
    %tiles_per_segment = arith.constant 128 : i32 loc(#loc171)
    %c1_i32 = arith.constant 1 : i32 loc(#loc94)
    %seq_idx = arith.constant 2 : i32 loc(#loc220)
    %left = arith.constant 0 : i32 loc(#loc221)
    %tiles_per_segment_3 = arith.constant 127 : i32 loc(#loc246)
    %output_stride_0 = tt.load %output_stride_0_ptr : !tt.ptr<i64> loc(#loc108)
    %output_stride_1 = tt.load %output_stride_1_ptr : !tt.ptr<i64> loc(#loc109)
    %num_seqs = tt.load %num_seqs_ptr : !tt.ptr<i32> loc(#loc110)
    %query_token_idx = tt.get_program_id x : i32 loc(#loc175)
    %query_head_idx = tt.get_program_id y : i32 loc(#loc176)
    %right:2 = scf.while (%left_73 = %left, %right_74 = %num_seqs) : (i32, i32) -> (i32, i32) {
      %seq_idx_75 = arith.cmpi slt, %left_73, %right_74 : i32 loc(#loc224)
      scf.condition(%seq_idx_75) %left_73, %right_74 : i32, i32 loc(#loc224)
    } do {
    ^bb0(%left_73: i32 loc(callsite(#loc114 at #loc172)), %right_74: i32 loc(callsite(#loc115 at #loc172))):
      %mid = arith.addi %left_73, %right_74 : i32 loc(#loc227)
      %right_75 = arith.divsi %mid, %seq_idx : i32 loc(#loc228)
      %val = tt.addptr %query_start_len_ptr, %right_75 : !tt.ptr<i32>, i32 loc(#loc229)
      %val_76 = tt.load %val : !tt.ptr<i32> loc(#loc230)
      %seq_idx_77 = arith.cmpi sle, %val_76, %query_token_idx : i32 loc(#loc231)
      %seq_idx_78 = arith.select %seq_idx_77, %right_74, %right_75 : i32 loc(#loc232)
      %seq_idx_79 = scf.if %seq_idx_77 -> (i32) {
        %left_80 = arith.addi %right_75, %c1_i32 : i32 loc(#loc233)
        scf.yield %left_80 : i32 loc(#loc233)
      } else {
        scf.yield %left_73 : i32 loc(#loc220)
      } loc(#loc232)
      scf.yield %seq_idx_79, %seq_idx_78 : i32, i32 loc(#loc234)
    } loc(#loc223)
    %seq_idx_4 = arith.subi %right#0, %c1_i32 : i32 loc(#loc235)
    %seq_len = tt.addptr %seq_lens_ptr, %seq_idx_4 : !tt.ptr<i32>, i32 loc(#loc180)
    %seq_len_5 = tt.load %seq_len : !tt.ptr<i32> loc(#loc181)
    %tiles_per_segment_6 = arith.addi %seq_len_5, %tiles_per_segment_3 : i32 loc(#loc246)
    %tiles_per_segment_7 = arith.divsi %tiles_per_segment_6, %tiles_per_segment : i32 loc(#loc236)
    %act_num_segments = arith.muli %tiles_per_segment_7, %c16_i32 : i32 loc(#loc183)
    %act_num_segments_8 = arith.addi %seq_len_5, %act_num_segments : i32 loc(#loc237)
    %act_num_segments_9 = arith.subi %act_num_segments_8, %c1_i32 : i32 loc(#loc238)
    %act_num_segments_10 = arith.divsi %act_num_segments_9, %act_num_segments : i32 loc(#loc239)
    %segm_mask = tt.make_range {end = 8 : i32, start = 0 : i32} : tensor<8xi32> loc(#loc185)
    %segm_mask_11 = tt.splat %act_num_segments_10 : i32 -> tensor<8xi32> loc(#loc186)
    %segm_mask_12 = arith.cmpi slt, %segm_mask, %segm_mask_11 : tensor<8xi32> loc(#loc187)
    %dim_mask_13 = tt.make_range {end = 128 : i32, start = 0 : i32} : tensor<128xi32> loc(#loc188)
    %dim_mask_14 = arith.cmpi slt, %dim_mask_13, %dim_mask : tensor<128xi32> loc(#loc162)
    %dim_mask_15 = arith.select %dim_mask_14, %dim_mask_0, %cst : tensor<128xi1>, tensor<128xi32> loc(#loc163)
    %dim_mask_16 = arith.cmpi ne, %dim_mask_15, %cst : tensor<128xi32> loc(#loc189)
    %segm_offset_17 = arith.extsi %query_token_idx : i32 to i64 loc(#loc190)
    %segm_offset_18 = arith.muli %segm_offset_17, %segm_offset : i64 loc(#loc164)
    %segm_offset_19 = arith.muli %query_head_idx, %c8_i32 : i32 loc(#loc191)
    %segm_offset_20 = arith.extsi %segm_offset_19 : i32 to i64 loc(#loc192)
    %segm_offset_21 = arith.addi %segm_offset_18, %segm_offset_20 : i64 loc(#loc192)
    %segm_offset_22 = arith.extsi %segm_mask : tensor<8xi32> to tensor<8xi64> loc(#loc193)
    %segm_offset_23 = tt.splat %segm_offset_21 : i64 -> tensor<8xi64> loc(#loc193)
    %segm_offset_24 = arith.addi %segm_offset_23, %segm_offset_22 : tensor<8xi64> loc(#loc193)
    %segm_max_25 = tt.splat %segm_max_ptr : !tt.ptr<f32> -> tensor<8x!tt.ptr<f32>> loc(#loc194)
    %segm_max_26 = tt.addptr %segm_max_25, %segm_offset_24 : tensor<8x!tt.ptr<f32>>, tensor<8xi64> loc(#loc194)
    %segm_max_27 = tt.load %segm_max_26, %segm_mask_12, %segm_max : tensor<8x!tt.ptr<f32>> loc(#loc165)
    %overall_max = tt.reshape %segm_max_27 allow_reorder : tensor<8xf32> -> tensor<8xf32> loc(#loc240)
    %overall_max_28 = "tt.reduce"(%overall_max) <{axis = 0 : i32}> ({
    ^bb0(%overall_max_73: f32 loc(callsite(#loc1 at #loc195)), %overall_max_74: f32 loc(callsite(#loc1 at #loc195))):
      %overall_max_75 = arith.maxnumf %overall_max_73, %overall_max_74 : f32 loc(#loc247)
      tt.reduce.return %overall_max_75 : f32 loc(#loc240)
    }) : (tensor<8xf32>) -> f32 loc(#loc240)
    %segm_expsum_29 = tt.splat %segm_expsum_ptr : !tt.ptr<f32> -> tensor<8x!tt.ptr<f32>> loc(#loc196)
    %segm_expsum_30 = tt.addptr %segm_expsum_29, %segm_offset_24 : tensor<8x!tt.ptr<f32>>, tensor<8xi64> loc(#loc196)
    %segm_expsum_31 = tt.load %segm_expsum_30, %segm_mask_12, %segm_expsum : tensor<8x!tt.ptr<f32>> loc(#loc166)
    %segm_expsum_32 = tt.splat %overall_max_28 : f32 -> tensor<8xf32> loc(#loc197)
    %segm_expsum_33 = arith.subf %segm_max_27, %segm_expsum_32 : tensor<8xf32> loc(#loc197)
    %segm_expsum_34 = math.exp %segm_expsum_33 : tensor<8xf32> loc(#loc198)
    %segm_expsum_35 = arith.mulf %segm_expsum_31, %segm_expsum_34 : tensor<8xf32> loc(#loc199)
    %overall_expsum = tt.reshape %segm_expsum_35 allow_reorder : tensor<8xf32> -> tensor<8xf32> loc(#loc242)
    %overall_expsum_36 = "tt.reduce"(%overall_expsum) <{axis = 0 : i32}> ({
    ^bb0(%overall_expsum_73: f32 loc(callsite(#loc1 at #loc200)), %overall_expsum_74: f32 loc(callsite(#loc1 at #loc200))):
      %overall_expsum_75 = arith.addf %overall_expsum_73, %overall_expsum_74 : f32 loc(#loc248)
      tt.reduce.return %overall_expsum_75 : f32 loc(#loc242)
    }) : (tensor<8xf32>) -> f32 loc(#loc242)
    %segm_output_offset_37 = arith.muli %segm_offset_17, %segm_output_offset : i64 loc(#loc167)
    %segm_output_offset_38 = arith.muli %query_head_idx, %c1024_i32 : i32 loc(#loc201)
    %segm_output_offset_39 = arith.extsi %segm_output_offset_38 : i32 to i64 loc(#loc202)
    %segm_output_offset_40 = arith.addi %segm_output_offset_37, %segm_output_offset_39 : i64 loc(#loc202)
    %segm_output_offset_41 = tt.expand_dims %segm_mask {axis = 1 : i32} : tensor<8xi32> -> tensor<8x1xi32> loc(#loc203)
    %segm_output_offset_42 = arith.muli %segm_output_offset_41, %segm_output_offset_2 : tensor<8x1xi32> loc(#loc168)
    %segm_output_offset_43 = arith.extsi %segm_output_offset_42 : tensor<8x1xi32> to tensor<8x1xi64> loc(#loc204)
    %segm_output_offset_44 = tt.splat %segm_output_offset_40 : i64 -> tensor<8x1xi64> loc(#loc204)
    %segm_output_offset_45 = arith.addi %segm_output_offset_44, %segm_output_offset_43 : tensor<8x1xi64> loc(#loc204)
    %segm_output_offset_46 = tt.expand_dims %dim_mask_13 {axis = 0 : i32} : tensor<128xi32> -> tensor<1x128xi32> loc(#loc205)
    %segm_output_offset_47 = arith.extsi %segm_output_offset_46 : tensor<1x128xi32> to tensor<1x128xi64> loc(#loc206)
    %segm_output_offset_48 = tt.broadcast %segm_output_offset_45 : tensor<8x1xi64> -> tensor<8x128xi64> loc(#loc206)
    %segm_output_offset_49 = tt.broadcast %segm_output_offset_47 : tensor<1x128xi64> -> tensor<8x128xi64> loc(#loc206)
    %segm_output_offset_50 = arith.addi %segm_output_offset_48, %segm_output_offset_49 : tensor<8x128xi64> loc(#loc206)
    %segm_output_51 = tt.expand_dims %segm_mask_12 {axis = 1 : i32} : tensor<8xi1> -> tensor<8x1xi1> loc(#loc207)
    %segm_output_52 = tt.expand_dims %dim_mask_16 {axis = 0 : i32} : tensor<128xi1> -> tensor<1x128xi1> loc(#loc208)
    %segm_output_53 = tt.broadcast %segm_output_51 : tensor<8x1xi1> -> tensor<8x128xi1> loc(#loc209)
    %segm_output_54 = tt.broadcast %segm_output_52 : tensor<1x128xi1> -> tensor<8x128xi1> loc(#loc209)
    %segm_output_55 = arith.andi %segm_output_53, %segm_output_54 : tensor<8x128xi1> loc(#loc209)
    %segm_output_56 = tt.splat %segm_output_ptr : !tt.ptr<f32> -> tensor<8x128x!tt.ptr<f32>> loc(#loc210)
    %segm_output_57 = tt.addptr %segm_output_56, %segm_output_offset_50 : tensor<8x128x!tt.ptr<f32>>, tensor<8x128xi64> loc(#loc210)
    %segm_output_58 = tt.load %segm_output_57, %segm_output_55, %segm_output : tensor<8x128x!tt.ptr<f32>> loc(#loc169)
    %segm_output_59 = tt.expand_dims %segm_expsum_34 {axis = 1 : i32} : tensor<8xf32> -> tensor<8x1xf32> loc(#loc211)
    %segm_output_60 = tt.broadcast %segm_output_59 : tensor<8x1xf32> -> tensor<8x128xf32> loc(#loc212)
    %segm_output_61 = arith.mulf %segm_output_58, %segm_output_60 : tensor<8x128xf32> loc(#loc212)
    %acc_sum = "tt.reduce"(%segm_output_61) <{axis = 0 : i32}> ({
    ^bb0(%acc_sum_73: f32 loc(callsite(#loc1 at #loc213)), %acc_sum_74: f32 loc(callsite(#loc1 at #loc213))):
      %acc_sum_75 = arith.addf %acc_sum_73, %acc_sum_74 : f32 loc(#loc249)
      tt.reduce.return %acc_sum_75 : f32 loc(#loc244)
    }) : (tensor<8x128xf32>) -> tensor<128xf32> loc(#loc244)
    %acc_62 = arith.cmpf oeq, %overall_expsum_36, %cst_1 : f32 loc(#loc214)
    %acc_63 = tt.splat %overall_expsum_36 : f32 -> tensor<128xf32> loc(#loc215)
    %acc_64 = arith.divf %acc_sum, %acc_63 : tensor<128xf32> loc(#loc215)
    %acc_65 = tt.splat %acc_62 : i1 -> tensor<128xi1> loc(#loc170)
    %acc_66 = arith.select %acc_65, %acc, %acc_64 : tensor<128xi1>, tensor<128xf32> loc(#loc170)
    %output_offset = arith.muli %segm_offset_17, %output_stride_0 : i64 loc(#loc216)
    %output_offset_67 = arith.extsi %query_head_idx : i32 to i64 loc(#loc217)
    %output_offset_68 = arith.muli %output_offset_67, %output_stride_1 : i64 loc(#loc217)
    %output_offset_69 = arith.addi %output_offset, %output_offset_68 : i64 loc(#loc218)
    %output_offset_70 = arith.extsi %dim_mask_13 : tensor<128xi32> to tensor<128xi64> loc(#loc219)
    %output_offset_71 = tt.splat %output_offset_69 : i64 -> tensor<128xi64> loc(#loc219)
    %output_offset_72 = arith.addi %output_offset_71, %output_offset_70 : tensor<128xi64> loc(#loc219)
    %0 = tt.splat %output_ptr : !tt.ptr<bf16> -> tensor<128x!tt.ptr<bf16>> loc(#loc160)
    %1 = tt.addptr %0, %output_offset_72 : tensor<128x!tt.ptr<bf16>>, tensor<128xi64> loc(#loc160)
    %2 = arith.truncf %acc_66 : tensor<128xf32> to tensor<128xbf16> loc(#loc161)
    tt.store %1, %2, %dim_mask_16 : tensor<128x!tt.ptr<bf16>> loc(#loc161)
    tt.return loc(#loc82)
  } loc(#loc)
} loc(#loc)
#loc3 = loc("/home/tristan/zml/examples/ttir_test/vllm_kernels/triton_unified_attention.py":811:57)
#loc4 = loc("/home/tristan/zml/examples/ttir_test/vllm_kernels/triton_unified_attention.py":811:71)
#loc5 = loc("/home/tristan/zml/examples/ttir_test/vllm_kernels/triton_unified_attention.py":815:40)
#loc6 = loc("/home/tristan/zml/examples/ttir_test/vllm_kernels/triton_unified_attention.py":819:23)
#loc7 = loc("/home/tristan/zml/examples/ttir_test/vllm_kernels/triton_unified_attention.py":823:26)
#loc8 = loc("/home/tristan/zml/examples/ttir_test/vllm_kernels/triton_unified_attention.py":830:11)
#loc9 = loc("/home/tristan/zml/examples/ttir_test/vllm_kernels/triton_unified_attention.py":832:56)
#loc10 = loc("/home/tristan/zml/examples/ttir_test/vllm_kernels/triton_unified_attention.py":836:8)
#loc11 = loc("/home/tristan/zml/examples/ttir_test/vllm_kernels/triton_unified_attention.py":843:47)
#loc12 = loc("/home/tristan/zml/examples/ttir_test/vllm_kernels/triton_unified_attention.py":804:56)
#loc14 = loc("/home/tristan/zml/examples/ttir_test/vllm_kernels/triton_unified_attention.py":49:21)
#loc15 = loc("/home/tristan/zml/examples/ttir_test/vllm_kernels/triton_unified_attention.py":30:20)
#loc16 = loc("/home/tristan/zml/examples/ttir_test/vllm_kernels/triton_unified_attention.py":804:41)
#loc17 = loc("/home/tristan/zml/examples/ttir_test/3d_unified_attention/python/wrap_3d_unified_attention.py":168:30)
#loc18 = loc("/home/tristan/zml/examples/ttir_test/3d_unified_attention/python/wrap_3d_unified_attention.py":169:30)
#loc19 = loc("/home/tristan/zml/examples/ttir_test/3d_unified_attention/python/wrap_3d_unified_attention.py":171:23)
#loc20 = loc("/home/tristan/zml/examples/ttir_test/vllm_kernels/triton_unified_attention.py":792:36)
#loc21 = loc("/home/tristan/zml/examples/ttir_test/vllm_kernels/triton_unified_attention.py":793:35)
#loc22 = loc("/home/tristan/zml/examples/ttir_test/vllm_kernels/triton_unified_attention.py":51:4)
#loc23 = loc("/home/tristan/zml/examples/ttir_test/vllm_kernels/triton_unified_attention.py":51:17)
#loc26 = loc("/home/tristan/zml/examples/ttir_test/vllm_kernels/triton_unified_attention.py":52:22)
#loc27 = loc("/home/tristan/zml/examples/ttir_test/vllm_kernels/triton_unified_attention.py":52:32)
#loc28 = loc("/home/tristan/zml/examples/ttir_test/vllm_kernels/triton_unified_attention.py":53:44)
#loc29 = loc("/home/tristan/zml/examples/ttir_test/vllm_kernels/triton_unified_attention.py":53:22)
#loc30 = loc("/home/tristan/zml/examples/ttir_test/vllm_kernels/triton_unified_attention.py":56:22)
#loc31 = loc("/home/tristan/zml/examples/ttir_test/vllm_kernels/triton_unified_attention.py":56:11)
#loc32 = loc("/home/tristan/zml/examples/ttir_test/vllm_kernels/triton_unified_attention.py":57:25)
#loc33 = loc("/home/tristan/zml/examples/ttir_test/vllm_kernels/triton_unified_attention.py":56:8)
#loc34 = loc("/home/tristan/zml/examples/ttir_test/vllm_kernels/triton_unified_attention.py":61:18)
#loc35 = loc("/home/tristan/zml/examples/ttir_test/vllm_kernels/triton_unified_attention.py":800:37)
#loc36 = loc("/home/tristan/zml/examples/ttir_test/vllm_kernels/triton_unified_attention.py":800:22)
#loc37 = loc("/home/tristan/zml/examples/ttir_test/vllm_kernels/triton_unified_attention.py":30:26)
#loc38 = loc("/home/tristan/zml/examples/ttir_test/vllm_kernels/triton_unified_attention.py":807:60)
#loc39 = loc("/home/tristan/zml/examples/ttir_test/vllm_kernels/triton_unified_attention.py":30:16)
#loc40 = loc("/home/tristan/zml/examples/ttir_test/vllm_kernels/triton_unified_attention.py":807:40)
#loc41 = loc("/home/tristan/zml/examples/ttir_test/vllm_kernels/triton_unified_attention.py":808:29)
#loc42 = loc("/home/tristan/zml/examples/ttir_test/vllm_kernels/triton_unified_attention.py":809:32)
#loc43 = loc("/home/tristan/zml/examples/ttir_test/vllm_kernels/triton_unified_attention.py":808:53)
#loc44 = loc("/home/tristan/zml/examples/ttir_test/vllm_kernels/triton_unified_attention.py":811:37)
#loc45 = loc("/home/tristan/zml/examples/ttir_test/vllm_kernels/triton_unified_attention.py":811:77)
#loc46 = loc("/home/tristan/zml/examples/ttir_test/vllm_kernels/triton_unified_attention.py":815:27)
#loc47 = loc("/home/tristan/zml/examples/ttir_test/vllm_kernels/triton_unified_attention.py":816:27)
#loc48 = loc("/home/tristan/zml/examples/ttir_test/vllm_kernels/triton_unified_attention.py":816:10)
#loc49 = loc("/home/tristan/zml/examples/ttir_test/vllm_kernels/triton_unified_attention.py":817:10)
#loc50 = loc("/home/tristan/zml/examples/ttir_test/vllm_kernels/triton_unified_attention.py":819:38)
#loc51 = loc("/home/tristan/zml/examples/ttir_test/.venv/lib/python3.11/site-packages/triton/language/standard.py":189:40)
#loc53 = loc("/home/tristan/zml/examples/ttir_test/.venv/lib/python3.11/site-packages/triton/language/standard.py":168:27)
#loc54 = loc("/home/tristan/zml/examples/ttir_test/vllm_kernels/triton_unified_attention.py":823:44)
#loc55 = loc("/home/tristan/zml/examples/ttir_test/vllm_kernels/triton_unified_attention.py":824:50)
#loc56 = loc("/home/tristan/zml/examples/ttir_test/vllm_kernels/triton_unified_attention.py":824:39)
#loc57 = loc("/home/tristan/zml/examples/ttir_test/vllm_kernels/triton_unified_attention.py":824:32)
#loc58 = loc("/home/tristan/zml/examples/ttir_test/.venv/lib/python3.11/site-packages/triton/language/standard.py":291:36)
#loc60 = loc("/home/tristan/zml/examples/ttir_test/.venv/lib/python3.11/site-packages/triton/language/standard.py":261:15)
#loc61 = loc("/home/tristan/zml/examples/ttir_test/vllm_kernels/triton_unified_attention.py":831:28)
#loc62 = loc("/home/tristan/zml/examples/ttir_test/vllm_kernels/triton_unified_attention.py":831:10)
#loc63 = loc("/home/tristan/zml/examples/ttir_test/vllm_kernels/triton_unified_attention.py":832:45)
#loc64 = loc("/home/tristan/zml/examples/ttir_test/vllm_kernels/triton_unified_attention.py":832:10)
#loc65 = loc("/home/tristan/zml/examples/ttir_test/vllm_kernels/triton_unified_attention.py":833:41)
#loc66 = loc("/home/tristan/zml/examples/ttir_test/vllm_kernels/triton_unified_attention.py":833:10)
#loc67 = loc("/home/tristan/zml/examples/ttir_test/vllm_kernels/triton_unified_attention.py":837:23)
#loc68 = loc("/home/tristan/zml/examples/ttir_test/vllm_kernels/triton_unified_attention.py":837:43)
#loc69 = loc("/home/tristan/zml/examples/ttir_test/vllm_kernels/triton_unified_attention.py":837:34)
#loc70 = loc("/home/tristan/zml/examples/ttir_test/vllm_kernels/triton_unified_attention.py":836:26)
#loc71 = loc("/home/tristan/zml/examples/ttir_test/vllm_kernels/triton_unified_attention.py":840:50)
#loc72 = loc("/home/tristan/zml/examples/ttir_test/vllm_kernels/triton_unified_attention.py":840:19)
#loc74 = loc("/home/tristan/zml/examples/ttir_test/vllm_kernels/triton_unified_attention.py":843:37)
#loc75 = loc("/home/tristan/zml/examples/ttir_test/vllm_kernels/triton_unified_attention.py":843:57)
#loc76 = loc("/home/tristan/zml/examples/ttir_test/vllm_kernels/triton_unified_attention.py":851:26)
#loc77 = loc("/home/tristan/zml/examples/ttir_test/vllm_kernels/triton_unified_attention.py":852:27)
#loc78 = loc("/home/tristan/zml/examples/ttir_test/vllm_kernels/triton_unified_attention.py":852:10)
#loc79 = loc("/home/tristan/zml/examples/ttir_test/vllm_kernels/triton_unified_attention.py":853:10)
#loc80 = loc("/home/tristan/zml/examples/ttir_test/vllm_kernels/triton_unified_attention.py":855:26)
#loc81 = loc("/home/tristan/zml/examples/ttir_test/vllm_kernels/triton_unified_attention.py":855:41)
#loc82 = loc("/home/tristan/zml/examples/ttir_test/3d_unified_attention/python/wrap_3d_unified_attention.py":173:4)
#loc94 = loc(callsite(#loc1 at #loc2))
#loc95 = loc("dim_mask"(#loc3))
#loc96 = loc("dim_mask"(#loc4))
#loc97 = loc("segm_offset"(#loc5))
#loc98 = loc("segm_max"(#loc6))
#loc99 = loc("segm_expsum"(#loc7))
#loc100 = loc("segm_output_offset"(#loc8))
#loc101 = loc("segm_output_offset"(#loc9))
#loc102 = loc("segm_output"(#loc10))
#loc103 = loc("acc"(#loc11))
#loc104 = loc("tiles_per_segment"(#loc12))
#loc106 = loc("left"(#loc14))
#loc107 = loc("tiles_per_segment"(#loc16))
#loc108 = loc("output_stride_0"(#loc17))
#loc109 = loc("output_stride_1"(#loc18))
#loc110 = loc("num_seqs"(#loc19))
#loc111 = loc("query_token_idx"(#loc20))
#loc112 = loc("query_head_idx"(#loc21))
#loc113 = loc("left"(#loc22))
#loc116 = loc("mid"(#loc26))
#loc117 = loc("mid"(#loc27))
#loc118 = loc("val"(#loc28))
#loc119 = loc("val"(#loc29))
#loc120 = loc("left"(#loc32))
#loc121 = loc("seq_len"(#loc35))
#loc122 = loc("seq_len"(#loc36))
#loc123 = loc("act_num_segments"(#loc38))
#loc124 = loc("act_num_segments"(#loc40))
#loc125 = loc("segm_mask"(#loc41))
#loc126 = loc("segm_mask"(#loc42))
#loc127 = loc("segm_mask"(#loc43))
#loc128 = loc("dim_mask"(#loc44))
#loc129 = loc("dim_mask"(#loc45))
#loc130 = loc("segm_offset"(#loc46))
#loc131 = loc("segm_offset"(#loc47))
#loc132 = loc("segm_offset"(#loc48))
#loc133 = loc("segm_offset"(#loc49))
#loc134 = loc("segm_max"(#loc50))
#loc136 = loc("segm_expsum"(#loc54))
#loc137 = loc("segm_expsum"(#loc55))
#loc138 = loc("segm_expsum"(#loc56))
#loc139 = loc("segm_expsum"(#loc57))
#loc141 = loc("segm_output_offset"(#loc61))
#loc142 = loc("segm_output_offset"(#loc62))
#loc143 = loc("segm_output_offset"(#loc63))
#loc144 = loc("segm_output_offset"(#loc64))
#loc145 = loc("segm_output_offset"(#loc65))
#loc146 = loc("segm_output_offset"(#loc66))
#loc147 = loc("segm_output"(#loc67))
#loc148 = loc("segm_output"(#loc68))
#loc149 = loc("segm_output"(#loc69))
#loc150 = loc("segm_output"(#loc70))
#loc151 = loc("segm_output"(#loc71))
#loc152 = loc("segm_output"(#loc72))
#loc154 = loc("acc"(#loc74))
#loc155 = loc("acc"(#loc75))
#loc156 = loc("output_offset"(#loc76))
#loc157 = loc("output_offset"(#loc77))
#loc158 = loc("output_offset"(#loc78))
#loc159 = loc("output_offset"(#loc79))
#loc160 = loc(callsite(#loc80 at #loc2))
#loc161 = loc(callsite(#loc81 at #loc2))
#loc162 = loc(callsite(#loc95 at #loc2))
#loc163 = loc(callsite(#loc96 at #loc2))
#loc164 = loc(callsite(#loc97 at #loc2))
#loc165 = loc(callsite(#loc98 at #loc2))
#loc166 = loc(callsite(#loc99 at #loc2))
#loc167 = loc(callsite(#loc100 at #loc2))
#loc168 = loc(callsite(#loc101 at #loc2))
#loc169 = loc(callsite(#loc102 at #loc2))
#loc170 = loc(callsite(#loc103 at #loc2))
#loc171 = loc(callsite(#loc104 at #loc2))
#loc173 = loc("left"(#loc106))
#loc174 = loc(callsite(#loc15 at #loc107))
#loc175 = loc(callsite(#loc111 at #loc2))
#loc176 = loc(callsite(#loc112 at #loc2))
#loc177 = loc("right"(#loc113))
#loc178 = loc("right"(#loc117))
#loc179 = loc("left"(#loc120))
#loc180 = loc(callsite(#loc121 at #loc2))
#loc181 = loc(callsite(#loc122 at #loc2))
#loc182 = loc(callsite(#loc107 at #loc2))
#loc183 = loc(callsite(#loc123 at #loc2))
#loc184 = loc(callsite(#loc124 at #loc2))
#loc185 = loc(callsite(#loc125 at #loc2))
#loc186 = loc(callsite(#loc126 at #loc2))
#loc187 = loc(callsite(#loc127 at #loc2))
#loc188 = loc(callsite(#loc128 at #loc2))
#loc189 = loc(callsite(#loc129 at #loc2))
#loc190 = loc(callsite(#loc130 at #loc2))
#loc191 = loc(callsite(#loc131 at #loc2))
#loc192 = loc(callsite(#loc132 at #loc2))
#loc193 = loc(callsite(#loc133 at #loc2))
#loc194 = loc(callsite(#loc134 at #loc2))
#loc196 = loc(callsite(#loc136 at #loc2))
#loc197 = loc(callsite(#loc137 at #loc2))
#loc198 = loc(callsite(#loc138 at #loc2))
#loc199 = loc(callsite(#loc139 at #loc2))
#loc201 = loc(callsite(#loc141 at #loc2))
#loc202 = loc(callsite(#loc142 at #loc2))
#loc203 = loc(callsite(#loc143 at #loc2))
#loc204 = loc(callsite(#loc144 at #loc2))
#loc205 = loc(callsite(#loc145 at #loc2))
#loc206 = loc(callsite(#loc146 at #loc2))
#loc207 = loc(callsite(#loc147 at #loc2))
#loc208 = loc(callsite(#loc148 at #loc2))
#loc209 = loc(callsite(#loc149 at #loc2))
#loc210 = loc(callsite(#loc150 at #loc2))
#loc211 = loc(callsite(#loc151 at #loc2))
#loc212 = loc(callsite(#loc152 at #loc2))
#loc214 = loc(callsite(#loc154 at #loc2))
#loc215 = loc(callsite(#loc155 at #loc2))
#loc216 = loc(callsite(#loc156 at #loc2))
#loc217 = loc(callsite(#loc157 at #loc2))
#loc218 = loc(callsite(#loc158 at #loc2))
#loc219 = loc(callsite(#loc159 at #loc2))
#loc220 = loc(callsite(#loc1 at #loc172))
#loc221 = loc(callsite(#loc173 at #loc172))
#loc222 = loc(fused[#loc174, #loc104])
#loc223 = loc(callsite(#loc177 at #loc172))
#loc224 = loc(callsite(#loc23 at #loc172))
#loc227 = loc(callsite(#loc116 at #loc172))
#loc228 = loc(callsite(#loc178 at #loc172))
#loc229 = loc(callsite(#loc118 at #loc172))
#loc230 = loc(callsite(#loc119 at #loc172))
#loc231 = loc(callsite(#loc30 at #loc172))
#loc232 = loc(callsite(#loc31 at #loc172))
#loc233 = loc(callsite(#loc179 at #loc172))
#loc234 = loc(callsite(#loc33 at #loc172))
#loc235 = loc(callsite(#loc34 at #loc172))
#loc236 = loc(callsite(#loc37 at #loc182))
#loc237 = loc(callsite(#loc39 at #loc184))
#loc238 = loc(callsite(#loc15 at #loc184))
#loc239 = loc(callsite(#loc37 at #loc184))
#loc240 = loc(callsite(#loc51 at #loc195))
#loc242 = loc(callsite(#loc58 at #loc200))
#loc244 = loc(callsite(#loc58 at #loc213))
#loc246 = loc(callsite(#loc222 at #loc2))
#loc247 = loc(callsite(#loc53 at #loc240))
#loc248 = loc(callsite(#loc60 at #loc242))
#loc249 = loc(callsite(#loc60 at #loc244))
