#loc = loc("/home/tristan/zml/examples/ttir_test/prefill_attention/python/wrap_prefill_attention.py":20:0)
#loc1 = loc(unknown)
#loc2 = loc("/home/tristan/zml/examples/ttir_test/prefill_attention/python/wrap_prefill_attention.py":78:8)
#loc69 = loc("/home/tristan/zml/examples/ttir_test/vllm_kernels/triton_prefill_attention.py":151:42)
#loc76 = loc("/home/tristan/zml/examples/ttir_test/vllm_kernels/triton_prefill_attention.py":154:25)
#loc102 = loc("q_ptr"(#loc))
#loc103 = loc("k_ptr"(#loc))
#loc104 = loc("v_ptr"(#loc))
#loc105 = loc("sm_scale_ptr"(#loc))
#loc106 = loc("b_start_loc_ptr"(#loc))
#loc107 = loc("b_seq_len_ptr"(#loc))
#loc108 = loc("stride_qbs_ptr"(#loc))
#loc109 = loc("stride_qh_ptr"(#loc))
#loc110 = loc("stride_kbs_ptr"(#loc))
#loc111 = loc("stride_kh_ptr"(#loc))
#loc112 = loc("stride_vbs_ptr"(#loc))
#loc113 = loc("stride_vh_ptr"(#loc))
#loc114 = loc("stride_obs_ptr"(#loc))
#loc115 = loc("stride_oh_ptr"(#loc))
#loc116 = loc("out_ptr"(#loc))
#loc184 = loc("m_ij"(#loc69))
#loc189 = loc("l_ij"(#loc76))
#loc269 = loc(callsite(#loc184 at #loc2))
#loc274 = loc(callsite(#loc189 at #loc2))
#loc299 = loc(callsite(#loc1 at #loc269))
#loc301 = loc(callsite(#loc1 at #loc274))
module {
  tt.func public @wrapped_fwd_kernel(%q_ptr: !tt.ptr<bf16> {tt.divisibility = 16 : i32} loc("q_ptr"(#loc)), %k_ptr: !tt.ptr<bf16> {tt.divisibility = 16 : i32} loc("k_ptr"(#loc)), %v_ptr: !tt.ptr<bf16> {tt.divisibility = 16 : i32} loc("v_ptr"(#loc)), %sm_scale_ptr: !tt.ptr<f32> {tt.divisibility = 16 : i32} loc("sm_scale_ptr"(#loc)), %b_start_loc_ptr: !tt.ptr<i32> {tt.divisibility = 16 : i32} loc("b_start_loc_ptr"(#loc)), %b_seq_len_ptr: !tt.ptr<i32> {tt.divisibility = 16 : i32} loc("b_seq_len_ptr"(#loc)), %stride_qbs_ptr: !tt.ptr<i64> {tt.divisibility = 16 : i32} loc("stride_qbs_ptr"(#loc)), %stride_qh_ptr: !tt.ptr<i64> {tt.divisibility = 16 : i32} loc("stride_qh_ptr"(#loc)), %stride_kbs_ptr: !tt.ptr<i64> {tt.divisibility = 16 : i32} loc("stride_kbs_ptr"(#loc)), %stride_kh_ptr: !tt.ptr<i64> {tt.divisibility = 16 : i32} loc("stride_kh_ptr"(#loc)), %stride_vbs_ptr: !tt.ptr<i64> {tt.divisibility = 16 : i32} loc("stride_vbs_ptr"(#loc)), %stride_vh_ptr: !tt.ptr<i64> {tt.divisibility = 16 : i32} loc("stride_vh_ptr"(#loc)), %stride_obs_ptr: !tt.ptr<i64> {tt.divisibility = 16 : i32} loc("stride_obs_ptr"(#loc)), %stride_oh_ptr: !tt.ptr<i64> {tt.divisibility = 16 : i32} loc("stride_oh_ptr"(#loc)), %out_ptr: !tt.ptr<bf16> {tt.divisibility = 16 : i32} loc("out_ptr"(#loc))) attributes {noinline = false} {
    %c4_i32 = arith.constant 4 : i32 loc(#loc117)
    %c128_i32 = arith.constant 128 : i32 loc(#loc117)
    %mask_d = arith.constant dense<128> : tensor<128xi32> loc(#loc213)
    %cst = arith.constant dense<0.000000e+00> : tensor<128x128xf32> loc(#loc117)
    %c1_i32 = arith.constant 1 : i32 loc(#loc117)
    %cst_0 = arith.constant dense<-1.000000e+08> : tensor<128x128xf32> loc(#loc117)
    %cst_1 = arith.constant dense<0.000000e+00> : tensor<128x128xbf16> loc(#loc117)
    %c0_i32 = arith.constant 0 : i32 loc(#loc119)
    %cst_2 = arith.constant dense<0.000000e+00> : tensor<128xf32> loc(#loc117)
    %m_i = arith.constant dense<0xFF800000> : tensor<128xf32> loc(#loc214)
    %sm_scale = tt.load %sm_scale_ptr : !tt.ptr<f32> loc(#loc121)
    %stride_qbs = tt.load %stride_qbs_ptr : !tt.ptr<i64> loc(#loc122)
    %stride_qh = tt.load %stride_qh_ptr : !tt.ptr<i64> loc(#loc123)
    %stride_kbs = tt.load %stride_kbs_ptr : !tt.ptr<i64> loc(#loc124)
    %stride_kh = tt.load %stride_kh_ptr : !tt.ptr<i64> loc(#loc125)
    %stride_vbs = tt.load %stride_vbs_ptr : !tt.ptr<i64> loc(#loc126)
    %stride_vh = tt.load %stride_vh_ptr : !tt.ptr<i64> loc(#loc127)
    %stride_obs = tt.load %stride_obs_ptr : !tt.ptr<i64> loc(#loc128)
    %stride_oh = tt.load %stride_oh_ptr : !tt.ptr<i64> loc(#loc129)
    %cur_batch = tt.get_program_id x : i32 loc(#loc215)
    %cur_head = tt.get_program_id y : i32 loc(#loc216)
    %start_m = tt.get_program_id z : i32 loc(#loc217)
    %cur_kv_head = arith.divsi %cur_head, %c4_i32 : i32 loc(#loc218)
    %cur_batch_seq_len = tt.addptr %b_seq_len_ptr, %cur_batch : !tt.ptr<i32>, i32 loc(#loc219)
    %cur_batch_seq_len_3 = tt.load %cur_batch_seq_len : !tt.ptr<i32> loc(#loc220)
    %cur_batch_in_all_start_index = tt.addptr %b_start_loc_ptr, %cur_batch : !tt.ptr<i32>, i32 loc(#loc221)
    %cur_batch_in_all_start_index_4 = tt.load %cur_batch_in_all_start_index : !tt.ptr<i32> loc(#loc222)
    %block_start_loc = arith.muli %start_m, %c128_i32 : i32 loc(#loc223)
    %offs_n = tt.make_range {end = 128 : i32, start = 0 : i32} : tensor<128xi32> loc(#loc224)
    %offs_m = tt.splat %block_start_loc : i32 -> tensor<128xi32> loc(#loc225)
    %offs_m_5 = arith.addi %offs_m, %offs_n : tensor<128xi32> loc(#loc225)
    %off_q = tt.expand_dims %offs_m_5 {axis = 1 : i32} : tensor<128xi32> -> tensor<128x1xi32> loc(#loc226)
    %off_q_6 = tt.splat %cur_batch_in_all_start_index_4 : i32 -> tensor<128x1xi32> loc(#loc227)
    %off_q_7 = arith.addi %off_q_6, %off_q : tensor<128x1xi32> loc(#loc227)
    %off_q_8 = arith.extsi %off_q_7 : tensor<128x1xi32> to tensor<128x1xi64> loc(#loc228)
    %off_q_9 = tt.splat %stride_qbs : i64 -> tensor<128x1xi64> loc(#loc228)
    %off_q_10 = arith.muli %off_q_8, %off_q_9 : tensor<128x1xi64> loc(#loc228)
    %off_q_11 = arith.extsi %cur_head : i32 to i64 loc(#loc229)
    %off_q_12 = arith.muli %off_q_11, %stride_qh : i64 loc(#loc229)
    %off_q_13 = tt.splat %off_q_12 : i64 -> tensor<128x1xi64> loc(#loc230)
    %off_q_14 = arith.addi %off_q_10, %off_q_13 : tensor<128x1xi64> loc(#loc230)
    %off_q_15 = tt.expand_dims %offs_n {axis = 0 : i32} : tensor<128xi32> -> tensor<1x128xi32> loc(#loc231)
    %off_q_16 = arith.extsi %off_q_15 : tensor<1x128xi32> to tensor<1x128xi64> loc(#loc232)
    %off_q_17 = tt.broadcast %off_q_14 : tensor<128x1xi64> -> tensor<128x128xi64> loc(#loc232)
    %off_q_18 = tt.broadcast %off_q_16 : tensor<1x128xi64> -> tensor<128x128xi64> loc(#loc232)
    %off_q_19 = arith.addi %off_q_17, %off_q_18 : tensor<128x128xi64> loc(#loc232)
    %off_k = tt.splat %stride_kbs : i64 -> tensor<1x128xi64> loc(#loc233)
    %off_k_20 = arith.muli %off_q_16, %off_k : tensor<1x128xi64> loc(#loc233)
    %off_k_21 = arith.extsi %cur_kv_head : i32 to i64 loc(#loc234)
    %off_k_22 = arith.muli %off_k_21, %stride_kh : i64 loc(#loc234)
    %off_k_23 = tt.splat %off_k_22 : i64 -> tensor<1x128xi64> loc(#loc235)
    %off_k_24 = arith.addi %off_k_20, %off_k_23 : tensor<1x128xi64> loc(#loc235)
    %off_k_25 = tt.expand_dims %offs_n {axis = 1 : i32} : tensor<128xi32> -> tensor<128x1xi32> loc(#loc236)
    %off_k_26 = arith.extsi %off_k_25 : tensor<128x1xi32> to tensor<128x1xi64> loc(#loc237)
    %off_k_27 = tt.broadcast %off_k_24 : tensor<1x128xi64> -> tensor<128x128xi64> loc(#loc237)
    %off_k_28 = tt.broadcast %off_k_26 : tensor<128x1xi64> -> tensor<128x128xi64> loc(#loc237)
    %off_k_29 = arith.addi %off_k_27, %off_k_28 : tensor<128x128xi64> loc(#loc237)
    %off_v = tt.splat %stride_vbs : i64 -> tensor<128x1xi64> loc(#loc238)
    %off_v_30 = arith.muli %off_k_26, %off_v : tensor<128x1xi64> loc(#loc238)
    %off_v_31 = arith.muli %off_k_21, %stride_vh : i64 loc(#loc239)
    %off_v_32 = tt.splat %off_v_31 : i64 -> tensor<128x1xi64> loc(#loc240)
    %off_v_33 = arith.addi %off_v_30, %off_v_32 : tensor<128x1xi64> loc(#loc240)
    %off_v_34 = tt.broadcast %off_v_33 : tensor<128x1xi64> -> tensor<128x128xi64> loc(#loc241)
    %off_v_35 = arith.addi %off_v_34, %off_q_18 : tensor<128x128xi64> loc(#loc241)
    %mask_d_36 = arith.cmpi slt, %offs_n, %mask_d : tensor<128xi32> loc(#loc213)
    %q = tt.splat %cur_batch_seq_len_3 : i32 -> tensor<128x1xi32> loc(#loc242)
    %q_37 = arith.cmpi slt, %off_q, %q : tensor<128x1xi32> loc(#loc242)
    %q_38 = tt.expand_dims %mask_d_36 {axis = 0 : i32} : tensor<128xi1> -> tensor<1x128xi1> loc(#loc243)
    %q_39 = tt.broadcast %q_37 : tensor<128x1xi1> -> tensor<128x128xi1> loc(#loc244)
    %q_40 = tt.broadcast %q_38 : tensor<1x128xi1> -> tensor<128x128xi1> loc(#loc244)
    %q_41 = arith.andi %q_39, %q_40 : tensor<128x128xi1> loc(#loc244)
    %q_42 = tt.splat %q_ptr : !tt.ptr<bf16> -> tensor<128x128x!tt.ptr<bf16>> loc(#loc245)
    %q_43 = tt.addptr %q_42, %off_q_19 : tensor<128x128x!tt.ptr<bf16>>, tensor<128x128xi64> loc(#loc245)
    %q_44 = tt.load %q_43, %q_41, %cst_1 : tensor<128x128x!tt.ptr<bf16>> loc(#loc246)
    %k_ptrs = tt.splat %k_ptr : !tt.ptr<bf16> -> tensor<128x128x!tt.ptr<bf16>> loc(#loc247)
    %v_ptrs = tt.splat %v_ptr : !tt.ptr<bf16> -> tensor<128x128x!tt.ptr<bf16>> loc(#loc248)
    %block_mask = arith.cmpi slt, %block_start_loc, %cur_batch_seq_len_3 : i32 loc(#loc249)
    %block_mask_45 = arith.extui %block_mask : i1 to i32 loc(#loc250)
    %end_n = arith.addi %start_m, %c1_i32 : i32 loc(#loc251)
    %end_n_46 = arith.muli %end_n, %c128_i32 : i32 loc(#loc252)
    %end_n_47 = arith.minsi %cur_batch_seq_len_3, %end_n_46 : i32 loc(#loc253)
    %end_n_limit = arith.muli %block_mask_45, %end_n_47 : i32 loc(#loc254)
    %mask = tt.splat %cur_batch_seq_len_3 : i32 -> tensor<1x128xi32> loc(#loc255)
    %mask_48 = tt.broadcast %off_q : tensor<128x1xi32> -> tensor<128x128xi32> loc(#loc256)
    %k = tt.expand_dims %mask_d_36 {axis = 1 : i32} : tensor<128xi1> -> tensor<128x1xi1> loc(#loc257)
    %k_49 = tt.broadcast %k : tensor<128x1xi1> -> tensor<128x128xi1> loc(#loc258)
    %qk = tt.splat %sm_scale : f32 -> tensor<128x128xf32> loc(#loc259)
    %acc:3 = scf.for %start_n = %c0_i32 to %end_n_limit step %c128_i32 iter_args(%m_i_60 = %m_i, %l_i = %cst_2, %acc_61 = %cst) -> (tensor<128xf32>, tensor<128xf32>, tensor<128x128xf32>)  : i32 {
      %pos_k = tt.splat %start_n : i32 -> tensor<1x128xi32> loc(#loc261)
      %pos_k_62 = arith.addi %pos_k, %off_q_15 : tensor<1x128xi32> loc(#loc261)
      %mask_63 = arith.cmpi slt, %pos_k_62, %mask : tensor<1x128xi32> loc(#loc255)
      %mask_64 = tt.broadcast %pos_k_62 : tensor<1x128xi32> -> tensor<128x128xi32> loc(#loc256)
      %mask_65 = arith.cmpi sge, %mask_48, %mask_64 : tensor<128x128xi32> loc(#loc256)
      %mask_66 = tt.broadcast %mask_63 : tensor<1x128xi1> -> tensor<128x128xi1> loc(#loc262)
      %mask_67 = arith.andi %mask_66, %mask_65 : tensor<128x128xi1> loc(#loc262)
      %k_68 = arith.andi %mask_66, %k_49 : tensor<128x128xi1> loc(#loc258)
      %k_69 = arith.addi %cur_batch_in_all_start_index_4, %start_n : i32 loc(#loc263)
      %k_70 = arith.extsi %k_69 : i32 to i64 loc(#loc264)
      %k_71 = arith.muli %k_70, %stride_kbs : i64 loc(#loc264)
      %k_72 = tt.splat %k_71 : i64 -> tensor<128x128xi64> loc(#loc265)
      %k_73 = arith.addi %off_k_29, %k_72 : tensor<128x128xi64> loc(#loc297)
      %k_74 = tt.addptr %k_ptrs, %k_73 : tensor<128x128x!tt.ptr<bf16>>, tensor<128x128xi64> loc(#loc297)
      %k_75 = tt.load %k_74, %k_68, %cst_1 : tensor<128x128x!tt.ptr<bf16>> loc(#loc266)
      %qk_76 = tt.dot %q_44, %k_75, %cst, inputPrecision = tf32 : tensor<128x128xbf16> * tensor<128x128xbf16> -> tensor<128x128xf32> loc(#loc267)
      %qk_77 = arith.mulf %qk_76, %qk : tensor<128x128xf32> loc(#loc259)
      %qk_78 = arith.select %mask_67, %qk_77, %cst_0 : tensor<128x128xi1>, tensor<128x128xf32> loc(#loc268)
      %m_ij = "tt.reduce"(%qk_78) <{axis = 1 : i32}> ({
      ^bb0(%m_ij_100: f32 loc(callsite(#loc1 at #loc269)), %m_ij_101: f32 loc(callsite(#loc1 at #loc269))):
        %m_ij_102 = arith.maxnumf %m_ij_100, %m_ij_101 : f32 loc(#loc304)
        tt.reduce.return %m_ij_102 : f32 loc(#loc298)
      }) : (tensor<128x128xf32>) -> tensor<128xf32> loc(#loc298)
      %m_ij_79 = arith.maxnumf %m_i_60, %m_ij : tensor<128xf32> loc(#loc270)
      %qk_80 = tt.expand_dims %m_ij_79 {axis = 1 : i32} : tensor<128xf32> -> tensor<128x1xf32> loc(#loc271)
      %qk_81 = tt.broadcast %qk_80 : tensor<128x1xf32> -> tensor<128x128xf32> loc(#loc272)
      %qk_82 = arith.subf %qk_78, %qk_81 : tensor<128x128xf32> loc(#loc272)
      %p = math.exp2 %qk_82 : tensor<128x128xf32> loc(#loc273)
      %l_ij = "tt.reduce"(%p) <{axis = 1 : i32}> ({
      ^bb0(%l_ij_100: f32 loc(callsite(#loc1 at #loc274)), %l_ij_101: f32 loc(callsite(#loc1 at #loc274))):
        %l_ij_102 = arith.addf %l_ij_100, %l_ij_101 : f32 loc(#loc305)
        tt.reduce.return %l_ij_102 : f32 loc(#loc300)
      }) : (tensor<128x128xf32>) -> tensor<128xf32> loc(#loc300)
      %alpha = arith.subf %m_i_60, %m_ij_79 : tensor<128xf32> loc(#loc275)
      %alpha_83 = math.exp2 %alpha : tensor<128xf32> loc(#loc276)
      %l_i_84 = arith.mulf %l_i, %alpha_83 : tensor<128xf32> loc(#loc277)
      %l_i_85 = arith.addf %l_i_84, %l_ij : tensor<128xf32> loc(#loc278)
      %acc_86 = tt.expand_dims %alpha_83 {axis = 1 : i32} : tensor<128xf32> -> tensor<128x1xf32> loc(#loc279)
      %acc_87 = tt.broadcast %acc_86 : tensor<128x1xf32> -> tensor<128x128xf32> loc(#loc280)
      %acc_88 = arith.mulf %acc_61, %acc_87 : tensor<128x128xf32> loc(#loc280)
      %v = tt.splat %start_n : i32 -> tensor<128x1xi32> loc(#loc281)
      %v_89 = arith.addi %v, %off_k_25 : tensor<128x1xi32> loc(#loc281)
      %v_90 = arith.cmpi slt, %v_89, %q : tensor<128x1xi32> loc(#loc282)
      %v_91 = tt.broadcast %v_90 : tensor<128x1xi1> -> tensor<128x128xi1> loc(#loc283)
      %v_92 = arith.andi %v_91, %q_40 : tensor<128x128xi1> loc(#loc283)
      %v_93 = arith.muli %k_70, %stride_vbs : i64 loc(#loc284)
      %v_94 = tt.splat %v_93 : i64 -> tensor<128x128xi64> loc(#loc285)
      %v_95 = arith.addi %off_v_35, %v_94 : tensor<128x128xi64> loc(#loc302)
      %v_96 = tt.addptr %v_ptrs, %v_95 : tensor<128x128x!tt.ptr<bf16>>, tensor<128x128xi64> loc(#loc302)
      %v_97 = tt.load %v_96, %v_92, %cst_1 : tensor<128x128x!tt.ptr<bf16>> loc(#loc286)
      %p_98 = arith.truncf %p : tensor<128x128xf32> to tensor<128x128xbf16> loc(#loc287)
      %acc_99 = tt.dot %p_98, %v_97, %acc_88, inputPrecision = tf32 : tensor<128x128xbf16> * tensor<128x128xbf16> -> tensor<128x128xf32> loc(#loc288)
      scf.yield %m_ij_79, %l_i_85, %acc_99 : tensor<128xf32>, tensor<128xf32>, tensor<128x128xf32> loc(#loc204)
    } loc(#loc303)
    %acc_50 = tt.expand_dims %acc#1 {axis = 1 : i32} : tensor<128xf32> -> tensor<128x1xf32> loc(#loc289)
    %acc_51 = tt.broadcast %acc_50 : tensor<128x1xf32> -> tensor<128x128xf32> loc(#loc290)
    %acc_52 = arith.divf %acc#2, %acc_51 : tensor<128x128xf32> loc(#loc290)
    %off_o = tt.splat %stride_obs : i64 -> tensor<128x1xi64> loc(#loc291)
    %off_o_53 = arith.muli %off_q_8, %off_o : tensor<128x1xi64> loc(#loc291)
    %off_o_54 = arith.muli %off_q_11, %stride_oh : i64 loc(#loc292)
    %off_o_55 = tt.splat %off_o_54 : i64 -> tensor<128x1xi64> loc(#loc293)
    %off_o_56 = arith.addi %off_o_53, %off_o_55 : tensor<128x1xi64> loc(#loc293)
    %off_o_57 = tt.broadcast %off_o_56 : tensor<128x1xi64> -> tensor<128x128xi64> loc(#loc294)
    %off_o_58 = arith.addi %off_o_57, %off_q_18 : tensor<128x128xi64> loc(#loc294)
    %out_ptrs = tt.splat %out_ptr : !tt.ptr<bf16> -> tensor<128x128x!tt.ptr<bf16>> loc(#loc295)
    %out_ptrs_59 = tt.addptr %out_ptrs, %off_o_58 : tensor<128x128x!tt.ptr<bf16>>, tensor<128x128xi64> loc(#loc295)
    %0 = arith.truncf %acc_52 : tensor<128x128xf32> to tensor<128x128xbf16> loc(#loc212)
    tt.store %out_ptrs_59, %0, %q_41 : tensor<128x128x!tt.ptr<bf16>> loc(#loc212)
    tt.return loc(#loc101)
  } loc(#loc)
} loc(#loc)
#loc3 = loc("/home/tristan/zml/examples/ttir_test/vllm_kernels/triton_prefill_attention.py":89:22)
#loc4 = loc("/home/tristan/zml/examples/ttir_test/vllm_kernels/triton_prefill_attention.py":117:53)
#loc5 = loc("/home/tristan/zml/examples/ttir_test/vllm_kernels/triton_prefill_attention.py":101:50)
#loc6 = loc("/home/tristan/zml/examples/ttir_test/prefill_attention/python/wrap_prefill_attention.py":45:23)
#loc7 = loc("/home/tristan/zml/examples/ttir_test/prefill_attention/python/wrap_prefill_attention.py":46:25)
#loc8 = loc("/home/tristan/zml/examples/ttir_test/prefill_attention/python/wrap_prefill_attention.py":47:24)
#loc9 = loc("/home/tristan/zml/examples/ttir_test/prefill_attention/python/wrap_prefill_attention.py":48:25)
#loc10 = loc("/home/tristan/zml/examples/ttir_test/prefill_attention/python/wrap_prefill_attention.py":49:24)
#loc11 = loc("/home/tristan/zml/examples/ttir_test/prefill_attention/python/wrap_prefill_attention.py":50:25)
#loc12 = loc("/home/tristan/zml/examples/ttir_test/prefill_attention/python/wrap_prefill_attention.py":51:24)
#loc13 = loc("/home/tristan/zml/examples/ttir_test/prefill_attention/python/wrap_prefill_attention.py":52:25)
#loc14 = loc("/home/tristan/zml/examples/ttir_test/prefill_attention/python/wrap_prefill_attention.py":53:24)
#loc15 = loc("/home/tristan/zml/examples/ttir_test/vllm_kernels/triton_prefill_attention.py":66:30)
#loc16 = loc("/home/tristan/zml/examples/ttir_test/vllm_kernels/triton_prefill_attention.py":67:29)
#loc17 = loc("/home/tristan/zml/examples/ttir_test/vllm_kernels/triton_prefill_attention.py":68:28)
#loc18 = loc("/home/tristan/zml/examples/ttir_test/vllm_kernels/triton_prefill_attention.py":70:30)
#loc19 = loc("/home/tristan/zml/examples/ttir_test/vllm_kernels/triton_prefill_attention.py":72:43)
#loc20 = loc("/home/tristan/zml/examples/ttir_test/vllm_kernels/triton_prefill_attention.py":72:32)
#loc21 = loc("/home/tristan/zml/examples/ttir_test/vllm_kernels/triton_prefill_attention.py":73:57)
#loc22 = loc("/home/tristan/zml/examples/ttir_test/vllm_kernels/triton_prefill_attention.py":73:43)
#loc23 = loc("/home/tristan/zml/examples/ttir_test/vllm_kernels/triton_prefill_attention.py":75:32)
#loc24 = loc("/home/tristan/zml/examples/ttir_test/vllm_kernels/triton_prefill_attention.py":78:26)
#loc25 = loc("/home/tristan/zml/examples/ttir_test/vllm_kernels/triton_prefill_attention.py":80:33)
#loc26 = loc("/home/tristan/zml/examples/ttir_test/vllm_kernels/triton_prefill_attention.py":82:47)
#loc27 = loc("/home/tristan/zml/examples/ttir_test/vllm_kernels/triton_prefill_attention.py":82:40)
#loc28 = loc("/home/tristan/zml/examples/ttir_test/vllm_kernels/triton_prefill_attention.py":82:59)
#loc29 = loc("/home/tristan/zml/examples/ttir_test/vllm_kernels/triton_prefill_attention.py":83:21)
#loc30 = loc("/home/tristan/zml/examples/ttir_test/vllm_kernels/triton_prefill_attention.py":83:10)
#loc31 = loc("/home/tristan/zml/examples/ttir_test/vllm_kernels/triton_prefill_attention.py":84:17)
#loc32 = loc("/home/tristan/zml/examples/ttir_test/vllm_kernels/triton_prefill_attention.py":84:10)
#loc33 = loc("/home/tristan/zml/examples/ttir_test/vllm_kernels/triton_prefill_attention.py":86:30)
#loc34 = loc("/home/tristan/zml/examples/ttir_test/vllm_kernels/triton_prefill_attention.py":86:57)
#loc35 = loc("/home/tristan/zml/examples/ttir_test/vllm_kernels/triton_prefill_attention.py":86:43)
#loc36 = loc("/home/tristan/zml/examples/ttir_test/vllm_kernels/triton_prefill_attention.py":86:76)
#loc37 = loc("/home/tristan/zml/examples/ttir_test/vllm_kernels/triton_prefill_attention.py":86:69)
#loc38 = loc("/home/tristan/zml/examples/ttir_test/vllm_kernels/triton_prefill_attention.py":87:30)
#loc39 = loc("/home/tristan/zml/examples/ttir_test/vllm_kernels/triton_prefill_attention.py":87:57)
#loc40 = loc("/home/tristan/zml/examples/ttir_test/vllm_kernels/triton_prefill_attention.py":87:43)
#loc41 = loc("/home/tristan/zml/examples/ttir_test/vllm_kernels/triton_prefill_attention.py":87:69)
#loc42 = loc("/home/tristan/zml/examples/ttir_test/vllm_kernels/triton_prefill_attention.py":93:32)
#loc43 = loc("/home/tristan/zml/examples/ttir_test/vllm_kernels/triton_prefill_attention.py":93:61)
#loc44 = loc("/home/tristan/zml/examples/ttir_test/vllm_kernels/triton_prefill_attention.py":93:54)
#loc45 = loc("/home/tristan/zml/examples/ttir_test/vllm_kernels/triton_prefill_attention.py":92:12)
#loc46 = loc("/home/tristan/zml/examples/ttir_test/vllm_kernels/triton_prefill_attention.py":92:8)
#loc47 = loc("/home/tristan/zml/examples/ttir_test/vllm_kernels/triton_prefill_attention.py":97:17)
#loc48 = loc("/home/tristan/zml/examples/ttir_test/vllm_kernels/triton_prefill_attention.py":98:17)
#loc49 = loc("/home/tristan/zml/examples/ttir_test/vllm_kernels/triton_prefill_attention.py":105:44)
#loc50 = loc("/home/tristan/zml/examples/ttir_test/vllm_kernels/triton_prefill_attention.py":105:66)
#loc51 = loc("/home/tristan/zml/examples/ttir_test/vllm_kernels/triton_prefill_attention.py":111:41)
#loc52 = loc("/home/tristan/zml/examples/ttir_test/vllm_kernels/triton_prefill_attention.py":111:46)
#loc53 = loc("/home/tristan/zml/examples/ttir_test/vllm_kernels/triton_prefill_attention.py":111:30)
#loc54 = loc("/home/tristan/zml/examples/ttir_test/vllm_kernels/triton_prefill_attention.py":115:31)
#loc55 = loc("/home/tristan/zml/examples/ttir_test/vllm_kernels/triton_prefill_attention.py":124:23)
#loc56 = loc("/home/tristan/zml/examples/ttir_test/vllm_kernels/triton_prefill_attention.py":127:29)
#loc57 = loc("/home/tristan/zml/examples/ttir_test/vllm_kernels/triton_prefill_attention.py":145:55)
#loc58 = loc("/home/tristan/zml/examples/ttir_test/vllm_kernels/triton_prefill_attention.py":145:48)
#loc59 = loc("/home/tristan/zml/examples/ttir_test/vllm_kernels/triton_prefill_attention.py":150:33)
#loc60 = loc("/home/tristan/zml/examples/ttir_test/vllm_kernels/triton_prefill_attention.py":121:26)
#loc61 = loc("/home/tristan/zml/examples/ttir_test/vllm_kernels/triton_prefill_attention.py":127:20)
#loc62 = loc("/home/tristan/zml/examples/ttir_test/vllm_kernels/triton_prefill_attention.py":144:53)
#loc63 = loc("/home/tristan/zml/examples/ttir_test/vllm_kernels/triton_prefill_attention.py":144:64)
#loc64 = loc("/home/tristan/zml/examples/ttir_test/vllm_kernels/triton_prefill_attention.py":144:21)
#loc65 = loc("/home/tristan/zml/examples/ttir_test/vllm_kernels/triton_prefill_attention.py":144:12)
#loc66 = loc("/home/tristan/zml/examples/ttir_test/vllm_kernels/triton_prefill_attention.py":149:23)
#loc67 = loc("/home/tristan/zml/examples/ttir_test/vllm_kernels/triton_prefill_attention.py":150:43)
#loc68 = loc("/home/tristan/zml/examples/ttir_test/.venv/lib/python3.11/site-packages/triton/language/standard.py":189:40)
#loc70 = loc("/home/tristan/zml/examples/ttir_test/.venv/lib/python3.11/site-packages/triton/language/standard.py":168:27)
#loc71 = loc("/home/tristan/zml/examples/ttir_test/vllm_kernels/triton_prefill_attention.py":151:31)
#loc72 = loc("/home/tristan/zml/examples/ttir_test/vllm_kernels/triton_prefill_attention.py":152:19)
#loc73 = loc("/home/tristan/zml/examples/ttir_test/vllm_kernels/triton_prefill_attention.py":152:14)
#loc74 = loc("/home/tristan/zml/examples/ttir_test/vllm_kernels/triton_prefill_attention.py":153:25)
#loc75 = loc("/home/tristan/zml/examples/ttir_test/.venv/lib/python3.11/site-packages/triton/language/standard.py":291:36)
#loc77 = loc("/home/tristan/zml/examples/ttir_test/.venv/lib/python3.11/site-packages/triton/language/standard.py":261:15)
#loc78 = loc("/home/tristan/zml/examples/ttir_test/vllm_kernels/triton_prefill_attention.py":157:35)
#loc79 = loc("/home/tristan/zml/examples/ttir_test/vllm_kernels/triton_prefill_attention.py":157:29)
#loc80 = loc("/home/tristan/zml/examples/ttir_test/vllm_kernels/triton_prefill_attention.py":158:20)
#loc81 = loc("/home/tristan/zml/examples/ttir_test/vllm_kernels/triton_prefill_attention.py":158:28)
#loc82 = loc("/home/tristan/zml/examples/ttir_test/vllm_kernels/triton_prefill_attention.py":160:26)
#loc83 = loc("/home/tristan/zml/examples/ttir_test/vllm_kernels/triton_prefill_attention.py":160:20)
#loc84 = loc("/home/tristan/zml/examples/ttir_test/vllm_kernels/triton_prefill_attention.py":164:29)
#loc85 = loc("/home/tristan/zml/examples/ttir_test/vllm_kernels/triton_prefill_attention.py":164:48)
#loc86 = loc("/home/tristan/zml/examples/ttir_test/vllm_kernels/triton_prefill_attention.py":164:70)
#loc87 = loc("/home/tristan/zml/examples/ttir_test/vllm_kernels/triton_prefill_attention.py":163:64)
#loc88 = loc("/home/tristan/zml/examples/ttir_test/vllm_kernels/triton_prefill_attention.py":163:21)
#loc89 = loc("/home/tristan/zml/examples/ttir_test/vllm_kernels/triton_prefill_attention.py":163:12)
#loc90 = loc("/home/tristan/zml/examples/ttir_test/vllm_kernels/triton_prefill_attention.py":167:17)
#loc91 = loc("/home/tristan/zml/examples/ttir_test/vllm_kernels/triton_prefill_attention.py":168:27)
#loc92 = loc("/home/tristan/zml/examples/ttir_test/vllm_kernels/triton_prefill_attention.py":170:8)
#loc93 = loc("/home/tristan/zml/examples/ttir_test/vllm_kernels/triton_prefill_attention.py":172:20)
#loc94 = loc("/home/tristan/zml/examples/ttir_test/vllm_kernels/triton_prefill_attention.py":172:16)
#loc95 = loc("/home/tristan/zml/examples/ttir_test/vllm_kernels/triton_prefill_attention.py":174:59)
#loc96 = loc("/home/tristan/zml/examples/ttir_test/vllm_kernels/triton_prefill_attention.py":175:21)
#loc97 = loc("/home/tristan/zml/examples/ttir_test/vllm_kernels/triton_prefill_attention.py":175:10)
#loc98 = loc("/home/tristan/zml/examples/ttir_test/vllm_kernels/triton_prefill_attention.py":176:10)
#loc99 = loc("/home/tristan/zml/examples/ttir_test/vllm_kernels/triton_prefill_attention.py":178:21)
#loc100 = loc("/home/tristan/zml/examples/ttir_test/vllm_kernels/triton_prefill_attention.py":180:18)
#loc101 = loc("/home/tristan/zml/examples/ttir_test/prefill_attention/python/wrap_prefill_attention.py":55:4)
#loc117 = loc(callsite(#loc1 at #loc2))
#loc118 = loc("mask_d"(#loc3))
#loc119 = loc(callsite(#loc4 at #loc2))
#loc120 = loc("m_i"(#loc5))
#loc121 = loc("sm_scale"(#loc6))
#loc122 = loc("stride_qbs"(#loc7))
#loc123 = loc("stride_qh"(#loc8))
#loc124 = loc("stride_kbs"(#loc9))
#loc125 = loc("stride_kh"(#loc10))
#loc126 = loc("stride_vbs"(#loc11))
#loc127 = loc("stride_vh"(#loc12))
#loc128 = loc("stride_obs"(#loc13))
#loc129 = loc("stride_oh"(#loc14))
#loc130 = loc("cur_batch"(#loc15))
#loc131 = loc("cur_head"(#loc16))
#loc132 = loc("start_m"(#loc17))
#loc133 = loc("cur_kv_head"(#loc18))
#loc134 = loc("cur_batch_seq_len"(#loc19))
#loc135 = loc("cur_batch_seq_len"(#loc20))
#loc136 = loc("cur_batch_in_all_start_index"(#loc21))
#loc137 = loc("cur_batch_in_all_start_index"(#loc22))
#loc138 = loc("block_start_loc"(#loc23))
#loc139 = loc("offs_n"(#loc24))
#loc140 = loc("offs_m"(#loc25))
#loc141 = loc("off_q"(#loc26))
#loc142 = loc("off_q"(#loc27))
#loc143 = loc("off_q"(#loc28))
#loc144 = loc("off_q"(#loc29))
#loc145 = loc("off_q"(#loc30))
#loc146 = loc("off_q"(#loc31))
#loc147 = loc("off_q"(#loc32))
#loc148 = loc("off_k"(#loc33))
#loc149 = loc("off_k"(#loc34))
#loc150 = loc("off_k"(#loc35))
#loc151 = loc("off_k"(#loc36))
#loc152 = loc("off_k"(#loc37))
#loc153 = loc("off_v"(#loc38))
#loc154 = loc("off_v"(#loc39))
#loc155 = loc("off_v"(#loc40))
#loc156 = loc("off_v"(#loc41))
#loc157 = loc("q"(#loc42))
#loc158 = loc("q"(#loc43))
#loc159 = loc("q"(#loc44))
#loc160 = loc("q"(#loc45))
#loc161 = loc("q"(#loc46))
#loc162 = loc("k_ptrs"(#loc47))
#loc163 = loc("v_ptrs"(#loc48))
#loc164 = loc("block_mask"(#loc49))
#loc165 = loc("block_mask"(#loc50))
#loc166 = loc("end_n"(#loc51))
#loc167 = loc("end_n"(#loc52))
#loc168 = loc("end_n"(#loc53))
#loc169 = loc("end_n_limit"(#loc54))
#loc170 = loc("mask"(#loc55))
#loc171 = loc("mask"(#loc56))
#loc172 = loc("k"(#loc57))
#loc173 = loc("k"(#loc58))
#loc174 = loc("qk"(#loc59))
#loc175 = loc("m_i"(#loc4))
#loc176 = loc("pos_k"(#loc60))
#loc177 = loc("mask"(#loc61))
#loc178 = loc("k"(#loc62))
#loc179 = loc("k"(#loc63))
#loc180 = loc("k"(#loc64))
#loc181 = loc("k"(#loc65))
#loc182 = loc("qk"(#loc66))
#loc183 = loc("qk"(#loc67))
#loc185 = loc("m_ij"(#loc71))
#loc186 = loc("qk"(#loc72))
#loc187 = loc("qk"(#loc73))
#loc188 = loc("p"(#loc74))
#loc190 = loc("alpha"(#loc78))
#loc191 = loc("alpha"(#loc79))
#loc192 = loc("l_i"(#loc80))
#loc193 = loc("l_i"(#loc81))
#loc194 = loc("acc"(#loc82))
#loc195 = loc("acc"(#loc83))
#loc196 = loc("v"(#loc84))
#loc197 = loc("v"(#loc85))
#loc198 = loc("v"(#loc86))
#loc199 = loc("v"(#loc87))
#loc200 = loc("v"(#loc88))
#loc201 = loc("v"(#loc89))
#loc202 = loc("p"(#loc90))
#loc203 = loc("acc"(#loc91))
#loc204 = loc(callsite(#loc92 at #loc2))
#loc205 = loc("acc"(#loc93))
#loc206 = loc("acc"(#loc94))
#loc207 = loc("off_o"(#loc95))
#loc208 = loc("off_o"(#loc96))
#loc209 = loc("off_o"(#loc97))
#loc210 = loc("off_o"(#loc98))
#loc211 = loc("out_ptrs"(#loc99))
#loc212 = loc(callsite(#loc100 at #loc2))
#loc213 = loc(callsite(#loc118 at #loc2))
#loc214 = loc(callsite(#loc120 at #loc2))
#loc215 = loc(callsite(#loc130 at #loc2))
#loc216 = loc(callsite(#loc131 at #loc2))
#loc217 = loc(callsite(#loc132 at #loc2))
#loc218 = loc(callsite(#loc133 at #loc2))
#loc219 = loc(callsite(#loc134 at #loc2))
#loc220 = loc(callsite(#loc135 at #loc2))
#loc221 = loc(callsite(#loc136 at #loc2))
#loc222 = loc(callsite(#loc137 at #loc2))
#loc223 = loc(callsite(#loc138 at #loc2))
#loc224 = loc(callsite(#loc139 at #loc2))
#loc225 = loc(callsite(#loc140 at #loc2))
#loc226 = loc(callsite(#loc141 at #loc2))
#loc227 = loc(callsite(#loc142 at #loc2))
#loc228 = loc(callsite(#loc143 at #loc2))
#loc229 = loc(callsite(#loc144 at #loc2))
#loc230 = loc(callsite(#loc145 at #loc2))
#loc231 = loc(callsite(#loc146 at #loc2))
#loc232 = loc(callsite(#loc147 at #loc2))
#loc233 = loc(callsite(#loc148 at #loc2))
#loc234 = loc(callsite(#loc149 at #loc2))
#loc235 = loc(callsite(#loc150 at #loc2))
#loc236 = loc(callsite(#loc151 at #loc2))
#loc237 = loc(callsite(#loc152 at #loc2))
#loc238 = loc(callsite(#loc153 at #loc2))
#loc239 = loc(callsite(#loc154 at #loc2))
#loc240 = loc(callsite(#loc155 at #loc2))
#loc241 = loc(callsite(#loc156 at #loc2))
#loc242 = loc(callsite(#loc157 at #loc2))
#loc243 = loc(callsite(#loc158 at #loc2))
#loc244 = loc(callsite(#loc159 at #loc2))
#loc245 = loc(callsite(#loc160 at #loc2))
#loc246 = loc(callsite(#loc161 at #loc2))
#loc247 = loc(callsite(#loc162 at #loc2))
#loc248 = loc(callsite(#loc163 at #loc2))
#loc249 = loc(callsite(#loc164 at #loc2))
#loc250 = loc(callsite(#loc165 at #loc2))
#loc251 = loc(callsite(#loc166 at #loc2))
#loc252 = loc(callsite(#loc167 at #loc2))
#loc253 = loc(callsite(#loc168 at #loc2))
#loc254 = loc(callsite(#loc169 at #loc2))
#loc255 = loc(callsite(#loc170 at #loc2))
#loc256 = loc(callsite(#loc171 at #loc2))
#loc257 = loc(callsite(#loc172 at #loc2))
#loc258 = loc(callsite(#loc173 at #loc2))
#loc259 = loc(callsite(#loc174 at #loc2))
#loc260 = loc("l_i"(#loc175))
#loc261 = loc(callsite(#loc176 at #loc2))
#loc262 = loc(callsite(#loc177 at #loc2))
#loc263 = loc(callsite(#loc178 at #loc2))
#loc264 = loc(callsite(#loc179 at #loc2))
#loc265 = loc(callsite(#loc180 at #loc2))
#loc266 = loc(callsite(#loc181 at #loc2))
#loc267 = loc(callsite(#loc182 at #loc2))
#loc268 = loc(callsite(#loc183 at #loc2))
#loc270 = loc(callsite(#loc185 at #loc2))
#loc271 = loc(callsite(#loc186 at #loc2))
#loc272 = loc(callsite(#loc187 at #loc2))
#loc273 = loc(callsite(#loc188 at #loc2))
#loc275 = loc(callsite(#loc190 at #loc2))
#loc276 = loc(callsite(#loc191 at #loc2))
#loc277 = loc(callsite(#loc192 at #loc2))
#loc278 = loc(callsite(#loc193 at #loc2))
#loc279 = loc(callsite(#loc194 at #loc2))
#loc280 = loc(callsite(#loc195 at #loc2))
#loc281 = loc(callsite(#loc196 at #loc2))
#loc282 = loc(callsite(#loc197 at #loc2))
#loc283 = loc(callsite(#loc198 at #loc2))
#loc284 = loc(callsite(#loc199 at #loc2))
#loc285 = loc(callsite(#loc200 at #loc2))
#loc286 = loc(callsite(#loc201 at #loc2))
#loc287 = loc(callsite(#loc202 at #loc2))
#loc288 = loc(callsite(#loc203 at #loc2))
#loc289 = loc(callsite(#loc205 at #loc2))
#loc290 = loc(callsite(#loc206 at #loc2))
#loc291 = loc(callsite(#loc207 at #loc2))
#loc292 = loc(callsite(#loc208 at #loc2))
#loc293 = loc(callsite(#loc209 at #loc2))
#loc294 = loc(callsite(#loc210 at #loc2))
#loc295 = loc(callsite(#loc211 at #loc2))
#loc296 = loc("acc"(#loc260))
#loc297 = loc(fused[#loc265, #loc247])
#loc298 = loc(callsite(#loc68 at #loc269))
#loc300 = loc(callsite(#loc75 at #loc274))
#loc302 = loc(fused[#loc285, #loc248])
#loc303 = loc(callsite(#loc296 at #loc2))
#loc304 = loc(callsite(#loc70 at #loc298))
#loc305 = loc(callsite(#loc77 at #loc300))
