#loc = loc("/home/tristan/zml/examples/ttir_test/hello_world/python/hello_world_kernel.py":13:0)
#loc17 = loc("A_ptr"(#loc))
#loc18 = loc("B_ptr"(#loc))
#loc19 = loc("C_ptr"(#loc))
module {
  tt.func public @matmul_fixed_kernel(%A_ptr: !tt.ptr<f32> {tt.divisibility = 16 : i32} loc("A_ptr"(#loc)), %B_ptr: !tt.ptr<f32> {tt.divisibility = 16 : i32} loc("B_ptr"(#loc)), %C_ptr: !tt.ptr<f32> {tt.divisibility = 16 : i32} loc("C_ptr"(#loc))) attributes {noinline = false} {
    %c32_i64 = arith.constant 32 : i64 loc(#loc1)
    %cst = arith.constant dense<0.000000e+00> : tensor<32x128xf32> loc(#loc1)
    %cst_0 = arith.constant dense<256> : tensor<1x128xi64> loc(#loc1)
    %cst_1 = arith.constant dense<0> : tensor<1x128xi64> loc(#loc1)
    %cst_2 = arith.constant dense<0> : tensor<32x1xi64> loc(#loc1)
    %cst_3 = arith.constant dense<256> : tensor<32x1xi64> loc(#loc1)
    %cst_4 = arith.constant dense<0.000000e+00> : tensor<128x32xf32> loc(#loc1)
    %cst_5 = arith.constant dense<256> : tensor<1x32xi64> loc(#loc1)
    %cst_6 = arith.constant dense<0> : tensor<1x32xi64> loc(#loc1)
    %cst_7 = arith.constant dense<0> : tensor<128x1xi64> loc(#loc1)
    %cst_8 = arith.constant dense<256> : tensor<128x1xi64> loc(#loc1)
    %c0_i64 = arith.constant 0 : i64 loc(#loc1)
    %c256_i32 = arith.constant 256 : i32 loc(#loc2)
    %cst_9 = arith.constant dense<0.000000e+00> : tensor<128x128xf32> loc(#loc1)
    %c32_i32 = arith.constant 32 : i32 loc(#loc1)
    %c0_i32 = arith.constant 0 : i32 loc(#loc1)
    %c128_i32 = arith.constant 128 : i32 loc(#loc1)
    %pid_m = tt.get_program_id x : i32 loc(#loc20)
    %pid_n = tt.get_program_id y : i32 loc(#loc21)
    %A = arith.muli %pid_m, %c128_i32 : i32 loc(#loc22)
    %A_10 = arith.extsi %A : i32 to i64 loc(#loc23)
    %B = arith.muli %pid_n, %c128_i32 : i32 loc(#loc24)
    %B_11 = arith.extsi %B : i32 to i64 loc(#loc25)
    %a = tt.splat %A_ptr : !tt.ptr<f32> -> tensor<128x32x!tt.ptr<f32>> loc(#loc26)
    %a_12 = tt.splat %A_10 : i64 -> tensor<128xi64> loc(#loc26)
    %a_13 = tt.make_range {end = 128 : i32, start = 0 : i32} : tensor<128xi32> loc(#loc26)
    %a_14 = arith.extsi %a_13 : tensor<128xi32> to tensor<128xi64> loc(#loc26)
    %a_15 = arith.addi %a_12, %a_14 : tensor<128xi64> loc(#loc26)
    %a_16 = tt.expand_dims %a_15 {axis = 1 : i32} : tensor<128xi64> -> tensor<128x1xi64> loc(#loc26)
    %a_17 = arith.muli %a_16, %cst_8 : tensor<128x1xi64> loc(#loc26)
    %a_18 = tt.broadcast %a_17 : tensor<128x1xi64> -> tensor<128x32xi64> loc(#loc26)
    %a_19 = tt.make_range {end = 32 : i32, start = 0 : i32} : tensor<32xi32> loc(#loc26)
    %a_20 = arith.extsi %a_19 : tensor<32xi32> to tensor<32xi64> loc(#loc26)
    %a_21 = arith.cmpi sge, %a_16, %cst_7 : tensor<128x1xi64> loc(#loc26)
    %a_22 = arith.cmpi slt, %a_16, %cst_8 : tensor<128x1xi64> loc(#loc26)
    %a_23 = arith.andi %a_21, %a_22 : tensor<128x1xi1> loc(#loc26)
    %a_24 = tt.broadcast %a_23 : tensor<128x1xi1> -> tensor<128x32xi1> loc(#loc26)
    %b = tt.splat %B_ptr : !tt.ptr<f32> -> tensor<32x128x!tt.ptr<f32>> loc(#loc27)
    %b_25 = tt.splat %B_11 : i64 -> tensor<128xi64> loc(#loc27)
    %b_26 = arith.addi %b_25, %a_14 : tensor<128xi64> loc(#loc27)
    %b_27 = tt.expand_dims %b_26 {axis = 0 : i32} : tensor<128xi64> -> tensor<1x128xi64> loc(#loc27)
    %b_28 = tt.broadcast %b_27 : tensor<1x128xi64> -> tensor<32x128xi64> loc(#loc27)
    %b_29 = arith.cmpi sge, %b_27, %cst_1 : tensor<1x128xi64> loc(#loc27)
    %b_30 = arith.cmpi slt, %b_27, %cst_0 : tensor<1x128xi64> loc(#loc27)
    %b_31 = arith.andi %b_29, %b_30 : tensor<1x128xi1> loc(#loc27)
    %b_32 = tt.broadcast %b_31 : tensor<1x128xi1> -> tensor<32x128xi1> loc(#loc27)
    %acc:3 = scf.for %acc_33 = %c0_i32 to %c256_i32 step %c32_i32 iter_args(%A_34 = %c0_i64, %B_35 = %c0_i64, %arg6 = %cst_9) -> (i64, i64, tensor<128x128xf32>)  : i32 {
      %a_36 = tt.splat %A_34 : i64 -> tensor<32xi64> loc(#loc26)
      %a_37 = arith.addi %a_36, %a_20 : tensor<32xi64> loc(#loc26)
      %a_38 = tt.expand_dims %a_37 {axis = 0 : i32} : tensor<32xi64> -> tensor<1x32xi64> loc(#loc26)
      %a_39 = tt.broadcast %a_38 : tensor<1x32xi64> -> tensor<128x32xi64> loc(#loc26)
      %a_40 = arith.addi %a_18, %a_39 : tensor<128x32xi64> loc(#loc26)
      %a_41 = tt.addptr %a, %a_40 : tensor<128x32x!tt.ptr<f32>>, tensor<128x32xi64> loc(#loc26)
      %a_42 = arith.cmpi sge, %a_38, %cst_6 : tensor<1x32xi64> loc(#loc26)
      %a_43 = arith.cmpi slt, %a_38, %cst_5 : tensor<1x32xi64> loc(#loc26)
      %a_44 = arith.andi %a_42, %a_43 : tensor<1x32xi1> loc(#loc26)
      %a_45 = tt.broadcast %a_44 : tensor<1x32xi1> -> tensor<128x32xi1> loc(#loc26)
      %a_46 = arith.andi %a_24, %a_45 : tensor<128x32xi1> loc(#loc26)
      %a_47 = tt.load %a_41, %a_46, %cst_4 : tensor<128x32x!tt.ptr<f32>> loc(#loc26)
      %b_48 = tt.splat %B_35 : i64 -> tensor<32xi64> loc(#loc27)
      %b_49 = arith.addi %b_48, %a_20 : tensor<32xi64> loc(#loc27)
      %b_50 = tt.expand_dims %b_49 {axis = 1 : i32} : tensor<32xi64> -> tensor<32x1xi64> loc(#loc27)
      %b_51 = arith.muli %b_50, %cst_3 : tensor<32x1xi64> loc(#loc27)
      %b_52 = tt.broadcast %b_51 : tensor<32x1xi64> -> tensor<32x128xi64> loc(#loc27)
      %b_53 = arith.addi %b_52, %b_28 : tensor<32x128xi64> loc(#loc27)
      %b_54 = tt.addptr %b, %b_53 : tensor<32x128x!tt.ptr<f32>>, tensor<32x128xi64> loc(#loc27)
      %b_55 = arith.cmpi sge, %b_50, %cst_2 : tensor<32x1xi64> loc(#loc27)
      %b_56 = arith.cmpi slt, %b_50, %cst_3 : tensor<32x1xi64> loc(#loc27)
      %b_57 = arith.andi %b_55, %b_56 : tensor<32x1xi1> loc(#loc27)
      %b_58 = tt.broadcast %b_57 : tensor<32x1xi1> -> tensor<32x128xi1> loc(#loc27)
      %b_59 = arith.andi %b_58, %b_32 : tensor<32x128xi1> loc(#loc27)
      %b_60 = tt.load %b_54, %b_59, %cst : tensor<32x128x!tt.ptr<f32>> loc(#loc27)
      %acc_61 = tt.dot %a_47, %b_60, %arg6, inputPrecision = tf32 : tensor<128x32xf32> * tensor<32x128xf32> -> tensor<128x128xf32> loc(#loc29)
      %A_62 = arith.addi %A_34, %c32_i64 : i64 loc(#loc30)
      %B_63 = arith.addi %B_35, %c32_i64 : i64 loc(#loc31)
      scf.yield %A_62, %B_63, %acc_61 : i64, i64, tensor<128x128xf32> loc(#loc14)
    } loc(#loc33)
    %0 = tt.splat %C_ptr : !tt.ptr<f32> -> tensor<128x128x!tt.ptr<f32>> loc(#loc15)
    %1 = tt.splat %A_10 : i64 -> tensor<128xi64> loc(#loc15)
    %2 = tt.make_range {end = 128 : i32, start = 0 : i32} : tensor<128xi32> loc(#loc15)
    %3 = arith.extsi %2 : tensor<128xi32> to tensor<128xi64> loc(#loc15)
    %4 = arith.addi %1, %3 : tensor<128xi64> loc(#loc15)
    %5 = tt.expand_dims %4 {axis = 1 : i32} : tensor<128xi64> -> tensor<128x1xi64> loc(#loc15)
    %6 = arith.muli %5, %cst_8 : tensor<128x1xi64> loc(#loc15)
    %7 = tt.broadcast %6 : tensor<128x1xi64> -> tensor<128x128xi64> loc(#loc15)
    %8 = tt.splat %B_11 : i64 -> tensor<128xi64> loc(#loc15)
    %9 = arith.addi %8, %3 : tensor<128xi64> loc(#loc15)
    %10 = tt.expand_dims %9 {axis = 0 : i32} : tensor<128xi64> -> tensor<1x128xi64> loc(#loc15)
    %11 = tt.broadcast %10 : tensor<1x128xi64> -> tensor<128x128xi64> loc(#loc15)
    %12 = arith.addi %7, %11 : tensor<128x128xi64> loc(#loc15)
    %13 = tt.addptr %0, %12 : tensor<128x128x!tt.ptr<f32>>, tensor<128x128xi64> loc(#loc15)
    %14 = arith.cmpi sge, %5, %cst_7 : tensor<128x1xi64> loc(#loc15)
    %15 = arith.cmpi slt, %5, %cst_8 : tensor<128x1xi64> loc(#loc15)
    %16 = arith.andi %14, %15 : tensor<128x1xi1> loc(#loc15)
    %17 = tt.broadcast %16 : tensor<128x1xi1> -> tensor<128x128xi1> loc(#loc15)
    %18 = arith.cmpi sge, %10, %cst_1 : tensor<1x128xi64> loc(#loc15)
    %19 = arith.cmpi slt, %10, %cst_0 : tensor<1x128xi64> loc(#loc15)
    %20 = arith.andi %18, %19 : tensor<1x128xi1> loc(#loc15)
    %21 = tt.broadcast %20 : tensor<1x128xi1> -> tensor<128x128xi1> loc(#loc15)
    %22 = arith.andi %17, %21 : tensor<128x128xi1> loc(#loc15)
    tt.store %13, %acc#2, %22 : tensor<128x128x!tt.ptr<f32>> loc(#loc15)
    tt.return loc(#loc16)
  } loc(#loc)
} loc(#loc)
#loc1 = loc(unknown)
#loc2 = loc("/home/tristan/zml/examples/ttir_test/hello_world/python/hello_world_kernel.py":58:27)
#loc3 = loc("/home/tristan/zml/examples/ttir_test/hello_world/python/hello_world_kernel.py":24:26)
#loc4 = loc("/home/tristan/zml/examples/ttir_test/hello_world/python/hello_world_kernel.py":25:26)
#loc5 = loc("/home/tristan/zml/examples/ttir_test/hello_world/python/hello_world_kernel.py":35:25)
#loc6 = loc("/home/tristan/zml/examples/ttir_test/hello_world/python/hello_world_kernel.py":37:8)
#loc7 = loc("/home/tristan/zml/examples/ttir_test/hello_world/python/hello_world_kernel.py":43:28)
#loc8 = loc("/home/tristan/zml/examples/ttir_test/hello_world/python/hello_world_kernel.py":45:8)
#loc9 = loc("/home/tristan/zml/examples/ttir_test/hello_world/python/hello_world_kernel.py":59:20)
#loc10 = loc("/home/tristan/zml/examples/ttir_test/hello_world/python/hello_world_kernel.py":60:20)
#loc11 = loc("/home/tristan/zml/examples/ttir_test/hello_world/python/hello_world_kernel.py":61:25)
#loc12 = loc("/home/tristan/zml/examples/ttir_test/hello_world/python/hello_world_kernel.py":62:26)
#loc13 = loc("/home/tristan/zml/examples/ttir_test/hello_world/python/hello_world_kernel.py":63:26)
#loc14 = loc("/home/tristan/zml/examples/ttir_test/hello_world/python/hello_world_kernel.py":63:8)
#loc15 = loc("/home/tristan/zml/examples/ttir_test/hello_world/python/hello_world_kernel.py":65:16)
#loc16 = loc("/home/tristan/zml/examples/ttir_test/hello_world/python/hello_world_kernel.py":65:4)
#loc20 = loc("pid_m"(#loc3))
#loc21 = loc("pid_n"(#loc4))
#loc22 = loc("A"(#loc5))
#loc23 = loc("A"(#loc6))
#loc24 = loc("B"(#loc7))
#loc25 = loc("B"(#loc8))
#loc26 = loc("a"(#loc9))
#loc27 = loc("b"(#loc10))
#loc28 = loc("A"(#loc2))
#loc29 = loc("acc"(#loc11))
#loc30 = loc("A"(#loc12))
#loc31 = loc("B"(#loc13))
#loc32 = loc("B"(#loc28))
#loc33 = loc("acc"(#loc32))
